module @optimized_matmul attributes {llvm.data_layout = "e-m:w-p270:32:32-p271:32:32-p272:64:64-i64:64-f80:128-n8:16:32:64-S128"} {
  accv.module "optimized_matmul"  {
    "accv.global"() {sym_name = "cache_17", type = memref<16x128x2xvector<8xf32>>} : () -> ()
    "accv.global"() {sym_name = "cache_16", type = memref<16x6x2xvector<8xf32>>} : () -> ()
    func @optimized_matmul_py_4a6286d9_impl_17630232307017152746(%arg0: memref<784x128xf32, affine_map<(d0, d1) -> (d0 * 128 + d1)>>, %arg1: memref<128x512xf32, affine_map<(d0, d1) -> (d0 * 512 + d1)>>, %arg2: memref<784x512xf32, affine_map<(d0, d1) -> (d0 * 512 + d1)>>) attributes {exec_target = 0 : i64, sym_visibility = "nested"} {
      %c0 = constant 0 : index
      %cst = constant 0.000000e+00 : f32
      %c0_i64 = constant 0 : i64
      %c1_i64 = constant 1 : i64
      %c2_i64 = constant 2 : i64
      %c3_i64 = constant 3 : i64
      %c4_i64 = constant 4 : i64
      %c5_i64 = constant 5 : i64
      %c6_i64 = constant 6 : i64
      %c7_i64 = constant 7 : i64
      %cst_0 = constant dense<0.000000e+00> : vector<8xf32>
      %c1 = constant 1 : index
      %c2 = constant 2 : index
      %c3 = constant 3 : index
      %c4 = constant 4 : index
      %c5 = constant 5 : index
      %c6 = constant 6 : index
      %c7 = constant 7 : index
      %c8 = constant 8 : index
      %c9 = constant 9 : index
      %c10 = constant 10 : index
      %c11 = constant 11 : index
      %c12 = constant 12 : index
      %c13 = constant 13 : index
      %c14 = constant 14 : index
      %c15 = constant 15 : index
      %0 = alloca() {alignment = 32 : i64} : memref<1x16xvector<8xf32>>
      %1 = alloca() {alignment = 32 : i64} : memref<1x16xvector<8xf32>>
      %2 = "accv.ref_global"() {global_name = @cache_16} : () -> memref<16x6x2xvector<8xf32>>
      %3 = "accv.ref_global"() {global_name = @cache_17} : () -> memref<16x128x2xvector<8xf32>>
      affine.for %arg3 = 0 to 512 step 256 {
        affine.for %arg4 = 0 to 128 {
          affine.for %arg5 = 0 to 256 step 128 {
            affine.if affine_set<() : (0 == 0)>() {
              %4 = affine.apply affine_map<(d0, d1) -> (d0 + d1)>(%arg3, %arg5)
              %5 = vector.transfer_read %arg1[%arg4, %4], %cst {masked = [false]} : memref<128x512xf32, affine_map<(d0, d1) -> (d0 * 512 + d1)>>, vector<8xf32>
              store %5, %0[%c0, %c0] : memref<1x16xvector<8xf32>>
              %6 = affine.apply affine_map<(d0, d1) -> (d0 + d1 + 8)>(%arg3, %arg5)
              %7 = vector.transfer_read %arg1[%arg4, %6], %cst {masked = [false]} : memref<128x512xf32, affine_map<(d0, d1) -> (d0 * 512 + d1)>>, vector<8xf32>
              store %7, %0[%c0, %c1] : memref<1x16xvector<8xf32>>
              %8 = affine.apply affine_map<(d0, d1) -> (d0 + d1 + 16)>(%arg3, %arg5)
              %9 = vector.transfer_read %arg1[%arg4, %8], %cst {masked = [false]} : memref<128x512xf32, affine_map<(d0, d1) -> (d0 * 512 + d1)>>, vector<8xf32>
              store %9, %0[%c0, %c2] : memref<1x16xvector<8xf32>>
              %10 = affine.apply affine_map<(d0, d1) -> (d0 + d1 + 24)>(%arg3, %arg5)
              %11 = vector.transfer_read %arg1[%arg4, %10], %cst {masked = [false]} : memref<128x512xf32, affine_map<(d0, d1) -> (d0 * 512 + d1)>>, vector<8xf32>
              store %11, %0[%c0, %c3] : memref<1x16xvector<8xf32>>
              %12 = affine.apply affine_map<(d0, d1) -> (d0 + d1 + 32)>(%arg3, %arg5)
              %13 = vector.transfer_read %arg1[%arg4, %12], %cst {masked = [false]} : memref<128x512xf32, affine_map<(d0, d1) -> (d0 * 512 + d1)>>, vector<8xf32>
              store %13, %0[%c0, %c4] : memref<1x16xvector<8xf32>>
              %14 = affine.apply affine_map<(d0, d1) -> (d0 + d1 + 40)>(%arg3, %arg5)
              %15 = vector.transfer_read %arg1[%arg4, %14], %cst {masked = [false]} : memref<128x512xf32, affine_map<(d0, d1) -> (d0 * 512 + d1)>>, vector<8xf32>
              store %15, %0[%c0, %c5] : memref<1x16xvector<8xf32>>
              %16 = affine.apply affine_map<(d0, d1) -> (d0 + d1 + 48)>(%arg3, %arg5)
              %17 = vector.transfer_read %arg1[%arg4, %16], %cst {masked = [false]} : memref<128x512xf32, affine_map<(d0, d1) -> (d0 * 512 + d1)>>, vector<8xf32>
              store %17, %0[%c0, %c6] : memref<1x16xvector<8xf32>>
              %18 = affine.apply affine_map<(d0, d1) -> (d0 + d1 + 56)>(%arg3, %arg5)
              %19 = vector.transfer_read %arg1[%arg4, %18], %cst {masked = [false]} : memref<128x512xf32, affine_map<(d0, d1) -> (d0 * 512 + d1)>>, vector<8xf32>
              store %19, %0[%c0, %c7] : memref<1x16xvector<8xf32>>
              %20 = affine.apply affine_map<(d0, d1) -> (d0 + d1 + 64)>(%arg3, %arg5)
              %21 = vector.transfer_read %arg1[%arg4, %20], %cst {masked = [false]} : memref<128x512xf32, affine_map<(d0, d1) -> (d0 * 512 + d1)>>, vector<8xf32>
              store %21, %0[%c0, %c8] : memref<1x16xvector<8xf32>>
              %22 = affine.apply affine_map<(d0, d1) -> (d0 + d1 + 72)>(%arg3, %arg5)
              %23 = vector.transfer_read %arg1[%arg4, %22], %cst {masked = [false]} : memref<128x512xf32, affine_map<(d0, d1) -> (d0 * 512 + d1)>>, vector<8xf32>
              store %23, %0[%c0, %c9] : memref<1x16xvector<8xf32>>
              %24 = affine.apply affine_map<(d0, d1) -> (d0 + d1 + 80)>(%arg3, %arg5)
              %25 = vector.transfer_read %arg1[%arg4, %24], %cst {masked = [false]} : memref<128x512xf32, affine_map<(d0, d1) -> (d0 * 512 + d1)>>, vector<8xf32>
              store %25, %0[%c0, %c10] : memref<1x16xvector<8xf32>>
              %26 = affine.apply affine_map<(d0, d1) -> (d0 + d1 + 88)>(%arg3, %arg5)
              %27 = vector.transfer_read %arg1[%arg4, %26], %cst {masked = [false]} : memref<128x512xf32, affine_map<(d0, d1) -> (d0 * 512 + d1)>>, vector<8xf32>
              store %27, %0[%c0, %c11] : memref<1x16xvector<8xf32>>
              %28 = affine.apply affine_map<(d0, d1) -> (d0 + d1 + 96)>(%arg3, %arg5)
              %29 = vector.transfer_read %arg1[%arg4, %28], %cst {masked = [false]} : memref<128x512xf32, affine_map<(d0, d1) -> (d0 * 512 + d1)>>, vector<8xf32>
              store %29, %0[%c0, %c12] : memref<1x16xvector<8xf32>>
              %30 = affine.apply affine_map<(d0, d1) -> (d0 + d1 + 104)>(%arg3, %arg5)
              %31 = vector.transfer_read %arg1[%arg4, %30], %cst {masked = [false]} : memref<128x512xf32, affine_map<(d0, d1) -> (d0 * 512 + d1)>>, vector<8xf32>
              store %31, %0[%c0, %c13] : memref<1x16xvector<8xf32>>
              %32 = affine.apply affine_map<(d0, d1) -> (d0 + d1 + 112)>(%arg3, %arg5)
              %33 = vector.transfer_read %arg1[%arg4, %32], %cst {masked = [false]} : memref<128x512xf32, affine_map<(d0, d1) -> (d0 * 512 + d1)>>, vector<8xf32>
              store %33, %0[%c0, %c14] : memref<1x16xvector<8xf32>>
              %34 = affine.apply affine_map<(d0, d1) -> (d0 + d1 + 120)>(%arg3, %arg5)
              %35 = vector.transfer_read %arg1[%arg4, %34], %cst {masked = [false]} : memref<128x512xf32, affine_map<(d0, d1) -> (d0 * 512 + d1)>>, vector<8xf32>
              store %35, %0[%c0, %c15] : memref<1x16xvector<8xf32>>
              %36 = load %0[%c0, %c0] : memref<1x16xvector<8xf32>>
              affine.store %36, %3[((%arg5 + %c0 * 8) floordiv 16) mod 16, (%arg4 + %c0) mod 128, (((%arg5 + %c0 * 8) mod 16) floordiv 8) mod 2] : memref<16x128x2xvector<8xf32>>
              %37 = load %0[%c0, %c1] : memref<1x16xvector<8xf32>>
              affine.store %37, %3[((%arg5 + %c1 * 8) floordiv 16) mod 16, (%arg4 + %c0) mod 128, (((%arg5 + %c1 * 8) mod 16) floordiv 8) mod 2] : memref<16x128x2xvector<8xf32>>
              %38 = load %0[%c0, %c2] : memref<1x16xvector<8xf32>>
              affine.store %38, %3[((%arg5 + %c2 * 8) floordiv 16) mod 16, (%arg4 + %c0) mod 128, (((%arg5 + %c2 * 8) mod 16) floordiv 8) mod 2] : memref<16x128x2xvector<8xf32>>
              %39 = load %0[%c0, %c3] : memref<1x16xvector<8xf32>>
              affine.store %39, %3[((%arg5 + %c3 * 8) floordiv 16) mod 16, (%arg4 + %c0) mod 128, (((%arg5 + %c3 * 8) mod 16) floordiv 8) mod 2] : memref<16x128x2xvector<8xf32>>
              %40 = load %0[%c0, %c4] : memref<1x16xvector<8xf32>>
              affine.store %40, %3[((%arg5 + %c4 * 8) floordiv 16) mod 16, (%arg4 + %c0) mod 128, (((%arg5 + %c4 * 8) mod 16) floordiv 8) mod 2] : memref<16x128x2xvector<8xf32>>
              %41 = load %0[%c0, %c5] : memref<1x16xvector<8xf32>>
              affine.store %41, %3[((%arg5 + %c5 * 8) floordiv 16) mod 16, (%arg4 + %c0) mod 128, (((%arg5 + %c5 * 8) mod 16) floordiv 8) mod 2] : memref<16x128x2xvector<8xf32>>
              %42 = load %0[%c0, %c6] : memref<1x16xvector<8xf32>>
              affine.store %42, %3[((%arg5 + %c6 * 8) floordiv 16) mod 16, (%arg4 + %c0) mod 128, (((%arg5 + %c6 * 8) mod 16) floordiv 8) mod 2] : memref<16x128x2xvector<8xf32>>
              %43 = load %0[%c0, %c7] : memref<1x16xvector<8xf32>>
              affine.store %43, %3[((%arg5 + %c7 * 8) floordiv 16) mod 16, (%arg4 + %c0) mod 128, (((%arg5 + %c7 * 8) mod 16) floordiv 8) mod 2] : memref<16x128x2xvector<8xf32>>
              %44 = load %0[%c0, %c8] : memref<1x16xvector<8xf32>>
              affine.store %44, %3[((%arg5 + %c8 * 8) floordiv 16) mod 16, (%arg4 + %c0) mod 128, (((%arg5 + %c8 * 8) mod 16) floordiv 8) mod 2] : memref<16x128x2xvector<8xf32>>
              %45 = load %0[%c0, %c9] : memref<1x16xvector<8xf32>>
              affine.store %45, %3[((%arg5 + %c9 * 8) floordiv 16) mod 16, (%arg4 + %c0) mod 128, (((%arg5 + %c9 * 8) mod 16) floordiv 8) mod 2] : memref<16x128x2xvector<8xf32>>
              %46 = load %0[%c0, %c10] : memref<1x16xvector<8xf32>>
              affine.store %46, %3[((%arg5 + %c10 * 8) floordiv 16) mod 16, (%arg4 + %c0) mod 128, (((%arg5 + %c10 * 8) mod 16) floordiv 8) mod 2] : memref<16x128x2xvector<8xf32>>
              %47 = load %0[%c0, %c11] : memref<1x16xvector<8xf32>>
              affine.store %47, %3[((%arg5 + %c11 * 8) floordiv 16) mod 16, (%arg4 + %c0) mod 128, (((%arg5 + %c11 * 8) mod 16) floordiv 8) mod 2] : memref<16x128x2xvector<8xf32>>
              %48 = load %0[%c0, %c12] : memref<1x16xvector<8xf32>>
              affine.store %48, %3[((%arg5 + %c12 * 8) floordiv 16) mod 16, (%arg4 + %c0) mod 128, (((%arg5 + %c12 * 8) mod 16) floordiv 8) mod 2] : memref<16x128x2xvector<8xf32>>
              %49 = load %0[%c0, %c13] : memref<1x16xvector<8xf32>>
              affine.store %49, %3[((%arg5 + %c13 * 8) floordiv 16) mod 16, (%arg4 + %c0) mod 128, (((%arg5 + %c13 * 8) mod 16) floordiv 8) mod 2] : memref<16x128x2xvector<8xf32>>
              %50 = load %0[%c0, %c14] : memref<1x16xvector<8xf32>>
              affine.store %50, %3[((%arg5 + %c14 * 8) floordiv 16) mod 16, (%arg4 + %c0) mod 128, (((%arg5 + %c14 * 8) mod 16) floordiv 8) mod 2] : memref<16x128x2xvector<8xf32>>
              %51 = load %0[%c0, %c15] : memref<1x16xvector<8xf32>>
              affine.store %51, %3[((%arg5 + %c15 * 8) floordiv 16) mod 16, (%arg4 + %c0) mod 128, (((%arg5 + %c15 * 8) mod 16) floordiv 8) mod 2] : memref<16x128x2xvector<8xf32>>
            } else {
              %4 = affine.apply affine_map<(d0, d1) -> (d0 + d1)>(%arg3, %arg5)
              %5 = vector.transfer_read %arg1[%arg4, %4], %cst : memref<128x512xf32, affine_map<(d0, d1) -> (d0 * 512 + d1)>>, vector<8xf32>
              store %5, %0[%c0, %c0] : memref<1x16xvector<8xf32>>
              %6 = affine.apply affine_map<(d0, d1) -> (d0 + d1 + 8)>(%arg3, %arg5)
              %7 = vector.transfer_read %arg1[%arg4, %6], %cst : memref<128x512xf32, affine_map<(d0, d1) -> (d0 * 512 + d1)>>, vector<8xf32>
              store %7, %0[%c0, %c1] : memref<1x16xvector<8xf32>>
              %8 = affine.apply affine_map<(d0, d1) -> (d0 + d1 + 16)>(%arg3, %arg5)
              %9 = vector.transfer_read %arg1[%arg4, %8], %cst : memref<128x512xf32, affine_map<(d0, d1) -> (d0 * 512 + d1)>>, vector<8xf32>
              store %9, %0[%c0, %c2] : memref<1x16xvector<8xf32>>
              %10 = affine.apply affine_map<(d0, d1) -> (d0 + d1 + 24)>(%arg3, %arg5)
              %11 = vector.transfer_read %arg1[%arg4, %10], %cst : memref<128x512xf32, affine_map<(d0, d1) -> (d0 * 512 + d1)>>, vector<8xf32>
              store %11, %0[%c0, %c3] : memref<1x16xvector<8xf32>>
              %12 = affine.apply affine_map<(d0, d1) -> (d0 + d1 + 32)>(%arg3, %arg5)
              %13 = vector.transfer_read %arg1[%arg4, %12], %cst : memref<128x512xf32, affine_map<(d0, d1) -> (d0 * 512 + d1)>>, vector<8xf32>
              store %13, %0[%c0, %c4] : memref<1x16xvector<8xf32>>
              %14 = affine.apply affine_map<(d0, d1) -> (d0 + d1 + 40)>(%arg3, %arg5)
              %15 = vector.transfer_read %arg1[%arg4, %14], %cst : memref<128x512xf32, affine_map<(d0, d1) -> (d0 * 512 + d1)>>, vector<8xf32>
              store %15, %0[%c0, %c5] : memref<1x16xvector<8xf32>>
              %16 = affine.apply affine_map<(d0, d1) -> (d0 + d1 + 48)>(%arg3, %arg5)
              %17 = vector.transfer_read %arg1[%arg4, %16], %cst : memref<128x512xf32, affine_map<(d0, d1) -> (d0 * 512 + d1)>>, vector<8xf32>
              store %17, %0[%c0, %c6] : memref<1x16xvector<8xf32>>
              %18 = affine.apply affine_map<(d0, d1) -> (d0 + d1 + 56)>(%arg3, %arg5)
              %19 = vector.transfer_read %arg1[%arg4, %18], %cst : memref<128x512xf32, affine_map<(d0, d1) -> (d0 * 512 + d1)>>, vector<8xf32>
              store %19, %0[%c0, %c7] : memref<1x16xvector<8xf32>>
              %20 = affine.apply affine_map<(d0, d1) -> (d0 + d1 + 64)>(%arg3, %arg5)
              %21 = vector.transfer_read %arg1[%arg4, %20], %cst : memref<128x512xf32, affine_map<(d0, d1) -> (d0 * 512 + d1)>>, vector<8xf32>
              store %21, %0[%c0, %c8] : memref<1x16xvector<8xf32>>
              %22 = affine.apply affine_map<(d0, d1) -> (d0 + d1 + 72)>(%arg3, %arg5)
              %23 = vector.transfer_read %arg1[%arg4, %22], %cst : memref<128x512xf32, affine_map<(d0, d1) -> (d0 * 512 + d1)>>, vector<8xf32>
              store %23, %0[%c0, %c9] : memref<1x16xvector<8xf32>>
              %24 = affine.apply affine_map<(d0, d1) -> (d0 + d1 + 80)>(%arg3, %arg5)
              %25 = vector.transfer_read %arg1[%arg4, %24], %cst : memref<128x512xf32, affine_map<(d0, d1) -> (d0 * 512 + d1)>>, vector<8xf32>
              store %25, %0[%c0, %c10] : memref<1x16xvector<8xf32>>
              %26 = affine.apply affine_map<(d0, d1) -> (d0 + d1 + 88)>(%arg3, %arg5)
              %27 = vector.transfer_read %arg1[%arg4, %26], %cst : memref<128x512xf32, affine_map<(d0, d1) -> (d0 * 512 + d1)>>, vector<8xf32>
              store %27, %0[%c0, %c11] : memref<1x16xvector<8xf32>>
              %28 = affine.apply affine_map<(d0, d1) -> (d0 + d1 + 96)>(%arg3, %arg5)
              %29 = vector.transfer_read %arg1[%arg4, %28], %cst : memref<128x512xf32, affine_map<(d0, d1) -> (d0 * 512 + d1)>>, vector<8xf32>
              store %29, %0[%c0, %c12] : memref<1x16xvector<8xf32>>
              %30 = affine.apply affine_map<(d0, d1) -> (d0 + d1 + 104)>(%arg3, %arg5)
              %31 = vector.transfer_read %arg1[%arg4, %30], %cst : memref<128x512xf32, affine_map<(d0, d1) -> (d0 * 512 + d1)>>, vector<8xf32>
              store %31, %0[%c0, %c13] : memref<1x16xvector<8xf32>>
              %32 = affine.apply affine_map<(d0, d1) -> (d0 + d1 + 112)>(%arg3, %arg5)
              %33 = vector.transfer_read %arg1[%arg4, %32], %cst : memref<128x512xf32, affine_map<(d0, d1) -> (d0 * 512 + d1)>>, vector<8xf32>
              store %33, %0[%c0, %c14] : memref<1x16xvector<8xf32>>
              %34 = affine.apply affine_map<(d0, d1) -> (d0 + d1 + 120)>(%arg3, %arg5)
              %35 = vector.transfer_read %arg1[%arg4, %34], %cst : memref<128x512xf32, affine_map<(d0, d1) -> (d0 * 512 + d1)>>, vector<8xf32>
              store %35, %0[%c0, %c15] : memref<1x16xvector<8xf32>>
              %36 = load %0[%c0, %c0] : memref<1x16xvector<8xf32>>
              affine.store %36, %3[((%arg5 + %c0 * 8) floordiv 16) mod 16, (%arg4 + %c0) mod 128, (((%arg5 + %c0 * 8) mod 16) floordiv 8) mod 2] : memref<16x128x2xvector<8xf32>>
              %37 = load %0[%c0, %c1] : memref<1x16xvector<8xf32>>
              affine.store %37, %3[((%arg5 + %c1 * 8) floordiv 16) mod 16, (%arg4 + %c0) mod 128, (((%arg5 + %c1 * 8) mod 16) floordiv 8) mod 2] : memref<16x128x2xvector<8xf32>>
              %38 = load %0[%c0, %c2] : memref<1x16xvector<8xf32>>
              affine.store %38, %3[((%arg5 + %c2 * 8) floordiv 16) mod 16, (%arg4 + %c0) mod 128, (((%arg5 + %c2 * 8) mod 16) floordiv 8) mod 2] : memref<16x128x2xvector<8xf32>>
              %39 = load %0[%c0, %c3] : memref<1x16xvector<8xf32>>
              affine.store %39, %3[((%arg5 + %c3 * 8) floordiv 16) mod 16, (%arg4 + %c0) mod 128, (((%arg5 + %c3 * 8) mod 16) floordiv 8) mod 2] : memref<16x128x2xvector<8xf32>>
              %40 = load %0[%c0, %c4] : memref<1x16xvector<8xf32>>
              affine.store %40, %3[((%arg5 + %c4 * 8) floordiv 16) mod 16, (%arg4 + %c0) mod 128, (((%arg5 + %c4 * 8) mod 16) floordiv 8) mod 2] : memref<16x128x2xvector<8xf32>>
              %41 = load %0[%c0, %c5] : memref<1x16xvector<8xf32>>
              affine.store %41, %3[((%arg5 + %c5 * 8) floordiv 16) mod 16, (%arg4 + %c0) mod 128, (((%arg5 + %c5 * 8) mod 16) floordiv 8) mod 2] : memref<16x128x2xvector<8xf32>>
              %42 = load %0[%c0, %c6] : memref<1x16xvector<8xf32>>
              affine.store %42, %3[((%arg5 + %c6 * 8) floordiv 16) mod 16, (%arg4 + %c0) mod 128, (((%arg5 + %c6 * 8) mod 16) floordiv 8) mod 2] : memref<16x128x2xvector<8xf32>>
              %43 = load %0[%c0, %c7] : memref<1x16xvector<8xf32>>
              affine.store %43, %3[((%arg5 + %c7 * 8) floordiv 16) mod 16, (%arg4 + %c0) mod 128, (((%arg5 + %c7 * 8) mod 16) floordiv 8) mod 2] : memref<16x128x2xvector<8xf32>>
              %44 = load %0[%c0, %c8] : memref<1x16xvector<8xf32>>
              affine.store %44, %3[((%arg5 + %c8 * 8) floordiv 16) mod 16, (%arg4 + %c0) mod 128, (((%arg5 + %c8 * 8) mod 16) floordiv 8) mod 2] : memref<16x128x2xvector<8xf32>>
              %45 = load %0[%c0, %c9] : memref<1x16xvector<8xf32>>
              affine.store %45, %3[((%arg5 + %c9 * 8) floordiv 16) mod 16, (%arg4 + %c0) mod 128, (((%arg5 + %c9 * 8) mod 16) floordiv 8) mod 2] : memref<16x128x2xvector<8xf32>>
              %46 = load %0[%c0, %c10] : memref<1x16xvector<8xf32>>
              affine.store %46, %3[((%arg5 + %c10 * 8) floordiv 16) mod 16, (%arg4 + %c0) mod 128, (((%arg5 + %c10 * 8) mod 16) floordiv 8) mod 2] : memref<16x128x2xvector<8xf32>>
              %47 = load %0[%c0, %c11] : memref<1x16xvector<8xf32>>
              affine.store %47, %3[((%arg5 + %c11 * 8) floordiv 16) mod 16, (%arg4 + %c0) mod 128, (((%arg5 + %c11 * 8) mod 16) floordiv 8) mod 2] : memref<16x128x2xvector<8xf32>>
              %48 = load %0[%c0, %c12] : memref<1x16xvector<8xf32>>
              affine.store %48, %3[((%arg5 + %c12 * 8) floordiv 16) mod 16, (%arg4 + %c0) mod 128, (((%arg5 + %c12 * 8) mod 16) floordiv 8) mod 2] : memref<16x128x2xvector<8xf32>>
              %49 = load %0[%c0, %c13] : memref<1x16xvector<8xf32>>
              affine.store %49, %3[((%arg5 + %c13 * 8) floordiv 16) mod 16, (%arg4 + %c0) mod 128, (((%arg5 + %c13 * 8) mod 16) floordiv 8) mod 2] : memref<16x128x2xvector<8xf32>>
              %50 = load %0[%c0, %c14] : memref<1x16xvector<8xf32>>
              affine.store %50, %3[((%arg5 + %c14 * 8) floordiv 16) mod 16, (%arg4 + %c0) mod 128, (((%arg5 + %c14 * 8) mod 16) floordiv 8) mod 2] : memref<16x128x2xvector<8xf32>>
              %51 = load %0[%c0, %c15] : memref<1x16xvector<8xf32>>
              affine.store %51, %3[((%arg5 + %c15 * 8) floordiv 16) mod 16, (%arg4 + %c0) mod 128, (((%arg5 + %c15 * 8) mod 16) floordiv 8) mod 2] : memref<16x128x2xvector<8xf32>>
            }
          } {begin = 0 : i64, end = 256 : i64, index = #accln<"index{j_o,21}">, subdomainIndexOrder = [#accln<"index{i,17}">, #accln<"index{j,18}">], subdomainSize = [1, 128]}
        } {begin = 0 : i64, end = 128 : i64, index = #accln<"index{i_o,19}">, subdomainIndexOrder = [#accln<"index{i,17}">, #accln<"index{j,18}">], subdomainSize = [1, 256]}
        affine.for %arg4 = 0 to 784 {
          affine.for %arg5 = 0 to 16 {
            affine.for %arg6 = 0 to 6 {
              affine.for %arg7 = 0 to 2 {
                store %cst_0, %2[%arg5, %arg6, %arg7] : memref<16x6x2xvector<8xf32>>
              } {begin = 0 : i64, end = 2 : i64, index = #accln<"index{j_i_i_i,16}">, subdomainIndexOrder = [#accln<"index{j_i_i,14}">, #accln<"index{j_i_i_o,15}">, #accln<"index{j_i_i_i,16}">], subdomainSize = [1, 1, 1]}
            } {begin = 0 : i64, end = 6 : i64, index = #accln<"index{j_i_i_o,15}">, subdomainIndexOrder = [#accln<"index{j_i_i,14}">, #accln<"index{j_i_i_o,15}">, #accln<"index{j_i_i_i,16}">], subdomainSize = [1, 1, 2]}
          } {begin = 0 : i64, end = 16 : i64, index = #accln<"index{j_i_i,14}">, subdomainIndexOrder = [#accln<"index{j_i_i,14}">, #accln<"index{j_i_i_o,15}">, #accln<"index{j_i_i_i,16}">], subdomainSize = [1, 6, 2]}
          affine.for %arg5 = 0 to 256 step 16 {
            affine.for %arg6 = 0 to 128 step 4 {
              affine.for %arg7 = 0 to 0 step 6 {
                affine.for %arg8 = 0 to 4 {
                  affine.for %arg9 = 0 to 0 {
                    %4 = affine.apply affine_map<(d0, d1, d2) -> (d0 + d1 + d2)>(%arg4, %arg7, %arg9)
                    %5 = affine.apply affine_map<(d0, d1, d2) -> (d0 + d1 + d2)>(%arg4, %arg7, %arg9)
                    %6 = affine.apply affine_map<(d0, d1, d2) -> (d0 + d1 + d2)>(%arg4, %arg7, %arg9)
                    %7 = affine.apply affine_map<(d0, d1, d2) -> (d0 + d1 + d2)>(%arg4, %arg7, %arg9)
                    %8 = affine.apply affine_map<(d0, d1, d2) -> (d0 + d1 + d2)>(%arg4, %arg7, %arg9)
                    %9 = affine.apply affine_map<(d0, d1, d2) -> (d0 + d1 + d2)>(%arg4, %arg7, %arg9)
                    %10 = affine.apply affine_map<(d0, d1, d2) -> (d0 + d1 + d2)>(%arg4, %arg7, %arg9)
                    %11 = affine.apply affine_map<(d0, d1, d2) -> (d0 + d1 + d2)>(%arg4, %arg7, %arg9)
                    %12 = affine.apply affine_map<(d0, d1) -> (d0 + d1)>(%arg3, %arg5)
                    %13 = affine.apply affine_map<(d0, d1) -> (d0 + d1)>(%arg6, %arg8)
                    %14 = affine.apply affine_map<(d0, d1) -> (d0 + d1)>(%arg6, %arg8)
                    %15 = affine.apply affine_map<(d0, d1) -> (d0 + d1)>(%arg6, %arg8)
                    %16 = affine.apply affine_map<(d0, d1) -> (d0 + d1)>(%arg6, %arg8)
                    %17 = affine.apply affine_map<(d0, d1) -> (d0 + d1)>(%arg6, %arg8)
                    %18 = affine.apply affine_map<(d0, d1) -> (d0 + d1)>(%arg6, %arg8)
                    %19 = affine.apply affine_map<(d0, d1) -> (d0 + d1)>(%arg6, %arg8)
                    %20 = affine.apply affine_map<(d0, d1) -> (d0 + d1)>(%arg6, %arg8)
                    %21 = load %arg0[%4, %13] : memref<784x128xf32, affine_map<(d0, d1) -> (d0 * 128 + d1)>>
                    %22 = load %arg0[%5, %14] : memref<784x128xf32, affine_map<(d0, d1) -> (d0 * 128 + d1)>>
                    %23 = load %arg0[%6, %15] : memref<784x128xf32, affine_map<(d0, d1) -> (d0 * 128 + d1)>>
                    %24 = load %arg0[%7, %16] : memref<784x128xf32, affine_map<(d0, d1) -> (d0 * 128 + d1)>>
                    %25 = load %arg0[%8, %17] : memref<784x128xf32, affine_map<(d0, d1) -> (d0 * 128 + d1)>>
                    %26 = load %arg0[%9, %18] : memref<784x128xf32, affine_map<(d0, d1) -> (d0 * 128 + d1)>>
                    %27 = load %arg0[%10, %19] : memref<784x128xf32, affine_map<(d0, d1) -> (d0 * 128 + d1)>>
                    %28 = load %arg0[%11, %20] : memref<784x128xf32, affine_map<(d0, d1) -> (d0 * 128 + d1)>>
                    %29 = affine.load %3[((%12 - %arg3) floordiv 16) mod 16, (%13 - %c0) mod 128, (((%12 - %arg3) mod 16) floordiv 8) mod 2] : memref<16x128x2xvector<8xf32>>
                    %30 = vector.extractelement %29[%c0_i64 : i64] : vector<8xf32>
                    %31 = affine.apply affine_map<(d0, d1) -> (d0 + d1)>(%arg3, %arg5)
                    %32 = affine.load %3[((%31 - %arg3) floordiv 16) mod 16, (%14 - %c0) mod 128, (((%31 - %arg3) mod 16) floordiv 8) mod 2] : memref<16x128x2xvector<8xf32>>
                    %33 = vector.extractelement %32[%c1_i64 : i64] : vector<8xf32>
                    %34 = affine.apply affine_map<(d0, d1) -> (d0 + d1)>(%arg3, %arg5)
                    %35 = affine.load %3[((%34 - %arg3) floordiv 16) mod 16, (%15 - %c0) mod 128, (((%34 - %arg3) mod 16) floordiv 8) mod 2] : memref<16x128x2xvector<8xf32>>
                    %36 = vector.extractelement %35[%c2_i64 : i64] : vector<8xf32>
                    %37 = affine.apply affine_map<(d0, d1) -> (d0 + d1)>(%arg3, %arg5)
                    %38 = affine.load %3[((%37 - %arg3) floordiv 16) mod 16, (%16 - %c0) mod 128, (((%37 - %arg3) mod 16) floordiv 8) mod 2] : memref<16x128x2xvector<8xf32>>
                    %39 = vector.extractelement %38[%c3_i64 : i64] : vector<8xf32>
                    %40 = affine.apply affine_map<(d0, d1) -> (d0 + d1)>(%arg3, %arg5)
                    %41 = affine.load %3[((%40 - %arg3) floordiv 16) mod 16, (%17 - %c0) mod 128, (((%40 - %arg3) mod 16) floordiv 8) mod 2] : memref<16x128x2xvector<8xf32>>
                    %42 = vector.extractelement %41[%c4_i64 : i64] : vector<8xf32>
                    %43 = affine.apply affine_map<(d0, d1) -> (d0 + d1)>(%arg3, %arg5)
                    %44 = affine.load %3[((%43 - %arg3) floordiv 16) mod 16, (%18 - %c0) mod 128, (((%43 - %arg3) mod 16) floordiv 8) mod 2] : memref<16x128x2xvector<8xf32>>
                    %45 = vector.extractelement %44[%c5_i64 : i64] : vector<8xf32>
                    %46 = affine.apply affine_map<(d0, d1) -> (d0 + d1)>(%arg3, %arg5)
                    %47 = affine.load %3[((%46 - %arg3) floordiv 16) mod 16, (%19 - %c0) mod 128, (((%46 - %arg3) mod 16) floordiv 8) mod 2] : memref<16x128x2xvector<8xf32>>
                    %48 = vector.extractelement %47[%c6_i64 : i64] : vector<8xf32>
                    %49 = affine.apply affine_map<(d0, d1) -> (d0 + d1)>(%arg3, %arg5)
                    %50 = affine.load %3[((%49 - %arg3) floordiv 16) mod 16, (%20 - %c0) mod 128, (((%49 - %arg3) mod 16) floordiv 8) mod 2] : memref<16x128x2xvector<8xf32>>
                    %51 = vector.extractelement %50[%c7_i64 : i64] : vector<8xf32>
                    %52 = "accv.bin_op"(%21, %30) {predicate = 2 : i64} : (f32, f32) -> f32
                    %53 = "accv.bin_op"(%22, %33) {predicate = 2 : i64} : (f32, f32) -> f32
                    %54 = "accv.bin_op"(%23, %36) {predicate = 2 : i64} : (f32, f32) -> f32
                    %55 = "accv.bin_op"(%24, %39) {predicate = 2 : i64} : (f32, f32) -> f32
                    %56 = "accv.bin_op"(%25, %42) {predicate = 2 : i64} : (f32, f32) -> f32
                    %57 = "accv.bin_op"(%26, %45) {predicate = 2 : i64} : (f32, f32) -> f32
                    %58 = "accv.bin_op"(%27, %48) {predicate = 2 : i64} : (f32, f32) -> f32
                    %59 = "accv.bin_op"(%28, %51) {predicate = 2 : i64} : (f32, f32) -> f32
                    %60 = affine.load %2[((%12 - %arg3) floordiv 16) mod 16, (%4 - %arg4) mod 6, (((%12 - %arg3) mod 16) floordiv 8) mod 2] : memref<16x6x2xvector<8xf32>>
                    %61 = vector.extractelement %60[%c0_i64 : i64] : vector<8xf32>
                    %62 = affine.apply affine_map<(d0, d1) -> (d0 + d1)>(%arg3, %arg5)
                    %63 = affine.load %2[((%62 - %arg3) floordiv 16) mod 16, (%5 - %arg4) mod 6, (((%62 - %arg3) mod 16) floordiv 8) mod 2] : memref<16x6x2xvector<8xf32>>
                    %64 = vector.extractelement %63[%c1_i64 : i64] : vector<8xf32>
                    %65 = affine.apply affine_map<(d0, d1) -> (d0 + d1)>(%arg3, %arg5)
                    %66 = affine.load %2[((%65 - %arg3) floordiv 16) mod 16, (%6 - %arg4) mod 6, (((%65 - %arg3) mod 16) floordiv 8) mod 2] : memref<16x6x2xvector<8xf32>>
                    %67 = vector.extractelement %66[%c2_i64 : i64] : vector<8xf32>
                    %68 = affine.apply affine_map<(d0, d1) -> (d0 + d1)>(%arg3, %arg5)
                    %69 = affine.load %2[((%68 - %arg3) floordiv 16) mod 16, (%7 - %arg4) mod 6, (((%68 - %arg3) mod 16) floordiv 8) mod 2] : memref<16x6x2xvector<8xf32>>
                    %70 = vector.extractelement %69[%c3_i64 : i64] : vector<8xf32>
                    %71 = affine.apply affine_map<(d0, d1) -> (d0 + d1)>(%arg3, %arg5)
                    %72 = affine.load %2[((%71 - %arg3) floordiv 16) mod 16, (%8 - %arg4) mod 6, (((%71 - %arg3) mod 16) floordiv 8) mod 2] : memref<16x6x2xvector<8xf32>>
                    %73 = vector.extractelement %72[%c4_i64 : i64] : vector<8xf32>
                    %74 = affine.apply affine_map<(d0, d1) -> (d0 + d1)>(%arg3, %arg5)
                    %75 = affine.load %2[((%74 - %arg3) floordiv 16) mod 16, (%9 - %arg4) mod 6, (((%74 - %arg3) mod 16) floordiv 8) mod 2] : memref<16x6x2xvector<8xf32>>
                    %76 = vector.extractelement %75[%c5_i64 : i64] : vector<8xf32>
                    %77 = affine.apply affine_map<(d0, d1) -> (d0 + d1)>(%arg3, %arg5)
                    %78 = affine.load %2[((%77 - %arg3) floordiv 16) mod 16, (%10 - %arg4) mod 6, (((%77 - %arg3) mod 16) floordiv 8) mod 2] : memref<16x6x2xvector<8xf32>>
                    %79 = vector.extractelement %78[%c6_i64 : i64] : vector<8xf32>
                    %80 = affine.apply affine_map<(d0, d1) -> (d0 + d1)>(%arg3, %arg5)
                    %81 = affine.load %2[((%80 - %arg3) floordiv 16) mod 16, (%11 - %arg4) mod 6, (((%80 - %arg3) mod 16) floordiv 8) mod 2] : memref<16x6x2xvector<8xf32>>
                    %82 = vector.extractelement %81[%c7_i64 : i64] : vector<8xf32>
                    %83 = "accv.bin_op"(%61, %52) {predicate = 0 : i64} : (f32, f32) -> f32
                    %84 = "accv.bin_op"(%64, %53) {predicate = 0 : i64} : (f32, f32) -> f32
                    %85 = "accv.bin_op"(%67, %54) {predicate = 0 : i64} : (f32, f32) -> f32
                    %86 = "accv.bin_op"(%70, %55) {predicate = 0 : i64} : (f32, f32) -> f32
                    %87 = "accv.bin_op"(%73, %56) {predicate = 0 : i64} : (f32, f32) -> f32
                    %88 = "accv.bin_op"(%76, %57) {predicate = 0 : i64} : (f32, f32) -> f32
                    %89 = "accv.bin_op"(%79, %58) {predicate = 0 : i64} : (f32, f32) -> f32
                    %90 = "accv.bin_op"(%82, %59) {predicate = 0 : i64} : (f32, f32) -> f32
                    %91 = affine.load %2[((%12 - %arg3) floordiv 16) mod 16, (%4 - %arg4) mod 6, (((%12 - %arg3) mod 16) floordiv 8) mod 2] : memref<16x6x2xvector<8xf32>>
                    %92 = vector.insertelement %83, %91[%c0_i64 : i64] : vector<8xf32>
                    affine.store %92, %2[((%12 - %arg3) floordiv 16) mod 16, (%4 - %arg4) mod 6, (((%12 - %arg3) mod 16) floordiv 8) mod 2] : memref<16x6x2xvector<8xf32>>
                    %93 = affine.apply affine_map<(d0, d1) -> (d0 + d1)>(%arg3, %arg5)
                    %94 = affine.load %2[((%93 - %arg3) floordiv 16) mod 16, (%5 - %arg4) mod 6, (((%93 - %arg3) mod 16) floordiv 8) mod 2] : memref<16x6x2xvector<8xf32>>
                    %95 = vector.insertelement %84, %94[%c1_i64 : i64] : vector<8xf32>
                    affine.store %95, %2[((%93 - %arg3) floordiv 16) mod 16, (%5 - %arg4) mod 6, (((%93 - %arg3) mod 16) floordiv 8) mod 2] : memref<16x6x2xvector<8xf32>>
                    %96 = affine.apply affine_map<(d0, d1) -> (d0 + d1)>(%arg3, %arg5)
                    %97 = affine.load %2[((%96 - %arg3) floordiv 16) mod 16, (%6 - %arg4) mod 6, (((%96 - %arg3) mod 16) floordiv 8) mod 2] : memref<16x6x2xvector<8xf32>>
                    %98 = vector.insertelement %85, %97[%c2_i64 : i64] : vector<8xf32>
                    affine.store %98, %2[((%96 - %arg3) floordiv 16) mod 16, (%6 - %arg4) mod 6, (((%96 - %arg3) mod 16) floordiv 8) mod 2] : memref<16x6x2xvector<8xf32>>
                    %99 = affine.apply affine_map<(d0, d1) -> (d0 + d1)>(%arg3, %arg5)
                    %100 = affine.load %2[((%99 - %arg3) floordiv 16) mod 16, (%7 - %arg4) mod 6, (((%99 - %arg3) mod 16) floordiv 8) mod 2] : memref<16x6x2xvector<8xf32>>
                    %101 = vector.insertelement %86, %100[%c3_i64 : i64] : vector<8xf32>
                    affine.store %101, %2[((%99 - %arg3) floordiv 16) mod 16, (%7 - %arg4) mod 6, (((%99 - %arg3) mod 16) floordiv 8) mod 2] : memref<16x6x2xvector<8xf32>>
                    %102 = affine.apply affine_map<(d0, d1) -> (d0 + d1)>(%arg3, %arg5)
                    %103 = affine.load %2[((%102 - %arg3) floordiv 16) mod 16, (%8 - %arg4) mod 6, (((%102 - %arg3) mod 16) floordiv 8) mod 2] : memref<16x6x2xvector<8xf32>>
                    %104 = vector.insertelement %87, %103[%c4_i64 : i64] : vector<8xf32>
                    affine.store %104, %2[((%102 - %arg3) floordiv 16) mod 16, (%8 - %arg4) mod 6, (((%102 - %arg3) mod 16) floordiv 8) mod 2] : memref<16x6x2xvector<8xf32>>
                    %105 = affine.apply affine_map<(d0, d1) -> (d0 + d1)>(%arg3, %arg5)
                    %106 = affine.load %2[((%105 - %arg3) floordiv 16) mod 16, (%9 - %arg4) mod 6, (((%105 - %arg3) mod 16) floordiv 8) mod 2] : memref<16x6x2xvector<8xf32>>
                    %107 = vector.insertelement %88, %106[%c5_i64 : i64] : vector<8xf32>
                    affine.store %107, %2[((%105 - %arg3) floordiv 16) mod 16, (%9 - %arg4) mod 6, (((%105 - %arg3) mod 16) floordiv 8) mod 2] : memref<16x6x2xvector<8xf32>>
                    %108 = affine.apply affine_map<(d0, d1) -> (d0 + d1)>(%arg3, %arg5)
                    %109 = affine.load %2[((%108 - %arg3) floordiv 16) mod 16, (%10 - %arg4) mod 6, (((%108 - %arg3) mod 16) floordiv 8) mod 2] : memref<16x6x2xvector<8xf32>>
                    %110 = vector.insertelement %89, %109[%c6_i64 : i64] : vector<8xf32>
                    affine.store %110, %2[((%108 - %arg3) floordiv 16) mod 16, (%10 - %arg4) mod 6, (((%108 - %arg3) mod 16) floordiv 8) mod 2] : memref<16x6x2xvector<8xf32>>
                    %111 = affine.apply affine_map<(d0, d1) -> (d0 + d1)>(%arg3, %arg5)
                    %112 = affine.load %2[((%111 - %arg3) floordiv 16) mod 16, (%11 - %arg4) mod 6, (((%111 - %arg3) mod 16) floordiv 8) mod 2] : memref<16x6x2xvector<8xf32>>
                    %113 = vector.insertelement %90, %112[%c7_i64 : i64] : vector<8xf32>
                    affine.store %113, %2[((%111 - %arg3) floordiv 16) mod 16, (%11 - %arg4) mod 6, (((%111 - %arg3) mod 16) floordiv 8) mod 2] : memref<16x6x2xvector<8xf32>>
                    %114 = affine.load %2[((%12 - %arg3) floordiv 16) mod 16, (%4 - %arg4) mod 6, (((%12 - %arg3) mod 16) floordiv 8) mod 2] : memref<16x6x2xvector<8xf32>>
                    %115 = vector.insertelement %83, %114[%c0_i64 : i64] : vector<8xf32>
                    affine.store %115, %2[((%12 - %arg3) floordiv 16) mod 16, (%4 - %arg4) mod 6, (((%12 - %arg3) mod 16) floordiv 8) mod 2] : memref<16x6x2xvector<8xf32>>
                    %116 = affine.apply affine_map<(d0, d1) -> (d0 + d1)>(%arg3, %arg5)
                    %117 = affine.load %2[((%116 - %arg3) floordiv 16) mod 16, (%5 - %arg4) mod 6, (((%116 - %arg3) mod 16) floordiv 8) mod 2] : memref<16x6x2xvector<8xf32>>
                    %118 = vector.insertelement %84, %117[%c1_i64 : i64] : vector<8xf32>
                    affine.store %118, %2[((%116 - %arg3) floordiv 16) mod 16, (%5 - %arg4) mod 6, (((%116 - %arg3) mod 16) floordiv 8) mod 2] : memref<16x6x2xvector<8xf32>>
                    %119 = affine.apply affine_map<(d0, d1) -> (d0 + d1)>(%arg3, %arg5)
                    %120 = affine.load %2[((%119 - %arg3) floordiv 16) mod 16, (%6 - %arg4) mod 6, (((%119 - %arg3) mod 16) floordiv 8) mod 2] : memref<16x6x2xvector<8xf32>>
                    %121 = vector.insertelement %85, %120[%c2_i64 : i64] : vector<8xf32>
                    affine.store %121, %2[((%119 - %arg3) floordiv 16) mod 16, (%6 - %arg4) mod 6, (((%119 - %arg3) mod 16) floordiv 8) mod 2] : memref<16x6x2xvector<8xf32>>
                    %122 = affine.apply affine_map<(d0, d1) -> (d0 + d1)>(%arg3, %arg5)
                    %123 = affine.load %2[((%122 - %arg3) floordiv 16) mod 16, (%7 - %arg4) mod 6, (((%122 - %arg3) mod 16) floordiv 8) mod 2] : memref<16x6x2xvector<8xf32>>
                    %124 = vector.insertelement %86, %123[%c3_i64 : i64] : vector<8xf32>
                    affine.store %124, %2[((%122 - %arg3) floordiv 16) mod 16, (%7 - %arg4) mod 6, (((%122 - %arg3) mod 16) floordiv 8) mod 2] : memref<16x6x2xvector<8xf32>>
                    %125 = affine.apply affine_map<(d0, d1) -> (d0 + d1)>(%arg3, %arg5)
                    %126 = affine.load %2[((%125 - %arg3) floordiv 16) mod 16, (%8 - %arg4) mod 6, (((%125 - %arg3) mod 16) floordiv 8) mod 2] : memref<16x6x2xvector<8xf32>>
                    %127 = vector.insertelement %87, %126[%c4_i64 : i64] : vector<8xf32>
                    affine.store %127, %2[((%125 - %arg3) floordiv 16) mod 16, (%8 - %arg4) mod 6, (((%125 - %arg3) mod 16) floordiv 8) mod 2] : memref<16x6x2xvector<8xf32>>
                    %128 = affine.apply affine_map<(d0, d1) -> (d0 + d1)>(%arg3, %arg5)
                    %129 = affine.load %2[((%128 - %arg3) floordiv 16) mod 16, (%9 - %arg4) mod 6, (((%128 - %arg3) mod 16) floordiv 8) mod 2] : memref<16x6x2xvector<8xf32>>
                    %130 = vector.insertelement %88, %129[%c5_i64 : i64] : vector<8xf32>
                    affine.store %130, %2[((%128 - %arg3) floordiv 16) mod 16, (%9 - %arg4) mod 6, (((%128 - %arg3) mod 16) floordiv 8) mod 2] : memref<16x6x2xvector<8xf32>>
                    %131 = affine.apply affine_map<(d0, d1) -> (d0 + d1)>(%arg3, %arg5)
                    %132 = affine.load %2[((%131 - %arg3) floordiv 16) mod 16, (%10 - %arg4) mod 6, (((%131 - %arg3) mod 16) floordiv 8) mod 2] : memref<16x6x2xvector<8xf32>>
                    %133 = vector.insertelement %89, %132[%c6_i64 : i64] : vector<8xf32>
                    affine.store %133, %2[((%131 - %arg3) floordiv 16) mod 16, (%10 - %arg4) mod 6, (((%131 - %arg3) mod 16) floordiv 8) mod 2] : memref<16x6x2xvector<8xf32>>
                    %134 = affine.apply affine_map<(d0, d1) -> (d0 + d1)>(%arg3, %arg5)
                    %135 = affine.load %2[((%134 - %arg3) floordiv 16) mod 16, (%11 - %arg4) mod 6, (((%134 - %arg3) mod 16) floordiv 8) mod 2] : memref<16x6x2xvector<8xf32>>
                    %136 = vector.insertelement %90, %135[%c7_i64 : i64] : vector<8xf32>
                    affine.store %136, %2[((%134 - %arg3) floordiv 16) mod 16, (%11 - %arg4) mod 6, (((%134 - %arg3) mod 16) floordiv 8) mod 2] : memref<16x6x2xvector<8xf32>>
                    %137 = affine.apply affine_map<(d0, d1, d2) -> (d0 + d1 + d2)>(%arg4, %arg7, %arg9)
                    %138 = affine.apply affine_map<(d0, d1, d2) -> (d0 + d1 + d2)>(%arg4, %arg7, %arg9)
                    %139 = affine.apply affine_map<(d0, d1, d2) -> (d0 + d1 + d2)>(%arg4, %arg7, %arg9)
                    %140 = affine.apply affine_map<(d0, d1, d2) -> (d0 + d1 + d2)>(%arg4, %arg7, %arg9)
                    %141 = affine.apply affine_map<(d0, d1, d2) -> (d0 + d1 + d2)>(%arg4, %arg7, %arg9)
                    %142 = affine.apply affine_map<(d0, d1, d2) -> (d0 + d1 + d2)>(%arg4, %arg7, %arg9)
                    %143 = affine.apply affine_map<(d0, d1, d2) -> (d0 + d1 + d2)>(%arg4, %arg7, %arg9)
                    %144 = affine.apply affine_map<(d0, d1, d2) -> (d0 + d1 + d2)>(%arg4, %arg7, %arg9)
                    %145 = affine.apply affine_map<(d0, d1) -> (d0 + d1 + 8)>(%arg3, %arg5)
                    %146 = affine.apply affine_map<(d0, d1) -> (d0 + d1)>(%arg6, %arg8)
                    %147 = affine.apply affine_map<(d0, d1) -> (d0 + d1)>(%arg6, %arg8)
                    %148 = affine.apply affine_map<(d0, d1) -> (d0 + d1)>(%arg6, %arg8)
                    %149 = affine.apply affine_map<(d0, d1) -> (d0 + d1)>(%arg6, %arg8)
                    %150 = affine.apply affine_map<(d0, d1) -> (d0 + d1)>(%arg6, %arg8)
                    %151 = affine.apply affine_map<(d0, d1) -> (d0 + d1)>(%arg6, %arg8)
                    %152 = affine.apply affine_map<(d0, d1) -> (d0 + d1)>(%arg6, %arg8)
                    %153 = affine.apply affine_map<(d0, d1) -> (d0 + d1)>(%arg6, %arg8)
                    %154 = load %arg0[%137, %146] : memref<784x128xf32, affine_map<(d0, d1) -> (d0 * 128 + d1)>>
                    %155 = load %arg0[%138, %147] : memref<784x128xf32, affine_map<(d0, d1) -> (d0 * 128 + d1)>>
                    %156 = load %arg0[%139, %148] : memref<784x128xf32, affine_map<(d0, d1) -> (d0 * 128 + d1)>>
                    %157 = load %arg0[%140, %149] : memref<784x128xf32, affine_map<(d0, d1) -> (d0 * 128 + d1)>>
                    %158 = load %arg0[%141, %150] : memref<784x128xf32, affine_map<(d0, d1) -> (d0 * 128 + d1)>>
                    %159 = load %arg0[%142, %151] : memref<784x128xf32, affine_map<(d0, d1) -> (d0 * 128 + d1)>>
                    %160 = load %arg0[%143, %152] : memref<784x128xf32, affine_map<(d0, d1) -> (d0 * 128 + d1)>>
                    %161 = load %arg0[%144, %153] : memref<784x128xf32, affine_map<(d0, d1) -> (d0 * 128 + d1)>>
                    %162 = affine.load %3[((%145 - %arg3) floordiv 16) mod 16, (%146 - %c0) mod 128, (((%145 - %arg3) mod 16) floordiv 8) mod 2] : memref<16x128x2xvector<8xf32>>
                    %163 = vector.extractelement %162[%c0_i64 : i64] : vector<8xf32>
                    %164 = affine.apply affine_map<(d0, d1) -> (d0 + d1 + 8)>(%arg3, %arg5)
                    %165 = affine.load %3[((%164 - %arg3) floordiv 16) mod 16, (%147 - %c0) mod 128, (((%164 - %arg3) mod 16) floordiv 8) mod 2] : memref<16x128x2xvector<8xf32>>
                    %166 = vector.extractelement %165[%c1_i64 : i64] : vector<8xf32>
                    %167 = affine.apply affine_map<(d0, d1) -> (d0 + d1 + 8)>(%arg3, %arg5)
                    %168 = affine.load %3[((%167 - %arg3) floordiv 16) mod 16, (%148 - %c0) mod 128, (((%167 - %arg3) mod 16) floordiv 8) mod 2] : memref<16x128x2xvector<8xf32>>
                    %169 = vector.extractelement %168[%c2_i64 : i64] : vector<8xf32>
                    %170 = affine.apply affine_map<(d0, d1) -> (d0 + d1 + 8)>(%arg3, %arg5)
                    %171 = affine.load %3[((%170 - %arg3) floordiv 16) mod 16, (%149 - %c0) mod 128, (((%170 - %arg3) mod 16) floordiv 8) mod 2] : memref<16x128x2xvector<8xf32>>
                    %172 = vector.extractelement %171[%c3_i64 : i64] : vector<8xf32>
                    %173 = affine.apply affine_map<(d0, d1) -> (d0 + d1 + 8)>(%arg3, %arg5)
                    %174 = affine.load %3[((%173 - %arg3) floordiv 16) mod 16, (%150 - %c0) mod 128, (((%173 - %arg3) mod 16) floordiv 8) mod 2] : memref<16x128x2xvector<8xf32>>
                    %175 = vector.extractelement %174[%c4_i64 : i64] : vector<8xf32>
                    %176 = affine.apply affine_map<(d0, d1) -> (d0 + d1 + 8)>(%arg3, %arg5)
                    %177 = affine.load %3[((%176 - %arg3) floordiv 16) mod 16, (%151 - %c0) mod 128, (((%176 - %arg3) mod 16) floordiv 8) mod 2] : memref<16x128x2xvector<8xf32>>
                    %178 = vector.extractelement %177[%c5_i64 : i64] : vector<8xf32>
                    %179 = affine.apply affine_map<(d0, d1) -> (d0 + d1 + 8)>(%arg3, %arg5)
                    %180 = affine.load %3[((%179 - %arg3) floordiv 16) mod 16, (%152 - %c0) mod 128, (((%179 - %arg3) mod 16) floordiv 8) mod 2] : memref<16x128x2xvector<8xf32>>
                    %181 = vector.extractelement %180[%c6_i64 : i64] : vector<8xf32>
                    %182 = affine.apply affine_map<(d0, d1) -> (d0 + d1 + 8)>(%arg3, %arg5)
                    %183 = affine.load %3[((%182 - %arg3) floordiv 16) mod 16, (%153 - %c0) mod 128, (((%182 - %arg3) mod 16) floordiv 8) mod 2] : memref<16x128x2xvector<8xf32>>
                    %184 = vector.extractelement %183[%c7_i64 : i64] : vector<8xf32>
                    %185 = "accv.bin_op"(%154, %163) {predicate = 2 : i64} : (f32, f32) -> f32
                    %186 = "accv.bin_op"(%155, %166) {predicate = 2 : i64} : (f32, f32) -> f32
                    %187 = "accv.bin_op"(%156, %169) {predicate = 2 : i64} : (f32, f32) -> f32
                    %188 = "accv.bin_op"(%157, %172) {predicate = 2 : i64} : (f32, f32) -> f32
                    %189 = "accv.bin_op"(%158, %175) {predicate = 2 : i64} : (f32, f32) -> f32
                    %190 = "accv.bin_op"(%159, %178) {predicate = 2 : i64} : (f32, f32) -> f32
                    %191 = "accv.bin_op"(%160, %181) {predicate = 2 : i64} : (f32, f32) -> f32
                    %192 = "accv.bin_op"(%161, %184) {predicate = 2 : i64} : (f32, f32) -> f32
                    %193 = affine.load %2[((%145 - %arg3) floordiv 16) mod 16, (%137 - %arg4) mod 6, (((%145 - %arg3) mod 16) floordiv 8) mod 2] : memref<16x6x2xvector<8xf32>>
                    %194 = vector.extractelement %193[%c0_i64 : i64] : vector<8xf32>
                    %195 = affine.apply affine_map<(d0, d1) -> (d0 + d1 + 8)>(%arg3, %arg5)
                    %196 = affine.load %2[((%195 - %arg3) floordiv 16) mod 16, (%138 - %arg4) mod 6, (((%195 - %arg3) mod 16) floordiv 8) mod 2] : memref<16x6x2xvector<8xf32>>
                    %197 = vector.extractelement %196[%c1_i64 : i64] : vector<8xf32>
                    %198 = affine.apply affine_map<(d0, d1) -> (d0 + d1 + 8)>(%arg3, %arg5)
                    %199 = affine.load %2[((%198 - %arg3) floordiv 16) mod 16, (%139 - %arg4) mod 6, (((%198 - %arg3) mod 16) floordiv 8) mod 2] : memref<16x6x2xvector<8xf32>>
                    %200 = vector.extractelement %199[%c2_i64 : i64] : vector<8xf32>
                    %201 = affine.apply affine_map<(d0, d1) -> (d0 + d1 + 8)>(%arg3, %arg5)
                    %202 = affine.load %2[((%201 - %arg3) floordiv 16) mod 16, (%140 - %arg4) mod 6, (((%201 - %arg3) mod 16) floordiv 8) mod 2] : memref<16x6x2xvector<8xf32>>
                    %203 = vector.extractelement %202[%c3_i64 : i64] : vector<8xf32>
                    %204 = affine.apply affine_map<(d0, d1) -> (d0 + d1 + 8)>(%arg3, %arg5)
                    %205 = affine.load %2[((%204 - %arg3) floordiv 16) mod 16, (%141 - %arg4) mod 6, (((%204 - %arg3) mod 16) floordiv 8) mod 2] : memref<16x6x2xvector<8xf32>>
                    %206 = vector.extractelement %205[%c4_i64 : i64] : vector<8xf32>
                    %207 = affine.apply affine_map<(d0, d1) -> (d0 + d1 + 8)>(%arg3, %arg5)
                    %208 = affine.load %2[((%207 - %arg3) floordiv 16) mod 16, (%142 - %arg4) mod 6, (((%207 - %arg3) mod 16) floordiv 8) mod 2] : memref<16x6x2xvector<8xf32>>
                    %209 = vector.extractelement %208[%c5_i64 : i64] : vector<8xf32>
                    %210 = affine.apply affine_map<(d0, d1) -> (d0 + d1 + 8)>(%arg3, %arg5)
                    %211 = affine.load %2[((%210 - %arg3) floordiv 16) mod 16, (%143 - %arg4) mod 6, (((%210 - %arg3) mod 16) floordiv 8) mod 2] : memref<16x6x2xvector<8xf32>>
                    %212 = vector.extractelement %211[%c6_i64 : i64] : vector<8xf32>
                    %213 = affine.apply affine_map<(d0, d1) -> (d0 + d1 + 8)>(%arg3, %arg5)
                    %214 = affine.load %2[((%213 - %arg3) floordiv 16) mod 16, (%144 - %arg4) mod 6, (((%213 - %arg3) mod 16) floordiv 8) mod 2] : memref<16x6x2xvector<8xf32>>
                    %215 = vector.extractelement %214[%c7_i64 : i64] : vector<8xf32>
                    %216 = "accv.bin_op"(%194, %185) {predicate = 0 : i64} : (f32, f32) -> f32
                    %217 = "accv.bin_op"(%197, %186) {predicate = 0 : i64} : (f32, f32) -> f32
                    %218 = "accv.bin_op"(%200, %187) {predicate = 0 : i64} : (f32, f32) -> f32
                    %219 = "accv.bin_op"(%203, %188) {predicate = 0 : i64} : (f32, f32) -> f32
                    %220 = "accv.bin_op"(%206, %189) {predicate = 0 : i64} : (f32, f32) -> f32
                    %221 = "accv.bin_op"(%209, %190) {predicate = 0 : i64} : (f32, f32) -> f32
                    %222 = "accv.bin_op"(%212, %191) {predicate = 0 : i64} : (f32, f32) -> f32
                    %223 = "accv.bin_op"(%215, %192) {predicate = 0 : i64} : (f32, f32) -> f32
                    %224 = affine.load %2[((%145 - %arg3) floordiv 16) mod 16, (%137 - %arg4) mod 6, (((%145 - %arg3) mod 16) floordiv 8) mod 2] : memref<16x6x2xvector<8xf32>>
                    %225 = vector.insertelement %216, %224[%c0_i64 : i64] : vector<8xf32>
                    affine.store %225, %2[((%145 - %arg3) floordiv 16) mod 16, (%137 - %arg4) mod 6, (((%145 - %arg3) mod 16) floordiv 8) mod 2] : memref<16x6x2xvector<8xf32>>
                    %226 = affine.apply affine_map<(d0, d1) -> (d0 + d1 + 8)>(%arg3, %arg5)
                    %227 = affine.load %2[((%226 - %arg3) floordiv 16) mod 16, (%138 - %arg4) mod 6, (((%226 - %arg3) mod 16) floordiv 8) mod 2] : memref<16x6x2xvector<8xf32>>
                    %228 = vector.insertelement %217, %227[%c1_i64 : i64] : vector<8xf32>
                    affine.store %228, %2[((%226 - %arg3) floordiv 16) mod 16, (%138 - %arg4) mod 6, (((%226 - %arg3) mod 16) floordiv 8) mod 2] : memref<16x6x2xvector<8xf32>>
                    %229 = affine.apply affine_map<(d0, d1) -> (d0 + d1 + 8)>(%arg3, %arg5)
                    %230 = affine.load %2[((%229 - %arg3) floordiv 16) mod 16, (%139 - %arg4) mod 6, (((%229 - %arg3) mod 16) floordiv 8) mod 2] : memref<16x6x2xvector<8xf32>>
                    %231 = vector.insertelement %218, %230[%c2_i64 : i64] : vector<8xf32>
                    affine.store %231, %2[((%229 - %arg3) floordiv 16) mod 16, (%139 - %arg4) mod 6, (((%229 - %arg3) mod 16) floordiv 8) mod 2] : memref<16x6x2xvector<8xf32>>
                    %232 = affine.apply affine_map<(d0, d1) -> (d0 + d1 + 8)>(%arg3, %arg5)
                    %233 = affine.load %2[((%232 - %arg3) floordiv 16) mod 16, (%140 - %arg4) mod 6, (((%232 - %arg3) mod 16) floordiv 8) mod 2] : memref<16x6x2xvector<8xf32>>
                    %234 = vector.insertelement %219, %233[%c3_i64 : i64] : vector<8xf32>
                    affine.store %234, %2[((%232 - %arg3) floordiv 16) mod 16, (%140 - %arg4) mod 6, (((%232 - %arg3) mod 16) floordiv 8) mod 2] : memref<16x6x2xvector<8xf32>>
                    %235 = affine.apply affine_map<(d0, d1) -> (d0 + d1 + 8)>(%arg3, %arg5)
                    %236 = affine.load %2[((%235 - %arg3) floordiv 16) mod 16, (%141 - %arg4) mod 6, (((%235 - %arg3) mod 16) floordiv 8) mod 2] : memref<16x6x2xvector<8xf32>>
                    %237 = vector.insertelement %220, %236[%c4_i64 : i64] : vector<8xf32>
                    affine.store %237, %2[((%235 - %arg3) floordiv 16) mod 16, (%141 - %arg4) mod 6, (((%235 - %arg3) mod 16) floordiv 8) mod 2] : memref<16x6x2xvector<8xf32>>
                    %238 = affine.apply affine_map<(d0, d1) -> (d0 + d1 + 8)>(%arg3, %arg5)
                    %239 = affine.load %2[((%238 - %arg3) floordiv 16) mod 16, (%142 - %arg4) mod 6, (((%238 - %arg3) mod 16) floordiv 8) mod 2] : memref<16x6x2xvector<8xf32>>
                    %240 = vector.insertelement %221, %239[%c5_i64 : i64] : vector<8xf32>
                    affine.store %240, %2[((%238 - %arg3) floordiv 16) mod 16, (%142 - %arg4) mod 6, (((%238 - %arg3) mod 16) floordiv 8) mod 2] : memref<16x6x2xvector<8xf32>>
                    %241 = affine.apply affine_map<(d0, d1) -> (d0 + d1 + 8)>(%arg3, %arg5)
                    %242 = affine.load %2[((%241 - %arg3) floordiv 16) mod 16, (%143 - %arg4) mod 6, (((%241 - %arg3) mod 16) floordiv 8) mod 2] : memref<16x6x2xvector<8xf32>>
                    %243 = vector.insertelement %222, %242[%c6_i64 : i64] : vector<8xf32>
                    affine.store %243, %2[((%241 - %arg3) floordiv 16) mod 16, (%143 - %arg4) mod 6, (((%241 - %arg3) mod 16) floordiv 8) mod 2] : memref<16x6x2xvector<8xf32>>
                    %244 = affine.apply affine_map<(d0, d1) -> (d0 + d1 + 8)>(%arg3, %arg5)
                    %245 = affine.load %2[((%244 - %arg3) floordiv 16) mod 16, (%144 - %arg4) mod 6, (((%244 - %arg3) mod 16) floordiv 8) mod 2] : memref<16x6x2xvector<8xf32>>
                    %246 = vector.insertelement %223, %245[%c7_i64 : i64] : vector<8xf32>
                    affine.store %246, %2[((%244 - %arg3) floordiv 16) mod 16, (%144 - %arg4) mod 6, (((%244 - %arg3) mod 16) floordiv 8) mod 2] : memref<16x6x2xvector<8xf32>>
                    %247 = affine.load %2[((%145 - %arg3) floordiv 16) mod 16, (%137 - %arg4) mod 6, (((%145 - %arg3) mod 16) floordiv 8) mod 2] : memref<16x6x2xvector<8xf32>>
                    %248 = vector.insertelement %216, %247[%c0_i64 : i64] : vector<8xf32>
                    affine.store %248, %2[((%145 - %arg3) floordiv 16) mod 16, (%137 - %arg4) mod 6, (((%145 - %arg3) mod 16) floordiv 8) mod 2] : memref<16x6x2xvector<8xf32>>
                    %249 = affine.apply affine_map<(d0, d1) -> (d0 + d1 + 8)>(%arg3, %arg5)
                    %250 = affine.load %2[((%249 - %arg3) floordiv 16) mod 16, (%138 - %arg4) mod 6, (((%249 - %arg3) mod 16) floordiv 8) mod 2] : memref<16x6x2xvector<8xf32>>
                    %251 = vector.insertelement %217, %250[%c1_i64 : i64] : vector<8xf32>
                    affine.store %251, %2[((%249 - %arg3) floordiv 16) mod 16, (%138 - %arg4) mod 6, (((%249 - %arg3) mod 16) floordiv 8) mod 2] : memref<16x6x2xvector<8xf32>>
                    %252 = affine.apply affine_map<(d0, d1) -> (d0 + d1 + 8)>(%arg3, %arg5)
                    %253 = affine.load %2[((%252 - %arg3) floordiv 16) mod 16, (%139 - %arg4) mod 6, (((%252 - %arg3) mod 16) floordiv 8) mod 2] : memref<16x6x2xvector<8xf32>>
                    %254 = vector.insertelement %218, %253[%c2_i64 : i64] : vector<8xf32>
                    affine.store %254, %2[((%252 - %arg3) floordiv 16) mod 16, (%139 - %arg4) mod 6, (((%252 - %arg3) mod 16) floordiv 8) mod 2] : memref<16x6x2xvector<8xf32>>
                    %255 = affine.apply affine_map<(d0, d1) -> (d0 + d1 + 8)>(%arg3, %arg5)
                    %256 = affine.load %2[((%255 - %arg3) floordiv 16) mod 16, (%140 - %arg4) mod 6, (((%255 - %arg3) mod 16) floordiv 8) mod 2] : memref<16x6x2xvector<8xf32>>
                    %257 = vector.insertelement %219, %256[%c3_i64 : i64] : vector<8xf32>
                    affine.store %257, %2[((%255 - %arg3) floordiv 16) mod 16, (%140 - %arg4) mod 6, (((%255 - %arg3) mod 16) floordiv 8) mod 2] : memref<16x6x2xvector<8xf32>>
                    %258 = affine.apply affine_map<(d0, d1) -> (d0 + d1 + 8)>(%arg3, %arg5)
                    %259 = affine.load %2[((%258 - %arg3) floordiv 16) mod 16, (%141 - %arg4) mod 6, (((%258 - %arg3) mod 16) floordiv 8) mod 2] : memref<16x6x2xvector<8xf32>>
                    %260 = vector.insertelement %220, %259[%c4_i64 : i64] : vector<8xf32>
                    affine.store %260, %2[((%258 - %arg3) floordiv 16) mod 16, (%141 - %arg4) mod 6, (((%258 - %arg3) mod 16) floordiv 8) mod 2] : memref<16x6x2xvector<8xf32>>
                    %261 = affine.apply affine_map<(d0, d1) -> (d0 + d1 + 8)>(%arg3, %arg5)
                    %262 = affine.load %2[((%261 - %arg3) floordiv 16) mod 16, (%142 - %arg4) mod 6, (((%261 - %arg3) mod 16) floordiv 8) mod 2] : memref<16x6x2xvector<8xf32>>
                    %263 = vector.insertelement %221, %262[%c5_i64 : i64] : vector<8xf32>
                    affine.store %263, %2[((%261 - %arg3) floordiv 16) mod 16, (%142 - %arg4) mod 6, (((%261 - %arg3) mod 16) floordiv 8) mod 2] : memref<16x6x2xvector<8xf32>>
                    %264 = affine.apply affine_map<(d0, d1) -> (d0 + d1 + 8)>(%arg3, %arg5)
                    %265 = affine.load %2[((%264 - %arg3) floordiv 16) mod 16, (%143 - %arg4) mod 6, (((%264 - %arg3) mod 16) floordiv 8) mod 2] : memref<16x6x2xvector<8xf32>>
                    %266 = vector.insertelement %222, %265[%c6_i64 : i64] : vector<8xf32>
                    affine.store %266, %2[((%264 - %arg3) floordiv 16) mod 16, (%143 - %arg4) mod 6, (((%264 - %arg3) mod 16) floordiv 8) mod 2] : memref<16x6x2xvector<8xf32>>
                    %267 = affine.apply affine_map<(d0, d1) -> (d0 + d1 + 8)>(%arg3, %arg5)
                    %268 = affine.load %2[((%267 - %arg3) floordiv 16) mod 16, (%144 - %arg4) mod 6, (((%267 - %arg3) mod 16) floordiv 8) mod 2] : memref<16x6x2xvector<8xf32>>
                    %269 = vector.insertelement %223, %268[%c7_i64 : i64] : vector<8xf32>
                    affine.store %269, %2[((%267 - %arg3) floordiv 16) mod 16, (%144 - %arg4) mod 6, (((%267 - %arg3) mod 16) floordiv 8) mod 2] : memref<16x6x2xvector<8xf32>>
                  } {begin = 0 : i64, end = 0 : i64, index = #accln<"index{i_i_i,12}">, subdomainIndexOrder = [#accln<"index{i,0}">, #accln<"index{j,1}">, #accln<"index{k,2}">], subdomainSize = [0, 16, 1]}
                } {begin = 0 : i64, end = 4 : i64, index = #accln<"index{k_i_i,10}">, subdomainIndexOrder = [#accln<"index{i,0}">, #accln<"index{j,1}">, #accln<"index{k,2}">], subdomainSize = [0, 16, 1]}
              } {begin = 0 : i64, end = 0 : i64, index = #accln<"index{i_i_o,11}">, accv_unrolled, subdomainIndexOrder = [#accln<"index{i,0}">, #accln<"index{j,1}">, #accln<"index{k,2}">], subdomainSize = [0, 16, 4]}
              affine.for %arg7 = 0 to 4 {
                %4 = affine.apply affine_map<(d0, d1) -> (d0 + d1)>(%arg3, %arg5)
                %5 = affine.apply affine_map<(d0, d1) -> (d0 + d1)>(%arg6, %arg7)
                %6 = affine.apply affine_map<(d0, d1) -> (d0 + d1)>(%arg6, %arg7)
                %7 = affine.apply affine_map<(d0, d1) -> (d0 + d1)>(%arg6, %arg7)
                %8 = affine.apply affine_map<(d0, d1) -> (d0 + d1)>(%arg6, %arg7)
                %9 = affine.apply affine_map<(d0, d1) -> (d0 + d1)>(%arg6, %arg7)
                %10 = affine.apply affine_map<(d0, d1) -> (d0 + d1)>(%arg6, %arg7)
                %11 = affine.apply affine_map<(d0, d1) -> (d0 + d1)>(%arg6, %arg7)
                %12 = affine.apply affine_map<(d0, d1) -> (d0 + d1)>(%arg6, %arg7)
                %13 = load %arg0[%arg4, %5] : memref<784x128xf32, affine_map<(d0, d1) -> (d0 * 128 + d1)>>
                %14 = load %arg0[%arg4, %6] : memref<784x128xf32, affine_map<(d0, d1) -> (d0 * 128 + d1)>>
                %15 = load %arg0[%arg4, %7] : memref<784x128xf32, affine_map<(d0, d1) -> (d0 * 128 + d1)>>
                %16 = load %arg0[%arg4, %8] : memref<784x128xf32, affine_map<(d0, d1) -> (d0 * 128 + d1)>>
                %17 = load %arg0[%arg4, %9] : memref<784x128xf32, affine_map<(d0, d1) -> (d0 * 128 + d1)>>
                %18 = load %arg0[%arg4, %10] : memref<784x128xf32, affine_map<(d0, d1) -> (d0 * 128 + d1)>>
                %19 = load %arg0[%arg4, %11] : memref<784x128xf32, affine_map<(d0, d1) -> (d0 * 128 + d1)>>
                %20 = load %arg0[%arg4, %12] : memref<784x128xf32, affine_map<(d0, d1) -> (d0 * 128 + d1)>>
                %21 = affine.load %3[((%4 - %arg3) floordiv 16) mod 16, (%5 - %c0) mod 128, (((%4 - %arg3) mod 16) floordiv 8) mod 2] : memref<16x128x2xvector<8xf32>>
                %22 = vector.extractelement %21[%c0_i64 : i64] : vector<8xf32>
                %23 = affine.apply affine_map<(d0, d1) -> (d0 + d1)>(%arg3, %arg5)
                %24 = affine.load %3[((%23 - %arg3) floordiv 16) mod 16, (%6 - %c0) mod 128, (((%23 - %arg3) mod 16) floordiv 8) mod 2] : memref<16x128x2xvector<8xf32>>
                %25 = vector.extractelement %24[%c1_i64 : i64] : vector<8xf32>
                %26 = affine.apply affine_map<(d0, d1) -> (d0 + d1)>(%arg3, %arg5)
                %27 = affine.load %3[((%26 - %arg3) floordiv 16) mod 16, (%7 - %c0) mod 128, (((%26 - %arg3) mod 16) floordiv 8) mod 2] : memref<16x128x2xvector<8xf32>>
                %28 = vector.extractelement %27[%c2_i64 : i64] : vector<8xf32>
                %29 = affine.apply affine_map<(d0, d1) -> (d0 + d1)>(%arg3, %arg5)
                %30 = affine.load %3[((%29 - %arg3) floordiv 16) mod 16, (%8 - %c0) mod 128, (((%29 - %arg3) mod 16) floordiv 8) mod 2] : memref<16x128x2xvector<8xf32>>
                %31 = vector.extractelement %30[%c3_i64 : i64] : vector<8xf32>
                %32 = affine.apply affine_map<(d0, d1) -> (d0 + d1)>(%arg3, %arg5)
                %33 = affine.load %3[((%32 - %arg3) floordiv 16) mod 16, (%9 - %c0) mod 128, (((%32 - %arg3) mod 16) floordiv 8) mod 2] : memref<16x128x2xvector<8xf32>>
                %34 = vector.extractelement %33[%c4_i64 : i64] : vector<8xf32>
                %35 = affine.apply affine_map<(d0, d1) -> (d0 + d1)>(%arg3, %arg5)
                %36 = affine.load %3[((%35 - %arg3) floordiv 16) mod 16, (%10 - %c0) mod 128, (((%35 - %arg3) mod 16) floordiv 8) mod 2] : memref<16x128x2xvector<8xf32>>
                %37 = vector.extractelement %36[%c5_i64 : i64] : vector<8xf32>
                %38 = affine.apply affine_map<(d0, d1) -> (d0 + d1)>(%arg3, %arg5)
                %39 = affine.load %3[((%38 - %arg3) floordiv 16) mod 16, (%11 - %c0) mod 128, (((%38 - %arg3) mod 16) floordiv 8) mod 2] : memref<16x128x2xvector<8xf32>>
                %40 = vector.extractelement %39[%c6_i64 : i64] : vector<8xf32>
                %41 = affine.apply affine_map<(d0, d1) -> (d0 + d1)>(%arg3, %arg5)
                %42 = affine.load %3[((%41 - %arg3) floordiv 16) mod 16, (%12 - %c0) mod 128, (((%41 - %arg3) mod 16) floordiv 8) mod 2] : memref<16x128x2xvector<8xf32>>
                %43 = vector.extractelement %42[%c7_i64 : i64] : vector<8xf32>
                %44 = "accv.bin_op"(%13, %22) {predicate = 2 : i64} : (f32, f32) -> f32
                %45 = "accv.bin_op"(%14, %25) {predicate = 2 : i64} : (f32, f32) -> f32
                %46 = "accv.bin_op"(%15, %28) {predicate = 2 : i64} : (f32, f32) -> f32
                %47 = "accv.bin_op"(%16, %31) {predicate = 2 : i64} : (f32, f32) -> f32
                %48 = "accv.bin_op"(%17, %34) {predicate = 2 : i64} : (f32, f32) -> f32
                %49 = "accv.bin_op"(%18, %37) {predicate = 2 : i64} : (f32, f32) -> f32
                %50 = "accv.bin_op"(%19, %40) {predicate = 2 : i64} : (f32, f32) -> f32
                %51 = "accv.bin_op"(%20, %43) {predicate = 2 : i64} : (f32, f32) -> f32
                %52 = affine.load %2[((%4 - %arg3) floordiv 16) mod 16, (%arg4 - %arg4) mod 6, (((%4 - %arg3) mod 16) floordiv 8) mod 2] : memref<16x6x2xvector<8xf32>>
                %53 = vector.extractelement %52[%c0_i64 : i64] : vector<8xf32>
                %54 = affine.apply affine_map<(d0, d1) -> (d0 + d1)>(%arg3, %arg5)
                %55 = affine.load %2[((%54 - %arg3) floordiv 16) mod 16, (%arg4 - %arg4) mod 6, (((%54 - %arg3) mod 16) floordiv 8) mod 2] : memref<16x6x2xvector<8xf32>>
                %56 = vector.extractelement %55[%c1_i64 : i64] : vector<8xf32>
                %57 = affine.apply affine_map<(d0, d1) -> (d0 + d1)>(%arg3, %arg5)
                %58 = affine.load %2[((%57 - %arg3) floordiv 16) mod 16, (%arg4 - %arg4) mod 6, (((%57 - %arg3) mod 16) floordiv 8) mod 2] : memref<16x6x2xvector<8xf32>>
                %59 = vector.extractelement %58[%c2_i64 : i64] : vector<8xf32>
                %60 = affine.apply affine_map<(d0, d1) -> (d0 + d1)>(%arg3, %arg5)
                %61 = affine.load %2[((%60 - %arg3) floordiv 16) mod 16, (%arg4 - %arg4) mod 6, (((%60 - %arg3) mod 16) floordiv 8) mod 2] : memref<16x6x2xvector<8xf32>>
                %62 = vector.extractelement %61[%c3_i64 : i64] : vector<8xf32>
                %63 = affine.apply affine_map<(d0, d1) -> (d0 + d1)>(%arg3, %arg5)
                %64 = affine.load %2[((%63 - %arg3) floordiv 16) mod 16, (%arg4 - %arg4) mod 6, (((%63 - %arg3) mod 16) floordiv 8) mod 2] : memref<16x6x2xvector<8xf32>>
                %65 = vector.extractelement %64[%c4_i64 : i64] : vector<8xf32>
                %66 = affine.apply affine_map<(d0, d1) -> (d0 + d1)>(%arg3, %arg5)
                %67 = affine.load %2[((%66 - %arg3) floordiv 16) mod 16, (%arg4 - %arg4) mod 6, (((%66 - %arg3) mod 16) floordiv 8) mod 2] : memref<16x6x2xvector<8xf32>>
                %68 = vector.extractelement %67[%c5_i64 : i64] : vector<8xf32>
                %69 = affine.apply affine_map<(d0, d1) -> (d0 + d1)>(%arg3, %arg5)
                %70 = affine.load %2[((%69 - %arg3) floordiv 16) mod 16, (%arg4 - %arg4) mod 6, (((%69 - %arg3) mod 16) floordiv 8) mod 2] : memref<16x6x2xvector<8xf32>>
                %71 = vector.extractelement %70[%c6_i64 : i64] : vector<8xf32>
                %72 = affine.apply affine_map<(d0, d1) -> (d0 + d1)>(%arg3, %arg5)
                %73 = affine.load %2[((%72 - %arg3) floordiv 16) mod 16, (%arg4 - %arg4) mod 6, (((%72 - %arg3) mod 16) floordiv 8) mod 2] : memref<16x6x2xvector<8xf32>>
                %74 = vector.extractelement %73[%c7_i64 : i64] : vector<8xf32>
                %75 = "accv.bin_op"(%53, %44) {predicate = 0 : i64} : (f32, f32) -> f32
                %76 = "accv.bin_op"(%56, %45) {predicate = 0 : i64} : (f32, f32) -> f32
                %77 = "accv.bin_op"(%59, %46) {predicate = 0 : i64} : (f32, f32) -> f32
                %78 = "accv.bin_op"(%62, %47) {predicate = 0 : i64} : (f32, f32) -> f32
                %79 = "accv.bin_op"(%65, %48) {predicate = 0 : i64} : (f32, f32) -> f32
                %80 = "accv.bin_op"(%68, %49) {predicate = 0 : i64} : (f32, f32) -> f32
                %81 = "accv.bin_op"(%71, %50) {predicate = 0 : i64} : (f32, f32) -> f32
                %82 = "accv.bin_op"(%74, %51) {predicate = 0 : i64} : (f32, f32) -> f32
                %83 = affine.load %2[((%4 - %arg3) floordiv 16) mod 16, (%arg4 - %arg4) mod 6, (((%4 - %arg3) mod 16) floordiv 8) mod 2] : memref<16x6x2xvector<8xf32>>
                %84 = vector.insertelement %75, %83[%c0_i64 : i64] : vector<8xf32>
                affine.store %84, %2[((%4 - %arg3) floordiv 16) mod 16, (%arg4 - %arg4) mod 6, (((%4 - %arg3) mod 16) floordiv 8) mod 2] : memref<16x6x2xvector<8xf32>>
                %85 = affine.apply affine_map<(d0, d1) -> (d0 + d1)>(%arg3, %arg5)
                %86 = affine.load %2[((%85 - %arg3) floordiv 16) mod 16, (%arg4 - %arg4) mod 6, (((%85 - %arg3) mod 16) floordiv 8) mod 2] : memref<16x6x2xvector<8xf32>>
                %87 = vector.insertelement %76, %86[%c1_i64 : i64] : vector<8xf32>
                affine.store %87, %2[((%85 - %arg3) floordiv 16) mod 16, (%arg4 - %arg4) mod 6, (((%85 - %arg3) mod 16) floordiv 8) mod 2] : memref<16x6x2xvector<8xf32>>
                %88 = affine.apply affine_map<(d0, d1) -> (d0 + d1)>(%arg3, %arg5)
                %89 = affine.load %2[((%88 - %arg3) floordiv 16) mod 16, (%arg4 - %arg4) mod 6, (((%88 - %arg3) mod 16) floordiv 8) mod 2] : memref<16x6x2xvector<8xf32>>
                %90 = vector.insertelement %77, %89[%c2_i64 : i64] : vector<8xf32>
                affine.store %90, %2[((%88 - %arg3) floordiv 16) mod 16, (%arg4 - %arg4) mod 6, (((%88 - %arg3) mod 16) floordiv 8) mod 2] : memref<16x6x2xvector<8xf32>>
                %91 = affine.apply affine_map<(d0, d1) -> (d0 + d1)>(%arg3, %arg5)
                %92 = affine.load %2[((%91 - %arg3) floordiv 16) mod 16, (%arg4 - %arg4) mod 6, (((%91 - %arg3) mod 16) floordiv 8) mod 2] : memref<16x6x2xvector<8xf32>>
                %93 = vector.insertelement %78, %92[%c3_i64 : i64] : vector<8xf32>
                affine.store %93, %2[((%91 - %arg3) floordiv 16) mod 16, (%arg4 - %arg4) mod 6, (((%91 - %arg3) mod 16) floordiv 8) mod 2] : memref<16x6x2xvector<8xf32>>
                %94 = affine.apply affine_map<(d0, d1) -> (d0 + d1)>(%arg3, %arg5)
                %95 = affine.load %2[((%94 - %arg3) floordiv 16) mod 16, (%arg4 - %arg4) mod 6, (((%94 - %arg3) mod 16) floordiv 8) mod 2] : memref<16x6x2xvector<8xf32>>
                %96 = vector.insertelement %79, %95[%c4_i64 : i64] : vector<8xf32>
                affine.store %96, %2[((%94 - %arg3) floordiv 16) mod 16, (%arg4 - %arg4) mod 6, (((%94 - %arg3) mod 16) floordiv 8) mod 2] : memref<16x6x2xvector<8xf32>>
                %97 = affine.apply affine_map<(d0, d1) -> (d0 + d1)>(%arg3, %arg5)
                %98 = affine.load %2[((%97 - %arg3) floordiv 16) mod 16, (%arg4 - %arg4) mod 6, (((%97 - %arg3) mod 16) floordiv 8) mod 2] : memref<16x6x2xvector<8xf32>>
                %99 = vector.insertelement %80, %98[%c5_i64 : i64] : vector<8xf32>
                affine.store %99, %2[((%97 - %arg3) floordiv 16) mod 16, (%arg4 - %arg4) mod 6, (((%97 - %arg3) mod 16) floordiv 8) mod 2] : memref<16x6x2xvector<8xf32>>
                %100 = affine.apply affine_map<(d0, d1) -> (d0 + d1)>(%arg3, %arg5)
                %101 = affine.load %2[((%100 - %arg3) floordiv 16) mod 16, (%arg4 - %arg4) mod 6, (((%100 - %arg3) mod 16) floordiv 8) mod 2] : memref<16x6x2xvector<8xf32>>
                %102 = vector.insertelement %81, %101[%c6_i64 : i64] : vector<8xf32>
                affine.store %102, %2[((%100 - %arg3) floordiv 16) mod 16, (%arg4 - %arg4) mod 6, (((%100 - %arg3) mod 16) floordiv 8) mod 2] : memref<16x6x2xvector<8xf32>>
                %103 = affine.apply affine_map<(d0, d1) -> (d0 + d1)>(%arg3, %arg5)
                %104 = affine.load %2[((%103 - %arg3) floordiv 16) mod 16, (%arg4 - %arg4) mod 6, (((%103 - %arg3) mod 16) floordiv 8) mod 2] : memref<16x6x2xvector<8xf32>>
                %105 = vector.insertelement %82, %104[%c7_i64 : i64] : vector<8xf32>
                affine.store %105, %2[((%103 - %arg3) floordiv 16) mod 16, (%arg4 - %arg4) mod 6, (((%103 - %arg3) mod 16) floordiv 8) mod 2] : memref<16x6x2xvector<8xf32>>
                %106 = affine.load %2[((%4 - %arg3) floordiv 16) mod 16, (%arg4 - %arg4) mod 6, (((%4 - %arg3) mod 16) floordiv 8) mod 2] : memref<16x6x2xvector<8xf32>>
                %107 = vector.insertelement %75, %106[%c0_i64 : i64] : vector<8xf32>
                affine.store %107, %2[((%4 - %arg3) floordiv 16) mod 16, (%arg4 - %arg4) mod 6, (((%4 - %arg3) mod 16) floordiv 8) mod 2] : memref<16x6x2xvector<8xf32>>
                %108 = affine.apply affine_map<(d0, d1) -> (d0 + d1)>(%arg3, %arg5)
                %109 = affine.load %2[((%108 - %arg3) floordiv 16) mod 16, (%arg4 - %arg4) mod 6, (((%108 - %arg3) mod 16) floordiv 8) mod 2] : memref<16x6x2xvector<8xf32>>
                %110 = vector.insertelement %76, %109[%c1_i64 : i64] : vector<8xf32>
                affine.store %110, %2[((%108 - %arg3) floordiv 16) mod 16, (%arg4 - %arg4) mod 6, (((%108 - %arg3) mod 16) floordiv 8) mod 2] : memref<16x6x2xvector<8xf32>>
                %111 = affine.apply affine_map<(d0, d1) -> (d0 + d1)>(%arg3, %arg5)
                %112 = affine.load %2[((%111 - %arg3) floordiv 16) mod 16, (%arg4 - %arg4) mod 6, (((%111 - %arg3) mod 16) floordiv 8) mod 2] : memref<16x6x2xvector<8xf32>>
                %113 = vector.insertelement %77, %112[%c2_i64 : i64] : vector<8xf32>
                affine.store %113, %2[((%111 - %arg3) floordiv 16) mod 16, (%arg4 - %arg4) mod 6, (((%111 - %arg3) mod 16) floordiv 8) mod 2] : memref<16x6x2xvector<8xf32>>
                %114 = affine.apply affine_map<(d0, d1) -> (d0 + d1)>(%arg3, %arg5)
                %115 = affine.load %2[((%114 - %arg3) floordiv 16) mod 16, (%arg4 - %arg4) mod 6, (((%114 - %arg3) mod 16) floordiv 8) mod 2] : memref<16x6x2xvector<8xf32>>
                %116 = vector.insertelement %78, %115[%c3_i64 : i64] : vector<8xf32>
                affine.store %116, %2[((%114 - %arg3) floordiv 16) mod 16, (%arg4 - %arg4) mod 6, (((%114 - %arg3) mod 16) floordiv 8) mod 2] : memref<16x6x2xvector<8xf32>>
                %117 = affine.apply affine_map<(d0, d1) -> (d0 + d1)>(%arg3, %arg5)
                %118 = affine.load %2[((%117 - %arg3) floordiv 16) mod 16, (%arg4 - %arg4) mod 6, (((%117 - %arg3) mod 16) floordiv 8) mod 2] : memref<16x6x2xvector<8xf32>>
                %119 = vector.insertelement %79, %118[%c4_i64 : i64] : vector<8xf32>
                affine.store %119, %2[((%117 - %arg3) floordiv 16) mod 16, (%arg4 - %arg4) mod 6, (((%117 - %arg3) mod 16) floordiv 8) mod 2] : memref<16x6x2xvector<8xf32>>
                %120 = affine.apply affine_map<(d0, d1) -> (d0 + d1)>(%arg3, %arg5)
                %121 = affine.load %2[((%120 - %arg3) floordiv 16) mod 16, (%arg4 - %arg4) mod 6, (((%120 - %arg3) mod 16) floordiv 8) mod 2] : memref<16x6x2xvector<8xf32>>
                %122 = vector.insertelement %80, %121[%c5_i64 : i64] : vector<8xf32>
                affine.store %122, %2[((%120 - %arg3) floordiv 16) mod 16, (%arg4 - %arg4) mod 6, (((%120 - %arg3) mod 16) floordiv 8) mod 2] : memref<16x6x2xvector<8xf32>>
                %123 = affine.apply affine_map<(d0, d1) -> (d0 + d1)>(%arg3, %arg5)
                %124 = affine.load %2[((%123 - %arg3) floordiv 16) mod 16, (%arg4 - %arg4) mod 6, (((%123 - %arg3) mod 16) floordiv 8) mod 2] : memref<16x6x2xvector<8xf32>>
                %125 = vector.insertelement %81, %124[%c6_i64 : i64] : vector<8xf32>
                affine.store %125, %2[((%123 - %arg3) floordiv 16) mod 16, (%arg4 - %arg4) mod 6, (((%123 - %arg3) mod 16) floordiv 8) mod 2] : memref<16x6x2xvector<8xf32>>
                %126 = affine.apply affine_map<(d0, d1) -> (d0 + d1)>(%arg3, %arg5)
                %127 = affine.load %2[((%126 - %arg3) floordiv 16) mod 16, (%arg4 - %arg4) mod 6, (((%126 - %arg3) mod 16) floordiv 8) mod 2] : memref<16x6x2xvector<8xf32>>
                %128 = vector.insertelement %82, %127[%c7_i64 : i64] : vector<8xf32>
                affine.store %128, %2[((%126 - %arg3) floordiv 16) mod 16, (%arg4 - %arg4) mod 6, (((%126 - %arg3) mod 16) floordiv 8) mod 2] : memref<16x6x2xvector<8xf32>>
                %129 = affine.apply affine_map<(d0, d1) -> (d0 + d1 + 8)>(%arg3, %arg5)
                %130 = affine.apply affine_map<(d0, d1) -> (d0 + d1)>(%arg6, %arg7)
                %131 = affine.apply affine_map<(d0, d1) -> (d0 + d1)>(%arg6, %arg7)
                %132 = affine.apply affine_map<(d0, d1) -> (d0 + d1)>(%arg6, %arg7)
                %133 = affine.apply affine_map<(d0, d1) -> (d0 + d1)>(%arg6, %arg7)
                %134 = affine.apply affine_map<(d0, d1) -> (d0 + d1)>(%arg6, %arg7)
                %135 = affine.apply affine_map<(d0, d1) -> (d0 + d1)>(%arg6, %arg7)
                %136 = affine.apply affine_map<(d0, d1) -> (d0 + d1)>(%arg6, %arg7)
                %137 = affine.apply affine_map<(d0, d1) -> (d0 + d1)>(%arg6, %arg7)
                %138 = load %arg0[%arg4, %130] : memref<784x128xf32, affine_map<(d0, d1) -> (d0 * 128 + d1)>>
                %139 = load %arg0[%arg4, %131] : memref<784x128xf32, affine_map<(d0, d1) -> (d0 * 128 + d1)>>
                %140 = load %arg0[%arg4, %132] : memref<784x128xf32, affine_map<(d0, d1) -> (d0 * 128 + d1)>>
                %141 = load %arg0[%arg4, %133] : memref<784x128xf32, affine_map<(d0, d1) -> (d0 * 128 + d1)>>
                %142 = load %arg0[%arg4, %134] : memref<784x128xf32, affine_map<(d0, d1) -> (d0 * 128 + d1)>>
                %143 = load %arg0[%arg4, %135] : memref<784x128xf32, affine_map<(d0, d1) -> (d0 * 128 + d1)>>
                %144 = load %arg0[%arg4, %136] : memref<784x128xf32, affine_map<(d0, d1) -> (d0 * 128 + d1)>>
                %145 = load %arg0[%arg4, %137] : memref<784x128xf32, affine_map<(d0, d1) -> (d0 * 128 + d1)>>
                %146 = affine.load %3[((%129 - %arg3) floordiv 16) mod 16, (%130 - %c0) mod 128, (((%129 - %arg3) mod 16) floordiv 8) mod 2] : memref<16x128x2xvector<8xf32>>
                %147 = vector.extractelement %146[%c0_i64 : i64] : vector<8xf32>
                %148 = affine.apply affine_map<(d0, d1) -> (d0 + d1 + 8)>(%arg3, %arg5)
                %149 = affine.load %3[((%148 - %arg3) floordiv 16) mod 16, (%131 - %c0) mod 128, (((%148 - %arg3) mod 16) floordiv 8) mod 2] : memref<16x128x2xvector<8xf32>>
                %150 = vector.extractelement %149[%c1_i64 : i64] : vector<8xf32>
                %151 = affine.apply affine_map<(d0, d1) -> (d0 + d1 + 8)>(%arg3, %arg5)
                %152 = affine.load %3[((%151 - %arg3) floordiv 16) mod 16, (%132 - %c0) mod 128, (((%151 - %arg3) mod 16) floordiv 8) mod 2] : memref<16x128x2xvector<8xf32>>
                %153 = vector.extractelement %152[%c2_i64 : i64] : vector<8xf32>
                %154 = affine.apply affine_map<(d0, d1) -> (d0 + d1 + 8)>(%arg3, %arg5)
                %155 = affine.load %3[((%154 - %arg3) floordiv 16) mod 16, (%133 - %c0) mod 128, (((%154 - %arg3) mod 16) floordiv 8) mod 2] : memref<16x128x2xvector<8xf32>>
                %156 = vector.extractelement %155[%c3_i64 : i64] : vector<8xf32>
                %157 = affine.apply affine_map<(d0, d1) -> (d0 + d1 + 8)>(%arg3, %arg5)
                %158 = affine.load %3[((%157 - %arg3) floordiv 16) mod 16, (%134 - %c0) mod 128, (((%157 - %arg3) mod 16) floordiv 8) mod 2] : memref<16x128x2xvector<8xf32>>
                %159 = vector.extractelement %158[%c4_i64 : i64] : vector<8xf32>
                %160 = affine.apply affine_map<(d0, d1) -> (d0 + d1 + 8)>(%arg3, %arg5)
                %161 = affine.load %3[((%160 - %arg3) floordiv 16) mod 16, (%135 - %c0) mod 128, (((%160 - %arg3) mod 16) floordiv 8) mod 2] : memref<16x128x2xvector<8xf32>>
                %162 = vector.extractelement %161[%c5_i64 : i64] : vector<8xf32>
                %163 = affine.apply affine_map<(d0, d1) -> (d0 + d1 + 8)>(%arg3, %arg5)
                %164 = affine.load %3[((%163 - %arg3) floordiv 16) mod 16, (%136 - %c0) mod 128, (((%163 - %arg3) mod 16) floordiv 8) mod 2] : memref<16x128x2xvector<8xf32>>
                %165 = vector.extractelement %164[%c6_i64 : i64] : vector<8xf32>
                %166 = affine.apply affine_map<(d0, d1) -> (d0 + d1 + 8)>(%arg3, %arg5)
                %167 = affine.load %3[((%166 - %arg3) floordiv 16) mod 16, (%137 - %c0) mod 128, (((%166 - %arg3) mod 16) floordiv 8) mod 2] : memref<16x128x2xvector<8xf32>>
                %168 = vector.extractelement %167[%c7_i64 : i64] : vector<8xf32>
                %169 = "accv.bin_op"(%138, %147) {predicate = 2 : i64} : (f32, f32) -> f32
                %170 = "accv.bin_op"(%139, %150) {predicate = 2 : i64} : (f32, f32) -> f32
                %171 = "accv.bin_op"(%140, %153) {predicate = 2 : i64} : (f32, f32) -> f32
                %172 = "accv.bin_op"(%141, %156) {predicate = 2 : i64} : (f32, f32) -> f32
                %173 = "accv.bin_op"(%142, %159) {predicate = 2 : i64} : (f32, f32) -> f32
                %174 = "accv.bin_op"(%143, %162) {predicate = 2 : i64} : (f32, f32) -> f32
                %175 = "accv.bin_op"(%144, %165) {predicate = 2 : i64} : (f32, f32) -> f32
                %176 = "accv.bin_op"(%145, %168) {predicate = 2 : i64} : (f32, f32) -> f32
                %177 = affine.load %2[((%129 - %arg3) floordiv 16) mod 16, (%arg4 - %arg4) mod 6, (((%129 - %arg3) mod 16) floordiv 8) mod 2] : memref<16x6x2xvector<8xf32>>
                %178 = vector.extractelement %177[%c0_i64 : i64] : vector<8xf32>
                %179 = affine.apply affine_map<(d0, d1) -> (d0 + d1 + 8)>(%arg3, %arg5)
                %180 = affine.load %2[((%179 - %arg3) floordiv 16) mod 16, (%arg4 - %arg4) mod 6, (((%179 - %arg3) mod 16) floordiv 8) mod 2] : memref<16x6x2xvector<8xf32>>
                %181 = vector.extractelement %180[%c1_i64 : i64] : vector<8xf32>
                %182 = affine.apply affine_map<(d0, d1) -> (d0 + d1 + 8)>(%arg3, %arg5)
                %183 = affine.load %2[((%182 - %arg3) floordiv 16) mod 16, (%arg4 - %arg4) mod 6, (((%182 - %arg3) mod 16) floordiv 8) mod 2] : memref<16x6x2xvector<8xf32>>
                %184 = vector.extractelement %183[%c2_i64 : i64] : vector<8xf32>
                %185 = affine.apply affine_map<(d0, d1) -> (d0 + d1 + 8)>(%arg3, %arg5)
                %186 = affine.load %2[((%185 - %arg3) floordiv 16) mod 16, (%arg4 - %arg4) mod 6, (((%185 - %arg3) mod 16) floordiv 8) mod 2] : memref<16x6x2xvector<8xf32>>
                %187 = vector.extractelement %186[%c3_i64 : i64] : vector<8xf32>
                %188 = affine.apply affine_map<(d0, d1) -> (d0 + d1 + 8)>(%arg3, %arg5)
                %189 = affine.load %2[((%188 - %arg3) floordiv 16) mod 16, (%arg4 - %arg4) mod 6, (((%188 - %arg3) mod 16) floordiv 8) mod 2] : memref<16x6x2xvector<8xf32>>
                %190 = vector.extractelement %189[%c4_i64 : i64] : vector<8xf32>
                %191 = affine.apply affine_map<(d0, d1) -> (d0 + d1 + 8)>(%arg3, %arg5)
                %192 = affine.load %2[((%191 - %arg3) floordiv 16) mod 16, (%arg4 - %arg4) mod 6, (((%191 - %arg3) mod 16) floordiv 8) mod 2] : memref<16x6x2xvector<8xf32>>
                %193 = vector.extractelement %192[%c5_i64 : i64] : vector<8xf32>
                %194 = affine.apply affine_map<(d0, d1) -> (d0 + d1 + 8)>(%arg3, %arg5)
                %195 = affine.load %2[((%194 - %arg3) floordiv 16) mod 16, (%arg4 - %arg4) mod 6, (((%194 - %arg3) mod 16) floordiv 8) mod 2] : memref<16x6x2xvector<8xf32>>
                %196 = vector.extractelement %195[%c6_i64 : i64] : vector<8xf32>
                %197 = affine.apply affine_map<(d0, d1) -> (d0 + d1 + 8)>(%arg3, %arg5)
                %198 = affine.load %2[((%197 - %arg3) floordiv 16) mod 16, (%arg4 - %arg4) mod 6, (((%197 - %arg3) mod 16) floordiv 8) mod 2] : memref<16x6x2xvector<8xf32>>
                %199 = vector.extractelement %198[%c7_i64 : i64] : vector<8xf32>
                %200 = "accv.bin_op"(%178, %169) {predicate = 0 : i64} : (f32, f32) -> f32
                %201 = "accv.bin_op"(%181, %170) {predicate = 0 : i64} : (f32, f32) -> f32
                %202 = "accv.bin_op"(%184, %171) {predicate = 0 : i64} : (f32, f32) -> f32
                %203 = "accv.bin_op"(%187, %172) {predicate = 0 : i64} : (f32, f32) -> f32
                %204 = "accv.bin_op"(%190, %173) {predicate = 0 : i64} : (f32, f32) -> f32
                %205 = "accv.bin_op"(%193, %174) {predicate = 0 : i64} : (f32, f32) -> f32
                %206 = "accv.bin_op"(%196, %175) {predicate = 0 : i64} : (f32, f32) -> f32
                %207 = "accv.bin_op"(%199, %176) {predicate = 0 : i64} : (f32, f32) -> f32
                %208 = affine.load %2[((%129 - %arg3) floordiv 16) mod 16, (%arg4 - %arg4) mod 6, (((%129 - %arg3) mod 16) floordiv 8) mod 2] : memref<16x6x2xvector<8xf32>>
                %209 = vector.insertelement %200, %208[%c0_i64 : i64] : vector<8xf32>
                affine.store %209, %2[((%129 - %arg3) floordiv 16) mod 16, (%arg4 - %arg4) mod 6, (((%129 - %arg3) mod 16) floordiv 8) mod 2] : memref<16x6x2xvector<8xf32>>
                %210 = affine.apply affine_map<(d0, d1) -> (d0 + d1 + 8)>(%arg3, %arg5)
                %211 = affine.load %2[((%210 - %arg3) floordiv 16) mod 16, (%arg4 - %arg4) mod 6, (((%210 - %arg3) mod 16) floordiv 8) mod 2] : memref<16x6x2xvector<8xf32>>
                %212 = vector.insertelement %201, %211[%c1_i64 : i64] : vector<8xf32>
                affine.store %212, %2[((%210 - %arg3) floordiv 16) mod 16, (%arg4 - %arg4) mod 6, (((%210 - %arg3) mod 16) floordiv 8) mod 2] : memref<16x6x2xvector<8xf32>>
                %213 = affine.apply affine_map<(d0, d1) -> (d0 + d1 + 8)>(%arg3, %arg5)
                %214 = affine.load %2[((%213 - %arg3) floordiv 16) mod 16, (%arg4 - %arg4) mod 6, (((%213 - %arg3) mod 16) floordiv 8) mod 2] : memref<16x6x2xvector<8xf32>>
                %215 = vector.insertelement %202, %214[%c2_i64 : i64] : vector<8xf32>
                affine.store %215, %2[((%213 - %arg3) floordiv 16) mod 16, (%arg4 - %arg4) mod 6, (((%213 - %arg3) mod 16) floordiv 8) mod 2] : memref<16x6x2xvector<8xf32>>
                %216 = affine.apply affine_map<(d0, d1) -> (d0 + d1 + 8)>(%arg3, %arg5)
                %217 = affine.load %2[((%216 - %arg3) floordiv 16) mod 16, (%arg4 - %arg4) mod 6, (((%216 - %arg3) mod 16) floordiv 8) mod 2] : memref<16x6x2xvector<8xf32>>
                %218 = vector.insertelement %203, %217[%c3_i64 : i64] : vector<8xf32>
                affine.store %218, %2[((%216 - %arg3) floordiv 16) mod 16, (%arg4 - %arg4) mod 6, (((%216 - %arg3) mod 16) floordiv 8) mod 2] : memref<16x6x2xvector<8xf32>>
                %219 = affine.apply affine_map<(d0, d1) -> (d0 + d1 + 8)>(%arg3, %arg5)
                %220 = affine.load %2[((%219 - %arg3) floordiv 16) mod 16, (%arg4 - %arg4) mod 6, (((%219 - %arg3) mod 16) floordiv 8) mod 2] : memref<16x6x2xvector<8xf32>>
                %221 = vector.insertelement %204, %220[%c4_i64 : i64] : vector<8xf32>
                affine.store %221, %2[((%219 - %arg3) floordiv 16) mod 16, (%arg4 - %arg4) mod 6, (((%219 - %arg3) mod 16) floordiv 8) mod 2] : memref<16x6x2xvector<8xf32>>
                %222 = affine.apply affine_map<(d0, d1) -> (d0 + d1 + 8)>(%arg3, %arg5)
                %223 = affine.load %2[((%222 - %arg3) floordiv 16) mod 16, (%arg4 - %arg4) mod 6, (((%222 - %arg3) mod 16) floordiv 8) mod 2] : memref<16x6x2xvector<8xf32>>
                %224 = vector.insertelement %205, %223[%c5_i64 : i64] : vector<8xf32>
                affine.store %224, %2[((%222 - %arg3) floordiv 16) mod 16, (%arg4 - %arg4) mod 6, (((%222 - %arg3) mod 16) floordiv 8) mod 2] : memref<16x6x2xvector<8xf32>>
                %225 = affine.apply affine_map<(d0, d1) -> (d0 + d1 + 8)>(%arg3, %arg5)
                %226 = affine.load %2[((%225 - %arg3) floordiv 16) mod 16, (%arg4 - %arg4) mod 6, (((%225 - %arg3) mod 16) floordiv 8) mod 2] : memref<16x6x2xvector<8xf32>>
                %227 = vector.insertelement %206, %226[%c6_i64 : i64] : vector<8xf32>
                affine.store %227, %2[((%225 - %arg3) floordiv 16) mod 16, (%arg4 - %arg4) mod 6, (((%225 - %arg3) mod 16) floordiv 8) mod 2] : memref<16x6x2xvector<8xf32>>
                %228 = affine.apply affine_map<(d0, d1) -> (d0 + d1 + 8)>(%arg3, %arg5)
                %229 = affine.load %2[((%228 - %arg3) floordiv 16) mod 16, (%arg4 - %arg4) mod 6, (((%228 - %arg3) mod 16) floordiv 8) mod 2] : memref<16x6x2xvector<8xf32>>
                %230 = vector.insertelement %207, %229[%c7_i64 : i64] : vector<8xf32>
                affine.store %230, %2[((%228 - %arg3) floordiv 16) mod 16, (%arg4 - %arg4) mod 6, (((%228 - %arg3) mod 16) floordiv 8) mod 2] : memref<16x6x2xvector<8xf32>>
                %231 = affine.load %2[((%129 - %arg3) floordiv 16) mod 16, (%arg4 - %arg4) mod 6, (((%129 - %arg3) mod 16) floordiv 8) mod 2] : memref<16x6x2xvector<8xf32>>
                %232 = vector.insertelement %200, %231[%c0_i64 : i64] : vector<8xf32>
                affine.store %232, %2[((%129 - %arg3) floordiv 16) mod 16, (%arg4 - %arg4) mod 6, (((%129 - %arg3) mod 16) floordiv 8) mod 2] : memref<16x6x2xvector<8xf32>>
                %233 = affine.apply affine_map<(d0, d1) -> (d0 + d1 + 8)>(%arg3, %arg5)
                %234 = affine.load %2[((%233 - %arg3) floordiv 16) mod 16, (%arg4 - %arg4) mod 6, (((%233 - %arg3) mod 16) floordiv 8) mod 2] : memref<16x6x2xvector<8xf32>>
                %235 = vector.insertelement %201, %234[%c1_i64 : i64] : vector<8xf32>
                affine.store %235, %2[((%233 - %arg3) floordiv 16) mod 16, (%arg4 - %arg4) mod 6, (((%233 - %arg3) mod 16) floordiv 8) mod 2] : memref<16x6x2xvector<8xf32>>
                %236 = affine.apply affine_map<(d0, d1) -> (d0 + d1 + 8)>(%arg3, %arg5)
                %237 = affine.load %2[((%236 - %arg3) floordiv 16) mod 16, (%arg4 - %arg4) mod 6, (((%236 - %arg3) mod 16) floordiv 8) mod 2] : memref<16x6x2xvector<8xf32>>
                %238 = vector.insertelement %202, %237[%c2_i64 : i64] : vector<8xf32>
                affine.store %238, %2[((%236 - %arg3) floordiv 16) mod 16, (%arg4 - %arg4) mod 6, (((%236 - %arg3) mod 16) floordiv 8) mod 2] : memref<16x6x2xvector<8xf32>>
                %239 = affine.apply affine_map<(d0, d1) -> (d0 + d1 + 8)>(%arg3, %arg5)
                %240 = affine.load %2[((%239 - %arg3) floordiv 16) mod 16, (%arg4 - %arg4) mod 6, (((%239 - %arg3) mod 16) floordiv 8) mod 2] : memref<16x6x2xvector<8xf32>>
                %241 = vector.insertelement %203, %240[%c3_i64 : i64] : vector<8xf32>
                affine.store %241, %2[((%239 - %arg3) floordiv 16) mod 16, (%arg4 - %arg4) mod 6, (((%239 - %arg3) mod 16) floordiv 8) mod 2] : memref<16x6x2xvector<8xf32>>
                %242 = affine.apply affine_map<(d0, d1) -> (d0 + d1 + 8)>(%arg3, %arg5)
                %243 = affine.load %2[((%242 - %arg3) floordiv 16) mod 16, (%arg4 - %arg4) mod 6, (((%242 - %arg3) mod 16) floordiv 8) mod 2] : memref<16x6x2xvector<8xf32>>
                %244 = vector.insertelement %204, %243[%c4_i64 : i64] : vector<8xf32>
                affine.store %244, %2[((%242 - %arg3) floordiv 16) mod 16, (%arg4 - %arg4) mod 6, (((%242 - %arg3) mod 16) floordiv 8) mod 2] : memref<16x6x2xvector<8xf32>>
                %245 = affine.apply affine_map<(d0, d1) -> (d0 + d1 + 8)>(%arg3, %arg5)
                %246 = affine.load %2[((%245 - %arg3) floordiv 16) mod 16, (%arg4 - %arg4) mod 6, (((%245 - %arg3) mod 16) floordiv 8) mod 2] : memref<16x6x2xvector<8xf32>>
                %247 = vector.insertelement %205, %246[%c5_i64 : i64] : vector<8xf32>
                affine.store %247, %2[((%245 - %arg3) floordiv 16) mod 16, (%arg4 - %arg4) mod 6, (((%245 - %arg3) mod 16) floordiv 8) mod 2] : memref<16x6x2xvector<8xf32>>
                %248 = affine.apply affine_map<(d0, d1) -> (d0 + d1 + 8)>(%arg3, %arg5)
                %249 = affine.load %2[((%248 - %arg3) floordiv 16) mod 16, (%arg4 - %arg4) mod 6, (((%248 - %arg3) mod 16) floordiv 8) mod 2] : memref<16x6x2xvector<8xf32>>
                %250 = vector.insertelement %206, %249[%c6_i64 : i64] : vector<8xf32>
                affine.store %250, %2[((%248 - %arg3) floordiv 16) mod 16, (%arg4 - %arg4) mod 6, (((%248 - %arg3) mod 16) floordiv 8) mod 2] : memref<16x6x2xvector<8xf32>>
                %251 = affine.apply affine_map<(d0, d1) -> (d0 + d1 + 8)>(%arg3, %arg5)
                %252 = affine.load %2[((%251 - %arg3) floordiv 16) mod 16, (%arg4 - %arg4) mod 6, (((%251 - %arg3) mod 16) floordiv 8) mod 2] : memref<16x6x2xvector<8xf32>>
                %253 = vector.insertelement %207, %252[%c7_i64 : i64] : vector<8xf32>
                affine.store %253, %2[((%251 - %arg3) floordiv 16) mod 16, (%arg4 - %arg4) mod 6, (((%251 - %arg3) mod 16) floordiv 8) mod 2] : memref<16x6x2xvector<8xf32>>
              } {begin = 0 : i64, end = 4 : i64, index = #accln<"index{k_i_i,10}">, subdomainIndexOrder = [#accln<"index{i,0}">, #accln<"index{j,1}">, #accln<"index{k,2}">], subdomainSize = [1, 16, 1]}
            } {begin = 0 : i64, end = 128 : i64, index = #accln<"index{k_i_o,9}">, subdomainIndexOrder = [#accln<"index{i,0}">, #accln<"index{j,1}">, #accln<"index{k,2}">], subdomainSize = [1, 16, 4]}
          } {begin = 0 : i64, end = 256 : i64, index = #accln<"index{j_i_o,13}">, subdomainIndexOrder = [#accln<"index{i,0}">, #accln<"index{j,1}">, #accln<"index{k,2}">], subdomainSize = [1, 16, 128]}
          affine.for %arg5 = 0 to 256 step 128 {
            affine.if affine_set<() : (0 == 0)>() {
              %4 = affine.apply affine_map<(d0, d1) -> (d0 + d1)>(%arg3, %arg5)
              %5 = vector.transfer_read %arg2[%arg4, %4], %cst {masked = [false]} : memref<784x512xf32, affine_map<(d0, d1) -> (d0 * 512 + d1)>>, vector<8xf32>
              %6 = affine.load %2[((%arg5 + %c0 * 8) floordiv 16) mod 16, (%c0 + %c0) mod 6, (((%arg5 + %c0 * 8) mod 16) floordiv 8) mod 2] : memref<16x6x2xvector<8xf32>>
              %7 = addf %5, %6 : vector<8xf32>
              store %7, %1[%c0, %c0] : memref<1x16xvector<8xf32>>
              %8 = affine.apply affine_map<(d0, d1) -> (d0 + d1 + 8)>(%arg3, %arg5)
              %9 = vector.transfer_read %arg2[%arg4, %8], %cst {masked = [false]} : memref<784x512xf32, affine_map<(d0, d1) -> (d0 * 512 + d1)>>, vector<8xf32>
              %10 = affine.load %2[((%arg5 + %c1 * 8) floordiv 16) mod 16, (%c0 + %c0) mod 6, (((%arg5 + %c1 * 8) mod 16) floordiv 8) mod 2] : memref<16x6x2xvector<8xf32>>
              %11 = addf %9, %10 : vector<8xf32>
              store %11, %1[%c0, %c1] : memref<1x16xvector<8xf32>>
              %12 = affine.apply affine_map<(d0, d1) -> (d0 + d1 + 16)>(%arg3, %arg5)
              %13 = vector.transfer_read %arg2[%arg4, %12], %cst {masked = [false]} : memref<784x512xf32, affine_map<(d0, d1) -> (d0 * 512 + d1)>>, vector<8xf32>
              %14 = affine.load %2[((%arg5 + %c2 * 8) floordiv 16) mod 16, (%c0 + %c0) mod 6, (((%arg5 + %c2 * 8) mod 16) floordiv 8) mod 2] : memref<16x6x2xvector<8xf32>>
              %15 = addf %13, %14 : vector<8xf32>
              store %15, %1[%c0, %c2] : memref<1x16xvector<8xf32>>
              %16 = affine.apply affine_map<(d0, d1) -> (d0 + d1 + 24)>(%arg3, %arg5)
              %17 = vector.transfer_read %arg2[%arg4, %16], %cst {masked = [false]} : memref<784x512xf32, affine_map<(d0, d1) -> (d0 * 512 + d1)>>, vector<8xf32>
              %18 = affine.load %2[((%arg5 + %c3 * 8) floordiv 16) mod 16, (%c0 + %c0) mod 6, (((%arg5 + %c3 * 8) mod 16) floordiv 8) mod 2] : memref<16x6x2xvector<8xf32>>
              %19 = addf %17, %18 : vector<8xf32>
              store %19, %1[%c0, %c3] : memref<1x16xvector<8xf32>>
              %20 = affine.apply affine_map<(d0, d1) -> (d0 + d1 + 32)>(%arg3, %arg5)
              %21 = vector.transfer_read %arg2[%arg4, %20], %cst {masked = [false]} : memref<784x512xf32, affine_map<(d0, d1) -> (d0 * 512 + d1)>>, vector<8xf32>
              %22 = affine.load %2[((%arg5 + %c4 * 8) floordiv 16) mod 16, (%c0 + %c0) mod 6, (((%arg5 + %c4 * 8) mod 16) floordiv 8) mod 2] : memref<16x6x2xvector<8xf32>>
              %23 = addf %21, %22 : vector<8xf32>
              store %23, %1[%c0, %c4] : memref<1x16xvector<8xf32>>
              %24 = affine.apply affine_map<(d0, d1) -> (d0 + d1 + 40)>(%arg3, %arg5)
              %25 = vector.transfer_read %arg2[%arg4, %24], %cst {masked = [false]} : memref<784x512xf32, affine_map<(d0, d1) -> (d0 * 512 + d1)>>, vector<8xf32>
              %26 = affine.load %2[((%arg5 + %c5 * 8) floordiv 16) mod 16, (%c0 + %c0) mod 6, (((%arg5 + %c5 * 8) mod 16) floordiv 8) mod 2] : memref<16x6x2xvector<8xf32>>
              %27 = addf %25, %26 : vector<8xf32>
              store %27, %1[%c0, %c5] : memref<1x16xvector<8xf32>>
              %28 = affine.apply affine_map<(d0, d1) -> (d0 + d1 + 48)>(%arg3, %arg5)
              %29 = vector.transfer_read %arg2[%arg4, %28], %cst {masked = [false]} : memref<784x512xf32, affine_map<(d0, d1) -> (d0 * 512 + d1)>>, vector<8xf32>
              %30 = affine.load %2[((%arg5 + %c6 * 8) floordiv 16) mod 16, (%c0 + %c0) mod 6, (((%arg5 + %c6 * 8) mod 16) floordiv 8) mod 2] : memref<16x6x2xvector<8xf32>>
              %31 = addf %29, %30 : vector<8xf32>
              store %31, %1[%c0, %c6] : memref<1x16xvector<8xf32>>
              %32 = affine.apply affine_map<(d0, d1) -> (d0 + d1 + 56)>(%arg3, %arg5)
              %33 = vector.transfer_read %arg2[%arg4, %32], %cst {masked = [false]} : memref<784x512xf32, affine_map<(d0, d1) -> (d0 * 512 + d1)>>, vector<8xf32>
              %34 = affine.load %2[((%arg5 + %c7 * 8) floordiv 16) mod 16, (%c0 + %c0) mod 6, (((%arg5 + %c7 * 8) mod 16) floordiv 8) mod 2] : memref<16x6x2xvector<8xf32>>
              %35 = addf %33, %34 : vector<8xf32>
              store %35, %1[%c0, %c7] : memref<1x16xvector<8xf32>>
              %36 = affine.apply affine_map<(d0, d1) -> (d0 + d1 + 64)>(%arg3, %arg5)
              %37 = vector.transfer_read %arg2[%arg4, %36], %cst {masked = [false]} : memref<784x512xf32, affine_map<(d0, d1) -> (d0 * 512 + d1)>>, vector<8xf32>
              %38 = affine.load %2[((%arg5 + %c8 * 8) floordiv 16) mod 16, (%c0 + %c0) mod 6, (((%arg5 + %c8 * 8) mod 16) floordiv 8) mod 2] : memref<16x6x2xvector<8xf32>>
              %39 = addf %37, %38 : vector<8xf32>
              store %39, %1[%c0, %c8] : memref<1x16xvector<8xf32>>
              %40 = affine.apply affine_map<(d0, d1) -> (d0 + d1 + 72)>(%arg3, %arg5)
              %41 = vector.transfer_read %arg2[%arg4, %40], %cst {masked = [false]} : memref<784x512xf32, affine_map<(d0, d1) -> (d0 * 512 + d1)>>, vector<8xf32>
              %42 = affine.load %2[((%arg5 + %c9 * 8) floordiv 16) mod 16, (%c0 + %c0) mod 6, (((%arg5 + %c9 * 8) mod 16) floordiv 8) mod 2] : memref<16x6x2xvector<8xf32>>
              %43 = addf %41, %42 : vector<8xf32>
              store %43, %1[%c0, %c9] : memref<1x16xvector<8xf32>>
              %44 = affine.apply affine_map<(d0, d1) -> (d0 + d1 + 80)>(%arg3, %arg5)
              %45 = vector.transfer_read %arg2[%arg4, %44], %cst {masked = [false]} : memref<784x512xf32, affine_map<(d0, d1) -> (d0 * 512 + d1)>>, vector<8xf32>
              %46 = affine.load %2[((%arg5 + %c10 * 8) floordiv 16) mod 16, (%c0 + %c0) mod 6, (((%arg5 + %c10 * 8) mod 16) floordiv 8) mod 2] : memref<16x6x2xvector<8xf32>>
              %47 = addf %45, %46 : vector<8xf32>
              store %47, %1[%c0, %c10] : memref<1x16xvector<8xf32>>
              %48 = affine.apply affine_map<(d0, d1) -> (d0 + d1 + 88)>(%arg3, %arg5)
              %49 = vector.transfer_read %arg2[%arg4, %48], %cst {masked = [false]} : memref<784x512xf32, affine_map<(d0, d1) -> (d0 * 512 + d1)>>, vector<8xf32>
              %50 = affine.load %2[((%arg5 + %c11 * 8) floordiv 16) mod 16, (%c0 + %c0) mod 6, (((%arg5 + %c11 * 8) mod 16) floordiv 8) mod 2] : memref<16x6x2xvector<8xf32>>
              %51 = addf %49, %50 : vector<8xf32>
              store %51, %1[%c0, %c11] : memref<1x16xvector<8xf32>>
              %52 = affine.apply affine_map<(d0, d1) -> (d0 + d1 + 96)>(%arg3, %arg5)
              %53 = vector.transfer_read %arg2[%arg4, %52], %cst {masked = [false]} : memref<784x512xf32, affine_map<(d0, d1) -> (d0 * 512 + d1)>>, vector<8xf32>
              %54 = affine.load %2[((%arg5 + %c12 * 8) floordiv 16) mod 16, (%c0 + %c0) mod 6, (((%arg5 + %c12 * 8) mod 16) floordiv 8) mod 2] : memref<16x6x2xvector<8xf32>>
              %55 = addf %53, %54 : vector<8xf32>
              store %55, %1[%c0, %c12] : memref<1x16xvector<8xf32>>
              %56 = affine.apply affine_map<(d0, d1) -> (d0 + d1 + 104)>(%arg3, %arg5)
              %57 = vector.transfer_read %arg2[%arg4, %56], %cst {masked = [false]} : memref<784x512xf32, affine_map<(d0, d1) -> (d0 * 512 + d1)>>, vector<8xf32>
              %58 = affine.load %2[((%arg5 + %c13 * 8) floordiv 16) mod 16, (%c0 + %c0) mod 6, (((%arg5 + %c13 * 8) mod 16) floordiv 8) mod 2] : memref<16x6x2xvector<8xf32>>
              %59 = addf %57, %58 : vector<8xf32>
              store %59, %1[%c0, %c13] : memref<1x16xvector<8xf32>>
              %60 = affine.apply affine_map<(d0, d1) -> (d0 + d1 + 112)>(%arg3, %arg5)
              %61 = vector.transfer_read %arg2[%arg4, %60], %cst {masked = [false]} : memref<784x512xf32, affine_map<(d0, d1) -> (d0 * 512 + d1)>>, vector<8xf32>
              %62 = affine.load %2[((%arg5 + %c14 * 8) floordiv 16) mod 16, (%c0 + %c0) mod 6, (((%arg5 + %c14 * 8) mod 16) floordiv 8) mod 2] : memref<16x6x2xvector<8xf32>>
              %63 = addf %61, %62 : vector<8xf32>
              store %63, %1[%c0, %c14] : memref<1x16xvector<8xf32>>
              %64 = affine.apply affine_map<(d0, d1) -> (d0 + d1 + 120)>(%arg3, %arg5)
              %65 = vector.transfer_read %arg2[%arg4, %64], %cst {masked = [false]} : memref<784x512xf32, affine_map<(d0, d1) -> (d0 * 512 + d1)>>, vector<8xf32>
              %66 = affine.load %2[((%arg5 + %c15 * 8) floordiv 16) mod 16, (%c0 + %c0) mod 6, (((%arg5 + %c15 * 8) mod 16) floordiv 8) mod 2] : memref<16x6x2xvector<8xf32>>
              %67 = addf %65, %66 : vector<8xf32>
              store %67, %1[%c0, %c15] : memref<1x16xvector<8xf32>>
              affine.for %arg6 = 0 to 16 {
                %68 = affine.apply affine_map<(d0, d1, d2) -> (d0 + d1 + d2 * 8)>(%arg3, %arg5, %arg6)
                %69 = load %1[%c0, %arg6] : memref<1x16xvector<8xf32>>
                vector.transfer_write %69, %arg2[%arg4, %68] {masked = [false]} : vector<8xf32>, memref<784x512xf32, affine_map<(d0, d1) -> (d0 * 512 + d1)>>
              } {begin = 0 : i64, end = 16 : i64, index = #accln<"index{k_i_o,9}">, subdomainIndexOrder = [#accln<"index{i_i,8}">, #accln<"index{k_i_o,9}">], subdomainSize = [1, 1]}
            } else {
              %4 = affine.apply affine_map<(d0, d1) -> (d0 + d1)>(%arg3, %arg5)
              %5 = vector.transfer_read %arg2[%arg4, %4], %cst : memref<784x512xf32, affine_map<(d0, d1) -> (d0 * 512 + d1)>>, vector<8xf32>
              %6 = affine.load %2[((%arg5 + %c0 * 8) floordiv 16) mod 16, (%c0 + %c0) mod 6, (((%arg5 + %c0 * 8) mod 16) floordiv 8) mod 2] : memref<16x6x2xvector<8xf32>>
              %7 = addf %5, %6 : vector<8xf32>
              store %7, %1[%c0, %c0] : memref<1x16xvector<8xf32>>
              %8 = affine.apply affine_map<(d0, d1) -> (d0 + d1 + 8)>(%arg3, %arg5)
              %9 = vector.transfer_read %arg2[%arg4, %8], %cst : memref<784x512xf32, affine_map<(d0, d1) -> (d0 * 512 + d1)>>, vector<8xf32>
              %10 = affine.load %2[((%arg5 + %c1 * 8) floordiv 16) mod 16, (%c0 + %c0) mod 6, (((%arg5 + %c1 * 8) mod 16) floordiv 8) mod 2] : memref<16x6x2xvector<8xf32>>
              %11 = addf %9, %10 : vector<8xf32>
              store %11, %1[%c0, %c1] : memref<1x16xvector<8xf32>>
              %12 = affine.apply affine_map<(d0, d1) -> (d0 + d1 + 16)>(%arg3, %arg5)
              %13 = vector.transfer_read %arg2[%arg4, %12], %cst : memref<784x512xf32, affine_map<(d0, d1) -> (d0 * 512 + d1)>>, vector<8xf32>
              %14 = affine.load %2[((%arg5 + %c2 * 8) floordiv 16) mod 16, (%c0 + %c0) mod 6, (((%arg5 + %c2 * 8) mod 16) floordiv 8) mod 2] : memref<16x6x2xvector<8xf32>>
              %15 = addf %13, %14 : vector<8xf32>
              store %15, %1[%c0, %c2] : memref<1x16xvector<8xf32>>
              %16 = affine.apply affine_map<(d0, d1) -> (d0 + d1 + 24)>(%arg3, %arg5)
              %17 = vector.transfer_read %arg2[%arg4, %16], %cst : memref<784x512xf32, affine_map<(d0, d1) -> (d0 * 512 + d1)>>, vector<8xf32>
              %18 = affine.load %2[((%arg5 + %c3 * 8) floordiv 16) mod 16, (%c0 + %c0) mod 6, (((%arg5 + %c3 * 8) mod 16) floordiv 8) mod 2] : memref<16x6x2xvector<8xf32>>
              %19 = addf %17, %18 : vector<8xf32>
              store %19, %1[%c0, %c3] : memref<1x16xvector<8xf32>>
              %20 = affine.apply affine_map<(d0, d1) -> (d0 + d1 + 32)>(%arg3, %arg5)
              %21 = vector.transfer_read %arg2[%arg4, %20], %cst : memref<784x512xf32, affine_map<(d0, d1) -> (d0 * 512 + d1)>>, vector<8xf32>
              %22 = affine.load %2[((%arg5 + %c4 * 8) floordiv 16) mod 16, (%c0 + %c0) mod 6, (((%arg5 + %c4 * 8) mod 16) floordiv 8) mod 2] : memref<16x6x2xvector<8xf32>>
              %23 = addf %21, %22 : vector<8xf32>
              store %23, %1[%c0, %c4] : memref<1x16xvector<8xf32>>
              %24 = affine.apply affine_map<(d0, d1) -> (d0 + d1 + 40)>(%arg3, %arg5)
              %25 = vector.transfer_read %arg2[%arg4, %24], %cst : memref<784x512xf32, affine_map<(d0, d1) -> (d0 * 512 + d1)>>, vector<8xf32>
              %26 = affine.load %2[((%arg5 + %c5 * 8) floordiv 16) mod 16, (%c0 + %c0) mod 6, (((%arg5 + %c5 * 8) mod 16) floordiv 8) mod 2] : memref<16x6x2xvector<8xf32>>
              %27 = addf %25, %26 : vector<8xf32>
              store %27, %1[%c0, %c5] : memref<1x16xvector<8xf32>>
              %28 = affine.apply affine_map<(d0, d1) -> (d0 + d1 + 48)>(%arg3, %arg5)
              %29 = vector.transfer_read %arg2[%arg4, %28], %cst : memref<784x512xf32, affine_map<(d0, d1) -> (d0 * 512 + d1)>>, vector<8xf32>
              %30 = affine.load %2[((%arg5 + %c6 * 8) floordiv 16) mod 16, (%c0 + %c0) mod 6, (((%arg5 + %c6 * 8) mod 16) floordiv 8) mod 2] : memref<16x6x2xvector<8xf32>>
              %31 = addf %29, %30 : vector<8xf32>
              store %31, %1[%c0, %c6] : memref<1x16xvector<8xf32>>
              %32 = affine.apply affine_map<(d0, d1) -> (d0 + d1 + 56)>(%arg3, %arg5)
              %33 = vector.transfer_read %arg2[%arg4, %32], %cst : memref<784x512xf32, affine_map<(d0, d1) -> (d0 * 512 + d1)>>, vector<8xf32>
              %34 = affine.load %2[((%arg5 + %c7 * 8) floordiv 16) mod 16, (%c0 + %c0) mod 6, (((%arg5 + %c7 * 8) mod 16) floordiv 8) mod 2] : memref<16x6x2xvector<8xf32>>
              %35 = addf %33, %34 : vector<8xf32>
              store %35, %1[%c0, %c7] : memref<1x16xvector<8xf32>>
              %36 = affine.apply affine_map<(d0, d1) -> (d0 + d1 + 64)>(%arg3, %arg5)
              %37 = vector.transfer_read %arg2[%arg4, %36], %cst : memref<784x512xf32, affine_map<(d0, d1) -> (d0 * 512 + d1)>>, vector<8xf32>
              %38 = affine.load %2[((%arg5 + %c8 * 8) floordiv 16) mod 16, (%c0 + %c0) mod 6, (((%arg5 + %c8 * 8) mod 16) floordiv 8) mod 2] : memref<16x6x2xvector<8xf32>>
              %39 = addf %37, %38 : vector<8xf32>
              store %39, %1[%c0, %c8] : memref<1x16xvector<8xf32>>
              %40 = affine.apply affine_map<(d0, d1) -> (d0 + d1 + 72)>(%arg3, %arg5)
              %41 = vector.transfer_read %arg2[%arg4, %40], %cst : memref<784x512xf32, affine_map<(d0, d1) -> (d0 * 512 + d1)>>, vector<8xf32>
              %42 = affine.load %2[((%arg5 + %c9 * 8) floordiv 16) mod 16, (%c0 + %c0) mod 6, (((%arg5 + %c9 * 8) mod 16) floordiv 8) mod 2] : memref<16x6x2xvector<8xf32>>
              %43 = addf %41, %42 : vector<8xf32>
              store %43, %1[%c0, %c9] : memref<1x16xvector<8xf32>>
              %44 = affine.apply affine_map<(d0, d1) -> (d0 + d1 + 80)>(%arg3, %arg5)
              %45 = vector.transfer_read %arg2[%arg4, %44], %cst : memref<784x512xf32, affine_map<(d0, d1) -> (d0 * 512 + d1)>>, vector<8xf32>
              %46 = affine.load %2[((%arg5 + %c10 * 8) floordiv 16) mod 16, (%c0 + %c0) mod 6, (((%arg5 + %c10 * 8) mod 16) floordiv 8) mod 2] : memref<16x6x2xvector<8xf32>>
              %47 = addf %45, %46 : vector<8xf32>
              store %47, %1[%c0, %c10] : memref<1x16xvector<8xf32>>
              %48 = affine.apply affine_map<(d0, d1) -> (d0 + d1 + 88)>(%arg3, %arg5)
              %49 = vector.transfer_read %arg2[%arg4, %48], %cst : memref<784x512xf32, affine_map<(d0, d1) -> (d0 * 512 + d1)>>, vector<8xf32>
              %50 = affine.load %2[((%arg5 + %c11 * 8) floordiv 16) mod 16, (%c0 + %c0) mod 6, (((%arg5 + %c11 * 8) mod 16) floordiv 8) mod 2] : memref<16x6x2xvector<8xf32>>
              %51 = addf %49, %50 : vector<8xf32>
              store %51, %1[%c0, %c11] : memref<1x16xvector<8xf32>>
              %52 = affine.apply affine_map<(d0, d1) -> (d0 + d1 + 96)>(%arg3, %arg5)
              %53 = vector.transfer_read %arg2[%arg4, %52], %cst : memref<784x512xf32, affine_map<(d0, d1) -> (d0 * 512 + d1)>>, vector<8xf32>
              %54 = affine.load %2[((%arg5 + %c12 * 8) floordiv 16) mod 16, (%c0 + %c0) mod 6, (((%arg5 + %c12 * 8) mod 16) floordiv 8) mod 2] : memref<16x6x2xvector<8xf32>>
              %55 = addf %53, %54 : vector<8xf32>
              store %55, %1[%c0, %c12] : memref<1x16xvector<8xf32>>
              %56 = affine.apply affine_map<(d0, d1) -> (d0 + d1 + 104)>(%arg3, %arg5)
              %57 = vector.transfer_read %arg2[%arg4, %56], %cst : memref<784x512xf32, affine_map<(d0, d1) -> (d0 * 512 + d1)>>, vector<8xf32>
              %58 = affine.load %2[((%arg5 + %c13 * 8) floordiv 16) mod 16, (%c0 + %c0) mod 6, (((%arg5 + %c13 * 8) mod 16) floordiv 8) mod 2] : memref<16x6x2xvector<8xf32>>
              %59 = addf %57, %58 : vector<8xf32>
              store %59, %1[%c0, %c13] : memref<1x16xvector<8xf32>>
              %60 = affine.apply affine_map<(d0, d1) -> (d0 + d1 + 112)>(%arg3, %arg5)
              %61 = vector.transfer_read %arg2[%arg4, %60], %cst : memref<784x512xf32, affine_map<(d0, d1) -> (d0 * 512 + d1)>>, vector<8xf32>
              %62 = affine.load %2[((%arg5 + %c14 * 8) floordiv 16) mod 16, (%c0 + %c0) mod 6, (((%arg5 + %c14 * 8) mod 16) floordiv 8) mod 2] : memref<16x6x2xvector<8xf32>>
              %63 = addf %61, %62 : vector<8xf32>
              store %63, %1[%c0, %c14] : memref<1x16xvector<8xf32>>
              %64 = affine.apply affine_map<(d0, d1) -> (d0 + d1 + 120)>(%arg3, %arg5)
              %65 = vector.transfer_read %arg2[%arg4, %64], %cst : memref<784x512xf32, affine_map<(d0, d1) -> (d0 * 512 + d1)>>, vector<8xf32>
              %66 = affine.load %2[((%arg5 + %c15 * 8) floordiv 16) mod 16, (%c0 + %c0) mod 6, (((%arg5 + %c15 * 8) mod 16) floordiv 8) mod 2] : memref<16x6x2xvector<8xf32>>
              %67 = addf %65, %66 : vector<8xf32>
              store %67, %1[%c0, %c15] : memref<1x16xvector<8xf32>>
              affine.for %arg6 = 0 to 16 {
                %68 = affine.apply affine_map<(d0, d1, d2) -> (d0 + d1 + d2 * 8)>(%arg3, %arg5, %arg6)
                %69 = load %1[%c0, %arg6] : memref<1x16xvector<8xf32>>
                vector.transfer_write %69, %arg2[%arg4, %68] : vector<8xf32>, memref<784x512xf32, affine_map<(d0, d1) -> (d0 * 512 + d1)>>
              } {begin = 0 : i64, end = 16 : i64, index = #accln<"index{j_i_o,13}">, subdomainIndexOrder = [#accln<"index{i_i_i,12}">, #accln<"index{j_i_o,13}">], subdomainSize = [1, 1]}
            }
          } {begin = 0 : i64, end = 256 : i64, index = #accln<"index{j_i,4}">, subdomainIndexOrder = [#accln<"index{i,0}">, #accln<"index{j,1}">], subdomainSize = [1, 128]}
        } {begin = 0 : i64, end = 784 : i64, index = #accln<"index{i_o,7}">, subdomainIndexOrder = [#accln<"index{i,0}">, #accln<"index{j,1}">, #accln<"index{k,2}">], subdomainSize = [1, 256, 128]}
      } {begin = 0 : i64, end = 512 : i64, index = #accln<"index{j_o,3}">, subdomainIndexOrder = [#accln<"index{i,0}">, #accln<"index{j,1}">, #accln<"index{k,2}">], subdomainSize = [784, 256, 128]}
      return
    }
    func @optimized_matmul_py_4a6286d9(%arg0: memref<784x128xf32, affine_map<(d0, d1) -> (d0 * 128 + d1)>>, %arg1: memref<128x512xf32, affine_map<(d0, d1) -> (d0 * 512 + d1)>>, %arg2: memref<784x512xf32, affine_map<(d0, d1) -> (d0 * 512 + d1)>>) attributes {exec_target = 0 : i64, accv.base_name = "optimized_matmul_py", accv.emit_header_decl, accv.emit_raw_pointer_api} {
      accv.launch_func @optimized_matmul_py_4a6286d9_impl_17630232307017152746(%arg0, %arg1, %arg2) {exec_target = 0 : i64} : (memref<784x128xf32, affine_map<(d0, d1) -> (d0 * 128 + d1)>>, memref<128x512xf32, affine_map<(d0, d1) -> (d0 * 512 + d1)>>, memref<784x512xf32, affine_map<(d0, d1) -> (d0 * 512 + d1)>>) -> ()
      return
    }
  }
}
