module @optimized_matmul attributes {llvm.data_layout = "e-m:w-p270:32:32-p271:32:32-p272:64:64-i64:64-f80:128-n8:16:32:64-S128"} {
  accv.module "optimized_matmul"  {
    "accv.global"() {sym_name = "cache_17", type = memref<16x128x2xvector<8xf32>>} : () -> ()
    "accv.global"() {sym_name = "cache_16", type = memref<16x6x2xvector<8xf32>>} : () -> ()
    func @optimized_matmul_py_4a6286d9_impl_17630232307017152746(%arg0: memref<784x128xf32, affine_map<(d0, d1) -> (d0 * 128 + d1)>>, %arg1: memref<128x512xf32, affine_map<(d0, d1) -> (d0 * 512 + d1)>>, %arg2: memref<784x512xf32, affine_map<(d0, d1) -> (d0 * 512 + d1)>>) attributes {exec_target = 0 : i64, sym_visibility = "nested"} {
      %c0 = constant 0 : index
      %c0_0 = constant 0 : index
      %c0_1 = constant 0 : index
      %c0_2 = constant 0 : index
      %c0_3 = constant 0 : index
      %c0_4 = constant 0 : index
      %c0_5 = constant 0 : index
      %c0_6 = constant 0 : index
      %c0_7 = constant 0 : index
      %c0_8 = constant 0 : index
      %c0_9 = constant 0 : index
      %c0_10 = constant 0 : index
      %c0_11 = constant 0 : index
      %c0_12 = constant 0 : index
      %c0_13 = constant 0 : index
      %c0_14 = constant 0 : index
      %c0_15 = constant 0 : index
      %c0_16 = constant 0 : index
      %c0_17 = constant 0 : index
      %c0_18 = constant 0 : index
      %c0_19 = constant 0 : index
      %c0_20 = constant 0 : index
      %cst = constant 0.000000e+00 : f32
      %c0_i64 = constant 0 : i64
      %c1_i64 = constant 1 : i64
      %c2_i64 = constant 2 : i64
      %c3_i64 = constant 3 : i64
      %c4_i64 = constant 4 : i64
      %c5_i64 = constant 5 : i64
      %c6_i64 = constant 6 : i64
      %c7_i64 = constant 7 : i64
      %cst_21 = constant dense<0.000000e+00> : vector<8xf32>
      %0 = alloca() {alignment = 32 : i64} : memref<1x16xvector<8xf32>>
      %1 = alloca() {alignment = 32 : i64} : memref<1x16xvector<8xf32>>
      %2 = "accv.ref_global"() {global_name = @cache_16} : () -> memref<16x6x2xvector<8xf32>>
      %3 = "accv.ref_global"() {global_name = @cache_17} : () -> memref<16x128x2xvector<8xf32>>
      affine.for %arg3 = 0 to 512 step 256 {
        affine.for %arg4 = 0 to 128 {
          affine.for %arg5 = 0 to 256 step 128 {
            affine.if affine_set<() : (0 == 0)>() {
              %4 = affine.apply affine_map<(d0, d1, d2) -> (d0 + d1 + d2)>(%c0, %arg4, %c0_19)
              %5 = affine.apply affine_map<(d0, d1, d2) -> (d0 + d1 + d2 * 8)>(%arg3, %arg5, %c0_20)
              %6 = vector.transfer_read %arg1[%4, %5], %cst {masked = [false]} : memref<128x512xf32, affine_map<(d0, d1) -> (d0 * 512 + d1)>>, vector<8xf32>
              store %6, %0[%c0_19, %c0_20] : memref<1x16xvector<8xf32>>
              %7 = affine.apply affine_map<(d0) -> (d0 + 1)>(%c0_20)
              %8 = affine.apply affine_map<(d0, d1, d2) -> (d0 + d1 + d2)>(%c0, %arg4, %c0_19)
              %9 = affine.apply affine_map<(d0, d1, d2) -> (d0 + d1 + d2 * 8)>(%arg3, %arg5, %7)
              %10 = vector.transfer_read %arg1[%8, %9], %cst {masked = [false]} : memref<128x512xf32, affine_map<(d0, d1) -> (d0 * 512 + d1)>>, vector<8xf32>
              store %10, %0[%c0_19, %7] : memref<1x16xvector<8xf32>>
              %11 = affine.apply affine_map<(d0) -> (d0 + 2)>(%c0_20)
              %12 = affine.apply affine_map<(d0, d1, d2) -> (d0 + d1 + d2)>(%c0, %arg4, %c0_19)
              %13 = affine.apply affine_map<(d0, d1, d2) -> (d0 + d1 + d2 * 8)>(%arg3, %arg5, %11)
              %14 = vector.transfer_read %arg1[%12, %13], %cst {masked = [false]} : memref<128x512xf32, affine_map<(d0, d1) -> (d0 * 512 + d1)>>, vector<8xf32>
              store %14, %0[%c0_19, %11] : memref<1x16xvector<8xf32>>
              %15 = affine.apply affine_map<(d0) -> (d0 + 3)>(%c0_20)
              %16 = affine.apply affine_map<(d0, d1, d2) -> (d0 + d1 + d2)>(%c0, %arg4, %c0_19)
              %17 = affine.apply affine_map<(d0, d1, d2) -> (d0 + d1 + d2 * 8)>(%arg3, %arg5, %15)
              %18 = vector.transfer_read %arg1[%16, %17], %cst {masked = [false]} : memref<128x512xf32, affine_map<(d0, d1) -> (d0 * 512 + d1)>>, vector<8xf32>
              store %18, %0[%c0_19, %15] : memref<1x16xvector<8xf32>>
              %19 = affine.apply affine_map<(d0) -> (d0 + 4)>(%c0_20)
              %20 = affine.apply affine_map<(d0, d1, d2) -> (d0 + d1 + d2)>(%c0, %arg4, %c0_19)
              %21 = affine.apply affine_map<(d0, d1, d2) -> (d0 + d1 + d2 * 8)>(%arg3, %arg5, %19)
              %22 = vector.transfer_read %arg1[%20, %21], %cst {masked = [false]} : memref<128x512xf32, affine_map<(d0, d1) -> (d0 * 512 + d1)>>, vector<8xf32>
              store %22, %0[%c0_19, %19] : memref<1x16xvector<8xf32>>
              %23 = affine.apply affine_map<(d0) -> (d0 + 5)>(%c0_20)
              %24 = affine.apply affine_map<(d0, d1, d2) -> (d0 + d1 + d2)>(%c0, %arg4, %c0_19)
              %25 = affine.apply affine_map<(d0, d1, d2) -> (d0 + d1 + d2 * 8)>(%arg3, %arg5, %23)
              %26 = vector.transfer_read %arg1[%24, %25], %cst {masked = [false]} : memref<128x512xf32, affine_map<(d0, d1) -> (d0 * 512 + d1)>>, vector<8xf32>
              store %26, %0[%c0_19, %23] : memref<1x16xvector<8xf32>>
              %27 = affine.apply affine_map<(d0) -> (d0 + 6)>(%c0_20)
              %28 = affine.apply affine_map<(d0, d1, d2) -> (d0 + d1 + d2)>(%c0, %arg4, %c0_19)
              %29 = affine.apply affine_map<(d0, d1, d2) -> (d0 + d1 + d2 * 8)>(%arg3, %arg5, %27)
              %30 = vector.transfer_read %arg1[%28, %29], %cst {masked = [false]} : memref<128x512xf32, affine_map<(d0, d1) -> (d0 * 512 + d1)>>, vector<8xf32>
              store %30, %0[%c0_19, %27] : memref<1x16xvector<8xf32>>
              %31 = affine.apply affine_map<(d0) -> (d0 + 7)>(%c0_20)
              %32 = affine.apply affine_map<(d0, d1, d2) -> (d0 + d1 + d2)>(%c0, %arg4, %c0_19)
              %33 = affine.apply affine_map<(d0, d1, d2) -> (d0 + d1 + d2 * 8)>(%arg3, %arg5, %31)
              %34 = vector.transfer_read %arg1[%32, %33], %cst {masked = [false]} : memref<128x512xf32, affine_map<(d0, d1) -> (d0 * 512 + d1)>>, vector<8xf32>
              store %34, %0[%c0_19, %31] : memref<1x16xvector<8xf32>>
              %35 = affine.apply affine_map<(d0) -> (d0 + 8)>(%c0_20)
              %36 = affine.apply affine_map<(d0, d1, d2) -> (d0 + d1 + d2)>(%c0, %arg4, %c0_19)
              %37 = affine.apply affine_map<(d0, d1, d2) -> (d0 + d1 + d2 * 8)>(%arg3, %arg5, %35)
              %38 = vector.transfer_read %arg1[%36, %37], %cst {masked = [false]} : memref<128x512xf32, affine_map<(d0, d1) -> (d0 * 512 + d1)>>, vector<8xf32>
              store %38, %0[%c0_19, %35] : memref<1x16xvector<8xf32>>
              %39 = affine.apply affine_map<(d0) -> (d0 + 9)>(%c0_20)
              %40 = affine.apply affine_map<(d0, d1, d2) -> (d0 + d1 + d2)>(%c0, %arg4, %c0_19)
              %41 = affine.apply affine_map<(d0, d1, d2) -> (d0 + d1 + d2 * 8)>(%arg3, %arg5, %39)
              %42 = vector.transfer_read %arg1[%40, %41], %cst {masked = [false]} : memref<128x512xf32, affine_map<(d0, d1) -> (d0 * 512 + d1)>>, vector<8xf32>
              store %42, %0[%c0_19, %39] : memref<1x16xvector<8xf32>>
              %43 = affine.apply affine_map<(d0) -> (d0 + 10)>(%c0_20)
              %44 = affine.apply affine_map<(d0, d1, d2) -> (d0 + d1 + d2)>(%c0, %arg4, %c0_19)
              %45 = affine.apply affine_map<(d0, d1, d2) -> (d0 + d1 + d2 * 8)>(%arg3, %arg5, %43)
              %46 = vector.transfer_read %arg1[%44, %45], %cst {masked = [false]} : memref<128x512xf32, affine_map<(d0, d1) -> (d0 * 512 + d1)>>, vector<8xf32>
              store %46, %0[%c0_19, %43] : memref<1x16xvector<8xf32>>
              %47 = affine.apply affine_map<(d0) -> (d0 + 11)>(%c0_20)
              %48 = affine.apply affine_map<(d0, d1, d2) -> (d0 + d1 + d2)>(%c0, %arg4, %c0_19)
              %49 = affine.apply affine_map<(d0, d1, d2) -> (d0 + d1 + d2 * 8)>(%arg3, %arg5, %47)
              %50 = vector.transfer_read %arg1[%48, %49], %cst {masked = [false]} : memref<128x512xf32, affine_map<(d0, d1) -> (d0 * 512 + d1)>>, vector<8xf32>
              store %50, %0[%c0_19, %47] : memref<1x16xvector<8xf32>>
              %51 = affine.apply affine_map<(d0) -> (d0 + 12)>(%c0_20)
              %52 = affine.apply affine_map<(d0, d1, d2) -> (d0 + d1 + d2)>(%c0, %arg4, %c0_19)
              %53 = affine.apply affine_map<(d0, d1, d2) -> (d0 + d1 + d2 * 8)>(%arg3, %arg5, %51)
              %54 = vector.transfer_read %arg1[%52, %53], %cst {masked = [false]} : memref<128x512xf32, affine_map<(d0, d1) -> (d0 * 512 + d1)>>, vector<8xf32>
              store %54, %0[%c0_19, %51] : memref<1x16xvector<8xf32>>
              %55 = affine.apply affine_map<(d0) -> (d0 + 13)>(%c0_20)
              %56 = affine.apply affine_map<(d0, d1, d2) -> (d0 + d1 + d2)>(%c0, %arg4, %c0_19)
              %57 = affine.apply affine_map<(d0, d1, d2) -> (d0 + d1 + d2 * 8)>(%arg3, %arg5, %55)
              %58 = vector.transfer_read %arg1[%56, %57], %cst {masked = [false]} : memref<128x512xf32, affine_map<(d0, d1) -> (d0 * 512 + d1)>>, vector<8xf32>
              store %58, %0[%c0_19, %55] : memref<1x16xvector<8xf32>>
              %59 = affine.apply affine_map<(d0) -> (d0 + 14)>(%c0_20)
              %60 = affine.apply affine_map<(d0, d1, d2) -> (d0 + d1 + d2)>(%c0, %arg4, %c0_19)
              %61 = affine.apply affine_map<(d0, d1, d2) -> (d0 + d1 + d2 * 8)>(%arg3, %arg5, %59)
              %62 = vector.transfer_read %arg1[%60, %61], %cst {masked = [false]} : memref<128x512xf32, affine_map<(d0, d1) -> (d0 * 512 + d1)>>, vector<8xf32>
              store %62, %0[%c0_19, %59] : memref<1x16xvector<8xf32>>
              %63 = affine.apply affine_map<(d0) -> (d0 + 15)>(%c0_20)
              %64 = affine.apply affine_map<(d0, d1, d2) -> (d0 + d1 + d2)>(%c0, %arg4, %c0_19)
              %65 = affine.apply affine_map<(d0, d1, d2) -> (d0 + d1 + d2 * 8)>(%arg3, %arg5, %63)
              %66 = vector.transfer_read %arg1[%64, %65], %cst {masked = [false]} : memref<128x512xf32, affine_map<(d0, d1) -> (d0 * 512 + d1)>>, vector<8xf32>
              store %66, %0[%c0_19, %63] : memref<1x16xvector<8xf32>>
              %67 = load %0[%c0_17, %c0_18] : memref<1x16xvector<8xf32>>
              affine.store %67, %3[((%arg5 + %c0_18 * 8) floordiv 16) mod 16, (%arg4 + %c0_17) mod 128, (((%arg5 + %c0_18 * 8) mod 16) floordiv 8) mod 2] : memref<16x128x2xvector<8xf32>>
              %68 = affine.apply affine_map<(d0) -> (d0 + 1)>(%c0_18)
              %69 = load %0[%c0_17, %68] : memref<1x16xvector<8xf32>>
              affine.store %69, %3[((%arg5 + %68 * 8) floordiv 16) mod 16, (%arg4 + %c0_17) mod 128, (((%arg5 + %68 * 8) mod 16) floordiv 8) mod 2] : memref<16x128x2xvector<8xf32>>
              %70 = affine.apply affine_map<(d0) -> (d0 + 2)>(%c0_18)
              %71 = load %0[%c0_17, %70] : memref<1x16xvector<8xf32>>
              affine.store %71, %3[((%arg5 + %70 * 8) floordiv 16) mod 16, (%arg4 + %c0_17) mod 128, (((%arg5 + %70 * 8) mod 16) floordiv 8) mod 2] : memref<16x128x2xvector<8xf32>>
              %72 = affine.apply affine_map<(d0) -> (d0 + 3)>(%c0_18)
              %73 = load %0[%c0_17, %72] : memref<1x16xvector<8xf32>>
              affine.store %73, %3[((%arg5 + %72 * 8) floordiv 16) mod 16, (%arg4 + %c0_17) mod 128, (((%arg5 + %72 * 8) mod 16) floordiv 8) mod 2] : memref<16x128x2xvector<8xf32>>
              %74 = affine.apply affine_map<(d0) -> (d0 + 4)>(%c0_18)
              %75 = load %0[%c0_17, %74] : memref<1x16xvector<8xf32>>
              affine.store %75, %3[((%arg5 + %74 * 8) floordiv 16) mod 16, (%arg4 + %c0_17) mod 128, (((%arg5 + %74 * 8) mod 16) floordiv 8) mod 2] : memref<16x128x2xvector<8xf32>>
              %76 = affine.apply affine_map<(d0) -> (d0 + 5)>(%c0_18)
              %77 = load %0[%c0_17, %76] : memref<1x16xvector<8xf32>>
              affine.store %77, %3[((%arg5 + %76 * 8) floordiv 16) mod 16, (%arg4 + %c0_17) mod 128, (((%arg5 + %76 * 8) mod 16) floordiv 8) mod 2] : memref<16x128x2xvector<8xf32>>
              %78 = affine.apply affine_map<(d0) -> (d0 + 6)>(%c0_18)
              %79 = load %0[%c0_17, %78] : memref<1x16xvector<8xf32>>
              affine.store %79, %3[((%arg5 + %78 * 8) floordiv 16) mod 16, (%arg4 + %c0_17) mod 128, (((%arg5 + %78 * 8) mod 16) floordiv 8) mod 2] : memref<16x128x2xvector<8xf32>>
              %80 = affine.apply affine_map<(d0) -> (d0 + 7)>(%c0_18)
              %81 = load %0[%c0_17, %80] : memref<1x16xvector<8xf32>>
              affine.store %81, %3[((%arg5 + %80 * 8) floordiv 16) mod 16, (%arg4 + %c0_17) mod 128, (((%arg5 + %80 * 8) mod 16) floordiv 8) mod 2] : memref<16x128x2xvector<8xf32>>
              %82 = affine.apply affine_map<(d0) -> (d0 + 8)>(%c0_18)
              %83 = load %0[%c0_17, %82] : memref<1x16xvector<8xf32>>
              affine.store %83, %3[((%arg5 + %82 * 8) floordiv 16) mod 16, (%arg4 + %c0_17) mod 128, (((%arg5 + %82 * 8) mod 16) floordiv 8) mod 2] : memref<16x128x2xvector<8xf32>>
              %84 = affine.apply affine_map<(d0) -> (d0 + 9)>(%c0_18)
              %85 = load %0[%c0_17, %84] : memref<1x16xvector<8xf32>>
              affine.store %85, %3[((%arg5 + %84 * 8) floordiv 16) mod 16, (%arg4 + %c0_17) mod 128, (((%arg5 + %84 * 8) mod 16) floordiv 8) mod 2] : memref<16x128x2xvector<8xf32>>
              %86 = affine.apply affine_map<(d0) -> (d0 + 10)>(%c0_18)
              %87 = load %0[%c0_17, %86] : memref<1x16xvector<8xf32>>
              affine.store %87, %3[((%arg5 + %86 * 8) floordiv 16) mod 16, (%arg4 + %c0_17) mod 128, (((%arg5 + %86 * 8) mod 16) floordiv 8) mod 2] : memref<16x128x2xvector<8xf32>>
              %88 = affine.apply affine_map<(d0) -> (d0 + 11)>(%c0_18)
              %89 = load %0[%c0_17, %88] : memref<1x16xvector<8xf32>>
              affine.store %89, %3[((%arg5 + %88 * 8) floordiv 16) mod 16, (%arg4 + %c0_17) mod 128, (((%arg5 + %88 * 8) mod 16) floordiv 8) mod 2] : memref<16x128x2xvector<8xf32>>
              %90 = affine.apply affine_map<(d0) -> (d0 + 12)>(%c0_18)
              %91 = load %0[%c0_17, %90] : memref<1x16xvector<8xf32>>
              affine.store %91, %3[((%arg5 + %90 * 8) floordiv 16) mod 16, (%arg4 + %c0_17) mod 128, (((%arg5 + %90 * 8) mod 16) floordiv 8) mod 2] : memref<16x128x2xvector<8xf32>>
              %92 = affine.apply affine_map<(d0) -> (d0 + 13)>(%c0_18)
              %93 = load %0[%c0_17, %92] : memref<1x16xvector<8xf32>>
              affine.store %93, %3[((%arg5 + %92 * 8) floordiv 16) mod 16, (%arg4 + %c0_17) mod 128, (((%arg5 + %92 * 8) mod 16) floordiv 8) mod 2] : memref<16x128x2xvector<8xf32>>
              %94 = affine.apply affine_map<(d0) -> (d0 + 14)>(%c0_18)
              %95 = load %0[%c0_17, %94] : memref<1x16xvector<8xf32>>
              affine.store %95, %3[((%arg5 + %94 * 8) floordiv 16) mod 16, (%arg4 + %c0_17) mod 128, (((%arg5 + %94 * 8) mod 16) floordiv 8) mod 2] : memref<16x128x2xvector<8xf32>>
              %96 = affine.apply affine_map<(d0) -> (d0 + 15)>(%c0_18)
              %97 = load %0[%c0_17, %96] : memref<1x16xvector<8xf32>>
              affine.store %97, %3[((%arg5 + %96 * 8) floordiv 16) mod 16, (%arg4 + %c0_17) mod 128, (((%arg5 + %96 * 8) mod 16) floordiv 8) mod 2] : memref<16x128x2xvector<8xf32>>
            } else {
              %4 = affine.apply affine_map<(d0, d1, d2) -> (d0 + d1 + d2)>(%c0, %arg4, %c0_15)
              %5 = affine.apply affine_map<(d0, d1, d2) -> (d0 + d1 + d2 * 8)>(%arg3, %arg5, %c0_16)
              %6 = vector.transfer_read %arg1[%4, %5], %cst : memref<128x512xf32, affine_map<(d0, d1) -> (d0 * 512 + d1)>>, vector<8xf32>
              store %6, %0[%c0_15, %c0_16] : memref<1x16xvector<8xf32>>
              %7 = affine.apply affine_map<(d0) -> (d0 + 1)>(%c0_16)
              %8 = affine.apply affine_map<(d0, d1, d2) -> (d0 + d1 + d2)>(%c0, %arg4, %c0_15)
              %9 = affine.apply affine_map<(d0, d1, d2) -> (d0 + d1 + d2 * 8)>(%arg3, %arg5, %7)
              %10 = vector.transfer_read %arg1[%8, %9], %cst : memref<128x512xf32, affine_map<(d0, d1) -> (d0 * 512 + d1)>>, vector<8xf32>
              store %10, %0[%c0_15, %7] : memref<1x16xvector<8xf32>>
              %11 = affine.apply affine_map<(d0) -> (d0 + 2)>(%c0_16)
              %12 = affine.apply affine_map<(d0, d1, d2) -> (d0 + d1 + d2)>(%c0, %arg4, %c0_15)
              %13 = affine.apply affine_map<(d0, d1, d2) -> (d0 + d1 + d2 * 8)>(%arg3, %arg5, %11)
              %14 = vector.transfer_read %arg1[%12, %13], %cst : memref<128x512xf32, affine_map<(d0, d1) -> (d0 * 512 + d1)>>, vector<8xf32>
              store %14, %0[%c0_15, %11] : memref<1x16xvector<8xf32>>
              %15 = affine.apply affine_map<(d0) -> (d0 + 3)>(%c0_16)
              %16 = affine.apply affine_map<(d0, d1, d2) -> (d0 + d1 + d2)>(%c0, %arg4, %c0_15)
              %17 = affine.apply affine_map<(d0, d1, d2) -> (d0 + d1 + d2 * 8)>(%arg3, %arg5, %15)
              %18 = vector.transfer_read %arg1[%16, %17], %cst : memref<128x512xf32, affine_map<(d0, d1) -> (d0 * 512 + d1)>>, vector<8xf32>
              store %18, %0[%c0_15, %15] : memref<1x16xvector<8xf32>>
              %19 = affine.apply affine_map<(d0) -> (d0 + 4)>(%c0_16)
              %20 = affine.apply affine_map<(d0, d1, d2) -> (d0 + d1 + d2)>(%c0, %arg4, %c0_15)
              %21 = affine.apply affine_map<(d0, d1, d2) -> (d0 + d1 + d2 * 8)>(%arg3, %arg5, %19)
              %22 = vector.transfer_read %arg1[%20, %21], %cst : memref<128x512xf32, affine_map<(d0, d1) -> (d0 * 512 + d1)>>, vector<8xf32>
              store %22, %0[%c0_15, %19] : memref<1x16xvector<8xf32>>
              %23 = affine.apply affine_map<(d0) -> (d0 + 5)>(%c0_16)
              %24 = affine.apply affine_map<(d0, d1, d2) -> (d0 + d1 + d2)>(%c0, %arg4, %c0_15)
              %25 = affine.apply affine_map<(d0, d1, d2) -> (d0 + d1 + d2 * 8)>(%arg3, %arg5, %23)
              %26 = vector.transfer_read %arg1[%24, %25], %cst : memref<128x512xf32, affine_map<(d0, d1) -> (d0 * 512 + d1)>>, vector<8xf32>
              store %26, %0[%c0_15, %23] : memref<1x16xvector<8xf32>>
              %27 = affine.apply affine_map<(d0) -> (d0 + 6)>(%c0_16)
              %28 = affine.apply affine_map<(d0, d1, d2) -> (d0 + d1 + d2)>(%c0, %arg4, %c0_15)
              %29 = affine.apply affine_map<(d0, d1, d2) -> (d0 + d1 + d2 * 8)>(%arg3, %arg5, %27)
              %30 = vector.transfer_read %arg1[%28, %29], %cst : memref<128x512xf32, affine_map<(d0, d1) -> (d0 * 512 + d1)>>, vector<8xf32>
              store %30, %0[%c0_15, %27] : memref<1x16xvector<8xf32>>
              %31 = affine.apply affine_map<(d0) -> (d0 + 7)>(%c0_16)
              %32 = affine.apply affine_map<(d0, d1, d2) -> (d0 + d1 + d2)>(%c0, %arg4, %c0_15)
              %33 = affine.apply affine_map<(d0, d1, d2) -> (d0 + d1 + d2 * 8)>(%arg3, %arg5, %31)
              %34 = vector.transfer_read %arg1[%32, %33], %cst : memref<128x512xf32, affine_map<(d0, d1) -> (d0 * 512 + d1)>>, vector<8xf32>
              store %34, %0[%c0_15, %31] : memref<1x16xvector<8xf32>>
              %35 = affine.apply affine_map<(d0) -> (d0 + 8)>(%c0_16)
              %36 = affine.apply affine_map<(d0, d1, d2) -> (d0 + d1 + d2)>(%c0, %arg4, %c0_15)
              %37 = affine.apply affine_map<(d0, d1, d2) -> (d0 + d1 + d2 * 8)>(%arg3, %arg5, %35)
              %38 = vector.transfer_read %arg1[%36, %37], %cst : memref<128x512xf32, affine_map<(d0, d1) -> (d0 * 512 + d1)>>, vector<8xf32>
              store %38, %0[%c0_15, %35] : memref<1x16xvector<8xf32>>
              %39 = affine.apply affine_map<(d0) -> (d0 + 9)>(%c0_16)
              %40 = affine.apply affine_map<(d0, d1, d2) -> (d0 + d1 + d2)>(%c0, %arg4, %c0_15)
              %41 = affine.apply affine_map<(d0, d1, d2) -> (d0 + d1 + d2 * 8)>(%arg3, %arg5, %39)
              %42 = vector.transfer_read %arg1[%40, %41], %cst : memref<128x512xf32, affine_map<(d0, d1) -> (d0 * 512 + d1)>>, vector<8xf32>
              store %42, %0[%c0_15, %39] : memref<1x16xvector<8xf32>>
              %43 = affine.apply affine_map<(d0) -> (d0 + 10)>(%c0_16)
              %44 = affine.apply affine_map<(d0, d1, d2) -> (d0 + d1 + d2)>(%c0, %arg4, %c0_15)
              %45 = affine.apply affine_map<(d0, d1, d2) -> (d0 + d1 + d2 * 8)>(%arg3, %arg5, %43)
              %46 = vector.transfer_read %arg1[%44, %45], %cst : memref<128x512xf32, affine_map<(d0, d1) -> (d0 * 512 + d1)>>, vector<8xf32>
              store %46, %0[%c0_15, %43] : memref<1x16xvector<8xf32>>
              %47 = affine.apply affine_map<(d0) -> (d0 + 11)>(%c0_16)
              %48 = affine.apply affine_map<(d0, d1, d2) -> (d0 + d1 + d2)>(%c0, %arg4, %c0_15)
              %49 = affine.apply affine_map<(d0, d1, d2) -> (d0 + d1 + d2 * 8)>(%arg3, %arg5, %47)
              %50 = vector.transfer_read %arg1[%48, %49], %cst : memref<128x512xf32, affine_map<(d0, d1) -> (d0 * 512 + d1)>>, vector<8xf32>
              store %50, %0[%c0_15, %47] : memref<1x16xvector<8xf32>>
              %51 = affine.apply affine_map<(d0) -> (d0 + 12)>(%c0_16)
              %52 = affine.apply affine_map<(d0, d1, d2) -> (d0 + d1 + d2)>(%c0, %arg4, %c0_15)
              %53 = affine.apply affine_map<(d0, d1, d2) -> (d0 + d1 + d2 * 8)>(%arg3, %arg5, %51)
              %54 = vector.transfer_read %arg1[%52, %53], %cst : memref<128x512xf32, affine_map<(d0, d1) -> (d0 * 512 + d1)>>, vector<8xf32>
              store %54, %0[%c0_15, %51] : memref<1x16xvector<8xf32>>
              %55 = affine.apply affine_map<(d0) -> (d0 + 13)>(%c0_16)
              %56 = affine.apply affine_map<(d0, d1, d2) -> (d0 + d1 + d2)>(%c0, %arg4, %c0_15)
              %57 = affine.apply affine_map<(d0, d1, d2) -> (d0 + d1 + d2 * 8)>(%arg3, %arg5, %55)
              %58 = vector.transfer_read %arg1[%56, %57], %cst : memref<128x512xf32, affine_map<(d0, d1) -> (d0 * 512 + d1)>>, vector<8xf32>
              store %58, %0[%c0_15, %55] : memref<1x16xvector<8xf32>>
              %59 = affine.apply affine_map<(d0) -> (d0 + 14)>(%c0_16)
              %60 = affine.apply affine_map<(d0, d1, d2) -> (d0 + d1 + d2)>(%c0, %arg4, %c0_15)
              %61 = affine.apply affine_map<(d0, d1, d2) -> (d0 + d1 + d2 * 8)>(%arg3, %arg5, %59)
              %62 = vector.transfer_read %arg1[%60, %61], %cst : memref<128x512xf32, affine_map<(d0, d1) -> (d0 * 512 + d1)>>, vector<8xf32>
              store %62, %0[%c0_15, %59] : memref<1x16xvector<8xf32>>
              %63 = affine.apply affine_map<(d0) -> (d0 + 15)>(%c0_16)
              %64 = affine.apply affine_map<(d0, d1, d2) -> (d0 + d1 + d2)>(%c0, %arg4, %c0_15)
              %65 = affine.apply affine_map<(d0, d1, d2) -> (d0 + d1 + d2 * 8)>(%arg3, %arg5, %63)
              %66 = vector.transfer_read %arg1[%64, %65], %cst : memref<128x512xf32, affine_map<(d0, d1) -> (d0 * 512 + d1)>>, vector<8xf32>
              store %66, %0[%c0_15, %63] : memref<1x16xvector<8xf32>>
              %67 = load %0[%c0_13, %c0_14] : memref<1x16xvector<8xf32>>
              affine.store %67, %3[((%arg5 + %c0_14 * 8) floordiv 16) mod 16, (%arg4 + %c0_13) mod 128, (((%arg5 + %c0_14 * 8) mod 16) floordiv 8) mod 2] : memref<16x128x2xvector<8xf32>>
              %68 = affine.apply affine_map<(d0) -> (d0 + 1)>(%c0_14)
              %69 = load %0[%c0_13, %68] : memref<1x16xvector<8xf32>>
              affine.store %69, %3[((%arg5 + %68 * 8) floordiv 16) mod 16, (%arg4 + %c0_13) mod 128, (((%arg5 + %68 * 8) mod 16) floordiv 8) mod 2] : memref<16x128x2xvector<8xf32>>
              %70 = affine.apply affine_map<(d0) -> (d0 + 2)>(%c0_14)
              %71 = load %0[%c0_13, %70] : memref<1x16xvector<8xf32>>
              affine.store %71, %3[((%arg5 + %70 * 8) floordiv 16) mod 16, (%arg4 + %c0_13) mod 128, (((%arg5 + %70 * 8) mod 16) floordiv 8) mod 2] : memref<16x128x2xvector<8xf32>>
              %72 = affine.apply affine_map<(d0) -> (d0 + 3)>(%c0_14)
              %73 = load %0[%c0_13, %72] : memref<1x16xvector<8xf32>>
              affine.store %73, %3[((%arg5 + %72 * 8) floordiv 16) mod 16, (%arg4 + %c0_13) mod 128, (((%arg5 + %72 * 8) mod 16) floordiv 8) mod 2] : memref<16x128x2xvector<8xf32>>
              %74 = affine.apply affine_map<(d0) -> (d0 + 4)>(%c0_14)
              %75 = load %0[%c0_13, %74] : memref<1x16xvector<8xf32>>
              affine.store %75, %3[((%arg5 + %74 * 8) floordiv 16) mod 16, (%arg4 + %c0_13) mod 128, (((%arg5 + %74 * 8) mod 16) floordiv 8) mod 2] : memref<16x128x2xvector<8xf32>>
              %76 = affine.apply affine_map<(d0) -> (d0 + 5)>(%c0_14)
              %77 = load %0[%c0_13, %76] : memref<1x16xvector<8xf32>>
              affine.store %77, %3[((%arg5 + %76 * 8) floordiv 16) mod 16, (%arg4 + %c0_13) mod 128, (((%arg5 + %76 * 8) mod 16) floordiv 8) mod 2] : memref<16x128x2xvector<8xf32>>
              %78 = affine.apply affine_map<(d0) -> (d0 + 6)>(%c0_14)
              %79 = load %0[%c0_13, %78] : memref<1x16xvector<8xf32>>
              affine.store %79, %3[((%arg5 + %78 * 8) floordiv 16) mod 16, (%arg4 + %c0_13) mod 128, (((%arg5 + %78 * 8) mod 16) floordiv 8) mod 2] : memref<16x128x2xvector<8xf32>>
              %80 = affine.apply affine_map<(d0) -> (d0 + 7)>(%c0_14)
              %81 = load %0[%c0_13, %80] : memref<1x16xvector<8xf32>>
              affine.store %81, %3[((%arg5 + %80 * 8) floordiv 16) mod 16, (%arg4 + %c0_13) mod 128, (((%arg5 + %80 * 8) mod 16) floordiv 8) mod 2] : memref<16x128x2xvector<8xf32>>
              %82 = affine.apply affine_map<(d0) -> (d0 + 8)>(%c0_14)
              %83 = load %0[%c0_13, %82] : memref<1x16xvector<8xf32>>
              affine.store %83, %3[((%arg5 + %82 * 8) floordiv 16) mod 16, (%arg4 + %c0_13) mod 128, (((%arg5 + %82 * 8) mod 16) floordiv 8) mod 2] : memref<16x128x2xvector<8xf32>>
              %84 = affine.apply affine_map<(d0) -> (d0 + 9)>(%c0_14)
              %85 = load %0[%c0_13, %84] : memref<1x16xvector<8xf32>>
              affine.store %85, %3[((%arg5 + %84 * 8) floordiv 16) mod 16, (%arg4 + %c0_13) mod 128, (((%arg5 + %84 * 8) mod 16) floordiv 8) mod 2] : memref<16x128x2xvector<8xf32>>
              %86 = affine.apply affine_map<(d0) -> (d0 + 10)>(%c0_14)
              %87 = load %0[%c0_13, %86] : memref<1x16xvector<8xf32>>
              affine.store %87, %3[((%arg5 + %86 * 8) floordiv 16) mod 16, (%arg4 + %c0_13) mod 128, (((%arg5 + %86 * 8) mod 16) floordiv 8) mod 2] : memref<16x128x2xvector<8xf32>>
              %88 = affine.apply affine_map<(d0) -> (d0 + 11)>(%c0_14)
              %89 = load %0[%c0_13, %88] : memref<1x16xvector<8xf32>>
              affine.store %89, %3[((%arg5 + %88 * 8) floordiv 16) mod 16, (%arg4 + %c0_13) mod 128, (((%arg5 + %88 * 8) mod 16) floordiv 8) mod 2] : memref<16x128x2xvector<8xf32>>
              %90 = affine.apply affine_map<(d0) -> (d0 + 12)>(%c0_14)
              %91 = load %0[%c0_13, %90] : memref<1x16xvector<8xf32>>
              affine.store %91, %3[((%arg5 + %90 * 8) floordiv 16) mod 16, (%arg4 + %c0_13) mod 128, (((%arg5 + %90 * 8) mod 16) floordiv 8) mod 2] : memref<16x128x2xvector<8xf32>>
              %92 = affine.apply affine_map<(d0) -> (d0 + 13)>(%c0_14)
              %93 = load %0[%c0_13, %92] : memref<1x16xvector<8xf32>>
              affine.store %93, %3[((%arg5 + %92 * 8) floordiv 16) mod 16, (%arg4 + %c0_13) mod 128, (((%arg5 + %92 * 8) mod 16) floordiv 8) mod 2] : memref<16x128x2xvector<8xf32>>
              %94 = affine.apply affine_map<(d0) -> (d0 + 14)>(%c0_14)
              %95 = load %0[%c0_13, %94] : memref<1x16xvector<8xf32>>
              affine.store %95, %3[((%arg5 + %94 * 8) floordiv 16) mod 16, (%arg4 + %c0_13) mod 128, (((%arg5 + %94 * 8) mod 16) floordiv 8) mod 2] : memref<16x128x2xvector<8xf32>>
              %96 = affine.apply affine_map<(d0) -> (d0 + 15)>(%c0_14)
              %97 = load %0[%c0_13, %96] : memref<1x16xvector<8xf32>>
              affine.store %97, %3[((%arg5 + %96 * 8) floordiv 16) mod 16, (%arg4 + %c0_13) mod 128, (((%arg5 + %96 * 8) mod 16) floordiv 8) mod 2] : memref<16x128x2xvector<8xf32>>
            }
          } {begin = 0 : i64, end = 256 : i64, index = #accln<"index{j_o,21}">, subdomainIndexOrder = [#accln<"index{i,17}">, #accln<"index{j,18}">], subdomainSize = [1, 128]}
        } {begin = 0 : i64, end = 128 : i64, index = #accln<"index{i_o,19}">, subdomainIndexOrder = [#accln<"index{i,17}">, #accln<"index{j,18}">], subdomainSize = [1, 256]}
        affine.for %arg4 = 0 to 784 {
          affine.for %arg5 = 0 to 16 {
            affine.for %arg6 = 0 to 6 {
              affine.for %arg7 = 0 to 2 {
                store %cst_21, %2[%arg5, %arg6, %arg7] : memref<16x6x2xvector<8xf32>>
              } {begin = 0 : i64, end = 2 : i64, index = #accln<"index{j_i_i_i,16}">, subdomainIndexOrder = [#accln<"index{j_i_i,14}">, #accln<"index{j_i_i_o,15}">, #accln<"index{j_i_i_i,16}">], subdomainSize = [1, 1, 1]}
            } {begin = 0 : i64, end = 6 : i64, index = #accln<"index{j_i_i_o,15}">, subdomainIndexOrder = [#accln<"index{j_i_i,14}">, #accln<"index{j_i_i_o,15}">, #accln<"index{j_i_i_i,16}">], subdomainSize = [1, 1, 2]}
          } {begin = 0 : i64, end = 16 : i64, index = #accln<"index{j_i_i,14}">, subdomainIndexOrder = [#accln<"index{j_i_i,14}">, #accln<"index{j_i_i_o,15}">, #accln<"index{j_i_i_i,16}">], subdomainSize = [1, 6, 2]}
          affine.for %arg5 = 0 to 256 step 16 {
            affine.for %arg6 = 0 to 128 step 4 {
              affine.for %arg7 = 0 to 0 step 6 {
                affine.for %arg8 = 0 to 4 {
                  affine.for %arg9 = 0 to 0 {
                    %4 = affine.apply affine_map<(d0, d1, d2) -> (d0 + d1 + d2)>(%arg4, %arg7, %arg9)
                    %5 = affine.apply affine_map<(d0, d1, d2) -> (d0 + d1 + d2)>(%arg4, %arg7, %arg9)
                    %6 = affine.apply affine_map<(d0, d1, d2) -> (d0 + d1 + d2)>(%arg4, %arg7, %arg9)
                    %7 = affine.apply affine_map<(d0, d1, d2) -> (d0 + d1 + d2)>(%arg4, %arg7, %arg9)
                    %8 = affine.apply affine_map<(d0, d1, d2) -> (d0 + d1 + d2)>(%arg4, %arg7, %arg9)
                    %9 = affine.apply affine_map<(d0, d1, d2) -> (d0 + d1 + d2)>(%arg4, %arg7, %arg9)
                    %10 = affine.apply affine_map<(d0, d1, d2) -> (d0 + d1 + d2)>(%arg4, %arg7, %arg9)
                    %11 = affine.apply affine_map<(d0, d1, d2) -> (d0 + d1 + d2)>(%arg4, %arg7, %arg9)
                    %12 = affine.apply affine_map<(d0, d1, d2, d3) -> (d0 + d1 + d2 + d3)>(%arg3, %arg5, %c0_11, %c0_12)
                    %13 = affine.apply affine_map<(d0, d1, d2) -> (d0 + d1 + d2)>(%c0, %arg6, %arg8)
                    %14 = affine.apply affine_map<(d0, d1, d2) -> (d0 + d1 + d2)>(%c0, %arg6, %arg8)
                    %15 = affine.apply affine_map<(d0, d1, d2) -> (d0 + d1 + d2)>(%c0, %arg6, %arg8)
                    %16 = affine.apply affine_map<(d0, d1, d2) -> (d0 + d1 + d2)>(%c0, %arg6, %arg8)
                    %17 = affine.apply affine_map<(d0, d1, d2) -> (d0 + d1 + d2)>(%c0, %arg6, %arg8)
                    %18 = affine.apply affine_map<(d0, d1, d2) -> (d0 + d1 + d2)>(%c0, %arg6, %arg8)
                    %19 = affine.apply affine_map<(d0, d1, d2) -> (d0 + d1 + d2)>(%c0, %arg6, %arg8)
                    %20 = affine.apply affine_map<(d0, d1, d2) -> (d0 + d1 + d2)>(%c0, %arg6, %arg8)
                    %21 = load %arg0[%4, %13] : memref<784x128xf32, affine_map<(d0, d1) -> (d0 * 128 + d1)>>
                    %22 = load %arg0[%5, %14] : memref<784x128xf32, affine_map<(d0, d1) -> (d0 * 128 + d1)>>
                    %23 = load %arg0[%6, %15] : memref<784x128xf32, affine_map<(d0, d1) -> (d0 * 128 + d1)>>
                    %24 = load %arg0[%7, %16] : memref<784x128xf32, affine_map<(d0, d1) -> (d0 * 128 + d1)>>
                    %25 = load %arg0[%8, %17] : memref<784x128xf32, affine_map<(d0, d1) -> (d0 * 128 + d1)>>
                    %26 = load %arg0[%9, %18] : memref<784x128xf32, affine_map<(d0, d1) -> (d0 * 128 + d1)>>
                    %27 = load %arg0[%10, %19] : memref<784x128xf32, affine_map<(d0, d1) -> (d0 * 128 + d1)>>
                    %28 = load %arg0[%11, %20] : memref<784x128xf32, affine_map<(d0, d1) -> (d0 * 128 + d1)>>
                    %29 = affine.load %3[((%12 - %arg3) floordiv 16) mod 16, (%13 - %c0) mod 128, (((%12 - %arg3) mod 16) floordiv 8) mod 2] : memref<16x128x2xvector<8xf32>>
                    %30 = vector.extractelement %29[%c0_i64 : i64] : vector<8xf32>
                    %31 = affine.apply affine_map<(d0, d1, d2, d3) -> (d0 + d1 + d2 + d3)>(%arg3, %arg5, %c0_11, %c0_12)
                    %32 = affine.load %3[((%31 - %arg3) floordiv 16) mod 16, (%14 - %c0) mod 128, (((%31 - %arg3) mod 16) floordiv 8) mod 2] : memref<16x128x2xvector<8xf32>>
                    %33 = vector.extractelement %32[%c1_i64 : i64] : vector<8xf32>
                    %34 = affine.apply affine_map<(d0, d1, d2, d3) -> (d0 + d1 + d2 + d3)>(%arg3, %arg5, %c0_11, %c0_12)
                    %35 = affine.load %3[((%34 - %arg3) floordiv 16) mod 16, (%15 - %c0) mod 128, (((%34 - %arg3) mod 16) floordiv 8) mod 2] : memref<16x128x2xvector<8xf32>>
                    %36 = vector.extractelement %35[%c2_i64 : i64] : vector<8xf32>
                    %37 = affine.apply affine_map<(d0, d1, d2, d3) -> (d0 + d1 + d2 + d3)>(%arg3, %arg5, %c0_11, %c0_12)
                    %38 = affine.load %3[((%37 - %arg3) floordiv 16) mod 16, (%16 - %c0) mod 128, (((%37 - %arg3) mod 16) floordiv 8) mod 2] : memref<16x128x2xvector<8xf32>>
                    %39 = vector.extractelement %38[%c3_i64 : i64] : vector<8xf32>
                    %40 = affine.apply affine_map<(d0, d1, d2, d3) -> (d0 + d1 + d2 + d3)>(%arg3, %arg5, %c0_11, %c0_12)
                    %41 = affine.load %3[((%40 - %arg3) floordiv 16) mod 16, (%17 - %c0) mod 128, (((%40 - %arg3) mod 16) floordiv 8) mod 2] : memref<16x128x2xvector<8xf32>>
                    %42 = vector.extractelement %41[%c4_i64 : i64] : vector<8xf32>
                    %43 = affine.apply affine_map<(d0, d1, d2, d3) -> (d0 + d1 + d2 + d3)>(%arg3, %arg5, %c0_11, %c0_12)
                    %44 = affine.load %3[((%43 - %arg3) floordiv 16) mod 16, (%18 - %c0) mod 128, (((%43 - %arg3) mod 16) floordiv 8) mod 2] : memref<16x128x2xvector<8xf32>>
                    %45 = vector.extractelement %44[%c5_i64 : i64] : vector<8xf32>
                    %46 = affine.apply affine_map<(d0, d1, d2, d3) -> (d0 + d1 + d2 + d3)>(%arg3, %arg5, %c0_11, %c0_12)
                    %47 = affine.load %3[((%46 - %arg3) floordiv 16) mod 16, (%19 - %c0) mod 128, (((%46 - %arg3) mod 16) floordiv 8) mod 2] : memref<16x128x2xvector<8xf32>>
                    %48 = vector.extractelement %47[%c6_i64 : i64] : vector<8xf32>
                    %49 = affine.apply affine_map<(d0, d1, d2, d3) -> (d0 + d1 + d2 + d3)>(%arg3, %arg5, %c0_11, %c0_12)
                    %50 = affine.load %3[((%49 - %arg3) floordiv 16) mod 16, (%20 - %c0) mod 128, (((%49 - %arg3) mod 16) floordiv 8) mod 2] : memref<16x128x2xvector<8xf32>>
                    %51 = vector.extractelement %50[%c7_i64 : i64] : vector<8xf32>
                    %52 = "accv.bin_op"(%21, %30) {predicate = 2 : i64} : (f32, f32) -> f32
                    %53 = "accv.bin_op"(%22, %33) {predicate = 2 : i64} : (f32, f32) -> f32
                    %54 = "accv.bin_op"(%23, %36) {predicate = 2 : i64} : (f32, f32) -> f32
                    %55 = "accv.bin_op"(%24, %39) {predicate = 2 : i64} : (f32, f32) -> f32
                    %56 = "accv.bin_op"(%25, %42) {predicate = 2 : i64} : (f32, f32) -> f32
                    %57 = "accv.bin_op"(%26, %45) {predicate = 2 : i64} : (f32, f32) -> f32
                    %58 = "accv.bin_op"(%27, %48) {predicate = 2 : i64} : (f32, f32) -> f32
                    %59 = "accv.bin_op"(%28, %51) {predicate = 2 : i64} : (f32, f32) -> f32
                    %60 = affine.load %2[((%12 - %arg3) floordiv 16) mod 16, (%4 - %arg4) mod 6, (((%12 - %arg3) mod 16) floordiv 8) mod 2] : memref<16x6x2xvector<8xf32>>
                    %61 = vector.extractelement %60[%c0_i64 : i64] : vector<8xf32>
                    %62 = affine.apply affine_map<(d0, d1, d2, d3) -> (d0 + d1 + d2 + d3)>(%arg3, %arg5, %c0_11, %c0_12)
                    %63 = affine.load %2[((%62 - %arg3) floordiv 16) mod 16, (%5 - %arg4) mod 6, (((%62 - %arg3) mod 16) floordiv 8) mod 2] : memref<16x6x2xvector<8xf32>>
                    %64 = vector.extractelement %63[%c1_i64 : i64] : vector<8xf32>
                    %65 = affine.apply affine_map<(d0, d1, d2, d3) -> (d0 + d1 + d2 + d3)>(%arg3, %arg5, %c0_11, %c0_12)
                    %66 = affine.load %2[((%65 - %arg3) floordiv 16) mod 16, (%6 - %arg4) mod 6, (((%65 - %arg3) mod 16) floordiv 8) mod 2] : memref<16x6x2xvector<8xf32>>
                    %67 = vector.extractelement %66[%c2_i64 : i64] : vector<8xf32>
                    %68 = affine.apply affine_map<(d0, d1, d2, d3) -> (d0 + d1 + d2 + d3)>(%arg3, %arg5, %c0_11, %c0_12)
                    %69 = affine.load %2[((%68 - %arg3) floordiv 16) mod 16, (%7 - %arg4) mod 6, (((%68 - %arg3) mod 16) floordiv 8) mod 2] : memref<16x6x2xvector<8xf32>>
                    %70 = vector.extractelement %69[%c3_i64 : i64] : vector<8xf32>
                    %71 = affine.apply affine_map<(d0, d1, d2, d3) -> (d0 + d1 + d2 + d3)>(%arg3, %arg5, %c0_11, %c0_12)
                    %72 = affine.load %2[((%71 - %arg3) floordiv 16) mod 16, (%8 - %arg4) mod 6, (((%71 - %arg3) mod 16) floordiv 8) mod 2] : memref<16x6x2xvector<8xf32>>
                    %73 = vector.extractelement %72[%c4_i64 : i64] : vector<8xf32>
                    %74 = affine.apply affine_map<(d0, d1, d2, d3) -> (d0 + d1 + d2 + d3)>(%arg3, %arg5, %c0_11, %c0_12)
                    %75 = affine.load %2[((%74 - %arg3) floordiv 16) mod 16, (%9 - %arg4) mod 6, (((%74 - %arg3) mod 16) floordiv 8) mod 2] : memref<16x6x2xvector<8xf32>>
                    %76 = vector.extractelement %75[%c5_i64 : i64] : vector<8xf32>
                    %77 = affine.apply affine_map<(d0, d1, d2, d3) -> (d0 + d1 + d2 + d3)>(%arg3, %arg5, %c0_11, %c0_12)
                    %78 = affine.load %2[((%77 - %arg3) floordiv 16) mod 16, (%10 - %arg4) mod 6, (((%77 - %arg3) mod 16) floordiv 8) mod 2] : memref<16x6x2xvector<8xf32>>
                    %79 = vector.extractelement %78[%c6_i64 : i64] : vector<8xf32>
                    %80 = affine.apply affine_map<(d0, d1, d2, d3) -> (d0 + d1 + d2 + d3)>(%arg3, %arg5, %c0_11, %c0_12)
                    %81 = affine.load %2[((%80 - %arg3) floordiv 16) mod 16, (%11 - %arg4) mod 6, (((%80 - %arg3) mod 16) floordiv 8) mod 2] : memref<16x6x2xvector<8xf32>>
                    %82 = vector.extractelement %81[%c7_i64 : i64] : vector<8xf32>
                    %83 = "accv.bin_op"(%61, %52) {predicate = 0 : i64} : (f32, f32) -> f32
                    %84 = "accv.bin_op"(%64, %53) {predicate = 0 : i64} : (f32, f32) -> f32
                    %85 = "accv.bin_op"(%67, %54) {predicate = 0 : i64} : (f32, f32) -> f32
                    %86 = "accv.bin_op"(%70, %55) {predicate = 0 : i64} : (f32, f32) -> f32
                    %87 = "accv.bin_op"(%73, %56) {predicate = 0 : i64} : (f32, f32) -> f32
                    %88 = "accv.bin_op"(%76, %57) {predicate = 0 : i64} : (f32, f32) -> f32
                    %89 = "accv.bin_op"(%79, %58) {predicate = 0 : i64} : (f32, f32) -> f32
                    %90 = "accv.bin_op"(%82, %59) {predicate = 0 : i64} : (f32, f32) -> f32
                    %91 = affine.load %2[((%12 - %arg3) floordiv 16) mod 16, (%4 - %arg4) mod 6, (((%12 - %arg3) mod 16) floordiv 8) mod 2] : memref<16x6x2xvector<8xf32>>
                    %92 = vector.insertelement %83, %91[%c0_i64 : i64] : vector<8xf32>
                    affine.store %92, %2[((%12 - %arg3) floordiv 16) mod 16, (%4 - %arg4) mod 6, (((%12 - %arg3) mod 16) floordiv 8) mod 2] : memref<16x6x2xvector<8xf32>>
                    %93 = affine.apply affine_map<(d0, d1, d2, d3) -> (d0 + d1 + d2 + d3)>(%arg3, %arg5, %c0_11, %c0_12)
                    %94 = affine.load %2[((%93 - %arg3) floordiv 16) mod 16, (%5 - %arg4) mod 6, (((%93 - %arg3) mod 16) floordiv 8) mod 2] : memref<16x6x2xvector<8xf32>>
                    %95 = vector.insertelement %84, %94[%c1_i64 : i64] : vector<8xf32>
                    affine.store %95, %2[((%93 - %arg3) floordiv 16) mod 16, (%5 - %arg4) mod 6, (((%93 - %arg3) mod 16) floordiv 8) mod 2] : memref<16x6x2xvector<8xf32>>
                    %96 = affine.apply affine_map<(d0, d1, d2, d3) -> (d0 + d1 + d2 + d3)>(%arg3, %arg5, %c0_11, %c0_12)
                    %97 = affine.load %2[((%96 - %arg3) floordiv 16) mod 16, (%6 - %arg4) mod 6, (((%96 - %arg3) mod 16) floordiv 8) mod 2] : memref<16x6x2xvector<8xf32>>
                    %98 = vector.insertelement %85, %97[%c2_i64 : i64] : vector<8xf32>
                    affine.store %98, %2[((%96 - %arg3) floordiv 16) mod 16, (%6 - %arg4) mod 6, (((%96 - %arg3) mod 16) floordiv 8) mod 2] : memref<16x6x2xvector<8xf32>>
                    %99 = affine.apply affine_map<(d0, d1, d2, d3) -> (d0 + d1 + d2 + d3)>(%arg3, %arg5, %c0_11, %c0_12)
                    %100 = affine.load %2[((%99 - %arg3) floordiv 16) mod 16, (%7 - %arg4) mod 6, (((%99 - %arg3) mod 16) floordiv 8) mod 2] : memref<16x6x2xvector<8xf32>>
                    %101 = vector.insertelement %86, %100[%c3_i64 : i64] : vector<8xf32>
                    affine.store %101, %2[((%99 - %arg3) floordiv 16) mod 16, (%7 - %arg4) mod 6, (((%99 - %arg3) mod 16) floordiv 8) mod 2] : memref<16x6x2xvector<8xf32>>
                    %102 = affine.apply affine_map<(d0, d1, d2, d3) -> (d0 + d1 + d2 + d3)>(%arg3, %arg5, %c0_11, %c0_12)
                    %103 = affine.load %2[((%102 - %arg3) floordiv 16) mod 16, (%8 - %arg4) mod 6, (((%102 - %arg3) mod 16) floordiv 8) mod 2] : memref<16x6x2xvector<8xf32>>
                    %104 = vector.insertelement %87, %103[%c4_i64 : i64] : vector<8xf32>
                    affine.store %104, %2[((%102 - %arg3) floordiv 16) mod 16, (%8 - %arg4) mod 6, (((%102 - %arg3) mod 16) floordiv 8) mod 2] : memref<16x6x2xvector<8xf32>>
                    %105 = affine.apply affine_map<(d0, d1, d2, d3) -> (d0 + d1 + d2 + d3)>(%arg3, %arg5, %c0_11, %c0_12)
                    %106 = affine.load %2[((%105 - %arg3) floordiv 16) mod 16, (%9 - %arg4) mod 6, (((%105 - %arg3) mod 16) floordiv 8) mod 2] : memref<16x6x2xvector<8xf32>>
                    %107 = vector.insertelement %88, %106[%c5_i64 : i64] : vector<8xf32>
                    affine.store %107, %2[((%105 - %arg3) floordiv 16) mod 16, (%9 - %arg4) mod 6, (((%105 - %arg3) mod 16) floordiv 8) mod 2] : memref<16x6x2xvector<8xf32>>
                    %108 = affine.apply affine_map<(d0, d1, d2, d3) -> (d0 + d1 + d2 + d3)>(%arg3, %arg5, %c0_11, %c0_12)
                    %109 = affine.load %2[((%108 - %arg3) floordiv 16) mod 16, (%10 - %arg4) mod 6, (((%108 - %arg3) mod 16) floordiv 8) mod 2] : memref<16x6x2xvector<8xf32>>
                    %110 = vector.insertelement %89, %109[%c6_i64 : i64] : vector<8xf32>
                    affine.store %110, %2[((%108 - %arg3) floordiv 16) mod 16, (%10 - %arg4) mod 6, (((%108 - %arg3) mod 16) floordiv 8) mod 2] : memref<16x6x2xvector<8xf32>>
                    %111 = affine.apply affine_map<(d0, d1, d2, d3) -> (d0 + d1 + d2 + d3)>(%arg3, %arg5, %c0_11, %c0_12)
                    %112 = affine.load %2[((%111 - %arg3) floordiv 16) mod 16, (%11 - %arg4) mod 6, (((%111 - %arg3) mod 16) floordiv 8) mod 2] : memref<16x6x2xvector<8xf32>>
                    %113 = vector.insertelement %90, %112[%c7_i64 : i64] : vector<8xf32>
                    affine.store %113, %2[((%111 - %arg3) floordiv 16) mod 16, (%11 - %arg4) mod 6, (((%111 - %arg3) mod 16) floordiv 8) mod 2] : memref<16x6x2xvector<8xf32>>
                    %114 = affine.load %2[((%12 - %arg3) floordiv 16) mod 16, (%4 - %arg4) mod 6, (((%12 - %arg3) mod 16) floordiv 8) mod 2] : memref<16x6x2xvector<8xf32>>
                    %115 = vector.insertelement %83, %114[%c0_i64 : i64] : vector<8xf32>
                    affine.store %115, %2[((%12 - %arg3) floordiv 16) mod 16, (%4 - %arg4) mod 6, (((%12 - %arg3) mod 16) floordiv 8) mod 2] : memref<16x6x2xvector<8xf32>>
                    %116 = affine.apply affine_map<(d0, d1, d2, d3) -> (d0 + d1 + d2 + d3)>(%arg3, %arg5, %c0_11, %c0_12)
                    %117 = affine.load %2[((%116 - %arg3) floordiv 16) mod 16, (%5 - %arg4) mod 6, (((%116 - %arg3) mod 16) floordiv 8) mod 2] : memref<16x6x2xvector<8xf32>>
                    %118 = vector.insertelement %84, %117[%c1_i64 : i64] : vector<8xf32>
                    affine.store %118, %2[((%116 - %arg3) floordiv 16) mod 16, (%5 - %arg4) mod 6, (((%116 - %arg3) mod 16) floordiv 8) mod 2] : memref<16x6x2xvector<8xf32>>
                    %119 = affine.apply affine_map<(d0, d1, d2, d3) -> (d0 + d1 + d2 + d3)>(%arg3, %arg5, %c0_11, %c0_12)
                    %120 = affine.load %2[((%119 - %arg3) floordiv 16) mod 16, (%6 - %arg4) mod 6, (((%119 - %arg3) mod 16) floordiv 8) mod 2] : memref<16x6x2xvector<8xf32>>
                    %121 = vector.insertelement %85, %120[%c2_i64 : i64] : vector<8xf32>
                    affine.store %121, %2[((%119 - %arg3) floordiv 16) mod 16, (%6 - %arg4) mod 6, (((%119 - %arg3) mod 16) floordiv 8) mod 2] : memref<16x6x2xvector<8xf32>>
                    %122 = affine.apply affine_map<(d0, d1, d2, d3) -> (d0 + d1 + d2 + d3)>(%arg3, %arg5, %c0_11, %c0_12)
                    %123 = affine.load %2[((%122 - %arg3) floordiv 16) mod 16, (%7 - %arg4) mod 6, (((%122 - %arg3) mod 16) floordiv 8) mod 2] : memref<16x6x2xvector<8xf32>>
                    %124 = vector.insertelement %86, %123[%c3_i64 : i64] : vector<8xf32>
                    affine.store %124, %2[((%122 - %arg3) floordiv 16) mod 16, (%7 - %arg4) mod 6, (((%122 - %arg3) mod 16) floordiv 8) mod 2] : memref<16x6x2xvector<8xf32>>
                    %125 = affine.apply affine_map<(d0, d1, d2, d3) -> (d0 + d1 + d2 + d3)>(%arg3, %arg5, %c0_11, %c0_12)
                    %126 = affine.load %2[((%125 - %arg3) floordiv 16) mod 16, (%8 - %arg4) mod 6, (((%125 - %arg3) mod 16) floordiv 8) mod 2] : memref<16x6x2xvector<8xf32>>
                    %127 = vector.insertelement %87, %126[%c4_i64 : i64] : vector<8xf32>
                    affine.store %127, %2[((%125 - %arg3) floordiv 16) mod 16, (%8 - %arg4) mod 6, (((%125 - %arg3) mod 16) floordiv 8) mod 2] : memref<16x6x2xvector<8xf32>>
                    %128 = affine.apply affine_map<(d0, d1, d2, d3) -> (d0 + d1 + d2 + d3)>(%arg3, %arg5, %c0_11, %c0_12)
                    %129 = affine.load %2[((%128 - %arg3) floordiv 16) mod 16, (%9 - %arg4) mod 6, (((%128 - %arg3) mod 16) floordiv 8) mod 2] : memref<16x6x2xvector<8xf32>>
                    %130 = vector.insertelement %88, %129[%c5_i64 : i64] : vector<8xf32>
                    affine.store %130, %2[((%128 - %arg3) floordiv 16) mod 16, (%9 - %arg4) mod 6, (((%128 - %arg3) mod 16) floordiv 8) mod 2] : memref<16x6x2xvector<8xf32>>
                    %131 = affine.apply affine_map<(d0, d1, d2, d3) -> (d0 + d1 + d2 + d3)>(%arg3, %arg5, %c0_11, %c0_12)
                    %132 = affine.load %2[((%131 - %arg3) floordiv 16) mod 16, (%10 - %arg4) mod 6, (((%131 - %arg3) mod 16) floordiv 8) mod 2] : memref<16x6x2xvector<8xf32>>
                    %133 = vector.insertelement %89, %132[%c6_i64 : i64] : vector<8xf32>
                    affine.store %133, %2[((%131 - %arg3) floordiv 16) mod 16, (%10 - %arg4) mod 6, (((%131 - %arg3) mod 16) floordiv 8) mod 2] : memref<16x6x2xvector<8xf32>>
                    %134 = affine.apply affine_map<(d0, d1, d2, d3) -> (d0 + d1 + d2 + d3)>(%arg3, %arg5, %c0_11, %c0_12)
                    %135 = affine.load %2[((%134 - %arg3) floordiv 16) mod 16, (%11 - %arg4) mod 6, (((%134 - %arg3) mod 16) floordiv 8) mod 2] : memref<16x6x2xvector<8xf32>>
                    %136 = vector.insertelement %90, %135[%c7_i64 : i64] : vector<8xf32>
                    affine.store %136, %2[((%134 - %arg3) floordiv 16) mod 16, (%11 - %arg4) mod 6, (((%134 - %arg3) mod 16) floordiv 8) mod 2] : memref<16x6x2xvector<8xf32>>
                    %137 = affine.apply affine_map<(d0) -> (d0 + 8)>(%c0_11)
                    %138 = affine.apply affine_map<(d0, d1, d2) -> (d0 + d1 + d2)>(%arg4, %arg7, %arg9)
                    %139 = affine.apply affine_map<(d0, d1, d2) -> (d0 + d1 + d2)>(%arg4, %arg7, %arg9)
                    %140 = affine.apply affine_map<(d0, d1, d2) -> (d0 + d1 + d2)>(%arg4, %arg7, %arg9)
                    %141 = affine.apply affine_map<(d0, d1, d2) -> (d0 + d1 + d2)>(%arg4, %arg7, %arg9)
                    %142 = affine.apply affine_map<(d0, d1, d2) -> (d0 + d1 + d2)>(%arg4, %arg7, %arg9)
                    %143 = affine.apply affine_map<(d0, d1, d2) -> (d0 + d1 + d2)>(%arg4, %arg7, %arg9)
                    %144 = affine.apply affine_map<(d0, d1, d2) -> (d0 + d1 + d2)>(%arg4, %arg7, %arg9)
                    %145 = affine.apply affine_map<(d0, d1, d2) -> (d0 + d1 + d2)>(%arg4, %arg7, %arg9)
                    %146 = affine.apply affine_map<(d0, d1, d2, d3) -> (d0 + d1 + d2 + d3)>(%arg3, %arg5, %137, %c0_12)
                    %147 = affine.apply affine_map<(d0, d1, d2) -> (d0 + d1 + d2)>(%c0, %arg6, %arg8)
                    %148 = affine.apply affine_map<(d0, d1, d2) -> (d0 + d1 + d2)>(%c0, %arg6, %arg8)
                    %149 = affine.apply affine_map<(d0, d1, d2) -> (d0 + d1 + d2)>(%c0, %arg6, %arg8)
                    %150 = affine.apply affine_map<(d0, d1, d2) -> (d0 + d1 + d2)>(%c0, %arg6, %arg8)
                    %151 = affine.apply affine_map<(d0, d1, d2) -> (d0 + d1 + d2)>(%c0, %arg6, %arg8)
                    %152 = affine.apply affine_map<(d0, d1, d2) -> (d0 + d1 + d2)>(%c0, %arg6, %arg8)
                    %153 = affine.apply affine_map<(d0, d1, d2) -> (d0 + d1 + d2)>(%c0, %arg6, %arg8)
                    %154 = affine.apply affine_map<(d0, d1, d2) -> (d0 + d1 + d2)>(%c0, %arg6, %arg8)
                    %155 = load %arg0[%138, %147] : memref<784x128xf32, affine_map<(d0, d1) -> (d0 * 128 + d1)>>
                    %156 = load %arg0[%139, %148] : memref<784x128xf32, affine_map<(d0, d1) -> (d0 * 128 + d1)>>
                    %157 = load %arg0[%140, %149] : memref<784x128xf32, affine_map<(d0, d1) -> (d0 * 128 + d1)>>
                    %158 = load %arg0[%141, %150] : memref<784x128xf32, affine_map<(d0, d1) -> (d0 * 128 + d1)>>
                    %159 = load %arg0[%142, %151] : memref<784x128xf32, affine_map<(d0, d1) -> (d0 * 128 + d1)>>
                    %160 = load %arg0[%143, %152] : memref<784x128xf32, affine_map<(d0, d1) -> (d0 * 128 + d1)>>
                    %161 = load %arg0[%144, %153] : memref<784x128xf32, affine_map<(d0, d1) -> (d0 * 128 + d1)>>
                    %162 = load %arg0[%145, %154] : memref<784x128xf32, affine_map<(d0, d1) -> (d0 * 128 + d1)>>
                    %163 = affine.load %3[((%146 - %arg3) floordiv 16) mod 16, (%147 - %c0) mod 128, (((%146 - %arg3) mod 16) floordiv 8) mod 2] : memref<16x128x2xvector<8xf32>>
                    %164 = vector.extractelement %163[%c0_i64 : i64] : vector<8xf32>
                    %165 = affine.apply affine_map<(d0, d1, d2, d3) -> (d0 + d1 + d2 + d3)>(%arg3, %arg5, %137, %c0_12)
                    %166 = affine.load %3[((%165 - %arg3) floordiv 16) mod 16, (%148 - %c0) mod 128, (((%165 - %arg3) mod 16) floordiv 8) mod 2] : memref<16x128x2xvector<8xf32>>
                    %167 = vector.extractelement %166[%c1_i64 : i64] : vector<8xf32>
                    %168 = affine.apply affine_map<(d0, d1, d2, d3) -> (d0 + d1 + d2 + d3)>(%arg3, %arg5, %137, %c0_12)
                    %169 = affine.load %3[((%168 - %arg3) floordiv 16) mod 16, (%149 - %c0) mod 128, (((%168 - %arg3) mod 16) floordiv 8) mod 2] : memref<16x128x2xvector<8xf32>>
                    %170 = vector.extractelement %169[%c2_i64 : i64] : vector<8xf32>
                    %171 = affine.apply affine_map<(d0, d1, d2, d3) -> (d0 + d1 + d2 + d3)>(%arg3, %arg5, %137, %c0_12)
                    %172 = affine.load %3[((%171 - %arg3) floordiv 16) mod 16, (%150 - %c0) mod 128, (((%171 - %arg3) mod 16) floordiv 8) mod 2] : memref<16x128x2xvector<8xf32>>
                    %173 = vector.extractelement %172[%c3_i64 : i64] : vector<8xf32>
                    %174 = affine.apply affine_map<(d0, d1, d2, d3) -> (d0 + d1 + d2 + d3)>(%arg3, %arg5, %137, %c0_12)
                    %175 = affine.load %3[((%174 - %arg3) floordiv 16) mod 16, (%151 - %c0) mod 128, (((%174 - %arg3) mod 16) floordiv 8) mod 2] : memref<16x128x2xvector<8xf32>>
                    %176 = vector.extractelement %175[%c4_i64 : i64] : vector<8xf32>
                    %177 = affine.apply affine_map<(d0, d1, d2, d3) -> (d0 + d1 + d2 + d3)>(%arg3, %arg5, %137, %c0_12)
                    %178 = affine.load %3[((%177 - %arg3) floordiv 16) mod 16, (%152 - %c0) mod 128, (((%177 - %arg3) mod 16) floordiv 8) mod 2] : memref<16x128x2xvector<8xf32>>
                    %179 = vector.extractelement %178[%c5_i64 : i64] : vector<8xf32>
                    %180 = affine.apply affine_map<(d0, d1, d2, d3) -> (d0 + d1 + d2 + d3)>(%arg3, %arg5, %137, %c0_12)
                    %181 = affine.load %3[((%180 - %arg3) floordiv 16) mod 16, (%153 - %c0) mod 128, (((%180 - %arg3) mod 16) floordiv 8) mod 2] : memref<16x128x2xvector<8xf32>>
                    %182 = vector.extractelement %181[%c6_i64 : i64] : vector<8xf32>
                    %183 = affine.apply affine_map<(d0, d1, d2, d3) -> (d0 + d1 + d2 + d3)>(%arg3, %arg5, %137, %c0_12)
                    %184 = affine.load %3[((%183 - %arg3) floordiv 16) mod 16, (%154 - %c0) mod 128, (((%183 - %arg3) mod 16) floordiv 8) mod 2] : memref<16x128x2xvector<8xf32>>
                    %185 = vector.extractelement %184[%c7_i64 : i64] : vector<8xf32>
                    %186 = "accv.bin_op"(%155, %164) {predicate = 2 : i64} : (f32, f32) -> f32
                    %187 = "accv.bin_op"(%156, %167) {predicate = 2 : i64} : (f32, f32) -> f32
                    %188 = "accv.bin_op"(%157, %170) {predicate = 2 : i64} : (f32, f32) -> f32
                    %189 = "accv.bin_op"(%158, %173) {predicate = 2 : i64} : (f32, f32) -> f32
                    %190 = "accv.bin_op"(%159, %176) {predicate = 2 : i64} : (f32, f32) -> f32
                    %191 = "accv.bin_op"(%160, %179) {predicate = 2 : i64} : (f32, f32) -> f32
                    %192 = "accv.bin_op"(%161, %182) {predicate = 2 : i64} : (f32, f32) -> f32
                    %193 = "accv.bin_op"(%162, %185) {predicate = 2 : i64} : (f32, f32) -> f32
                    %194 = affine.load %2[((%146 - %arg3) floordiv 16) mod 16, (%138 - %arg4) mod 6, (((%146 - %arg3) mod 16) floordiv 8) mod 2] : memref<16x6x2xvector<8xf32>>
                    %195 = vector.extractelement %194[%c0_i64 : i64] : vector<8xf32>
                    %196 = affine.apply affine_map<(d0, d1, d2, d3) -> (d0 + d1 + d2 + d3)>(%arg3, %arg5, %137, %c0_12)
                    %197 = affine.load %2[((%196 - %arg3) floordiv 16) mod 16, (%139 - %arg4) mod 6, (((%196 - %arg3) mod 16) floordiv 8) mod 2] : memref<16x6x2xvector<8xf32>>
                    %198 = vector.extractelement %197[%c1_i64 : i64] : vector<8xf32>
                    %199 = affine.apply affine_map<(d0, d1, d2, d3) -> (d0 + d1 + d2 + d3)>(%arg3, %arg5, %137, %c0_12)
                    %200 = affine.load %2[((%199 - %arg3) floordiv 16) mod 16, (%140 - %arg4) mod 6, (((%199 - %arg3) mod 16) floordiv 8) mod 2] : memref<16x6x2xvector<8xf32>>
                    %201 = vector.extractelement %200[%c2_i64 : i64] : vector<8xf32>
                    %202 = affine.apply affine_map<(d0, d1, d2, d3) -> (d0 + d1 + d2 + d3)>(%arg3, %arg5, %137, %c0_12)
                    %203 = affine.load %2[((%202 - %arg3) floordiv 16) mod 16, (%141 - %arg4) mod 6, (((%202 - %arg3) mod 16) floordiv 8) mod 2] : memref<16x6x2xvector<8xf32>>
                    %204 = vector.extractelement %203[%c3_i64 : i64] : vector<8xf32>
                    %205 = affine.apply affine_map<(d0, d1, d2, d3) -> (d0 + d1 + d2 + d3)>(%arg3, %arg5, %137, %c0_12)
                    %206 = affine.load %2[((%205 - %arg3) floordiv 16) mod 16, (%142 - %arg4) mod 6, (((%205 - %arg3) mod 16) floordiv 8) mod 2] : memref<16x6x2xvector<8xf32>>
                    %207 = vector.extractelement %206[%c4_i64 : i64] : vector<8xf32>
                    %208 = affine.apply affine_map<(d0, d1, d2, d3) -> (d0 + d1 + d2 + d3)>(%arg3, %arg5, %137, %c0_12)
                    %209 = affine.load %2[((%208 - %arg3) floordiv 16) mod 16, (%143 - %arg4) mod 6, (((%208 - %arg3) mod 16) floordiv 8) mod 2] : memref<16x6x2xvector<8xf32>>
                    %210 = vector.extractelement %209[%c5_i64 : i64] : vector<8xf32>
                    %211 = affine.apply affine_map<(d0, d1, d2, d3) -> (d0 + d1 + d2 + d3)>(%arg3, %arg5, %137, %c0_12)
                    %212 = affine.load %2[((%211 - %arg3) floordiv 16) mod 16, (%144 - %arg4) mod 6, (((%211 - %arg3) mod 16) floordiv 8) mod 2] : memref<16x6x2xvector<8xf32>>
                    %213 = vector.extractelement %212[%c6_i64 : i64] : vector<8xf32>
                    %214 = affine.apply affine_map<(d0, d1, d2, d3) -> (d0 + d1 + d2 + d3)>(%arg3, %arg5, %137, %c0_12)
                    %215 = affine.load %2[((%214 - %arg3) floordiv 16) mod 16, (%145 - %arg4) mod 6, (((%214 - %arg3) mod 16) floordiv 8) mod 2] : memref<16x6x2xvector<8xf32>>
                    %216 = vector.extractelement %215[%c7_i64 : i64] : vector<8xf32>
                    %217 = "accv.bin_op"(%195, %186) {predicate = 0 : i64} : (f32, f32) -> f32
                    %218 = "accv.bin_op"(%198, %187) {predicate = 0 : i64} : (f32, f32) -> f32
                    %219 = "accv.bin_op"(%201, %188) {predicate = 0 : i64} : (f32, f32) -> f32
                    %220 = "accv.bin_op"(%204, %189) {predicate = 0 : i64} : (f32, f32) -> f32
                    %221 = "accv.bin_op"(%207, %190) {predicate = 0 : i64} : (f32, f32) -> f32
                    %222 = "accv.bin_op"(%210, %191) {predicate = 0 : i64} : (f32, f32) -> f32
                    %223 = "accv.bin_op"(%213, %192) {predicate = 0 : i64} : (f32, f32) -> f32
                    %224 = "accv.bin_op"(%216, %193) {predicate = 0 : i64} : (f32, f32) -> f32
                    %225 = affine.load %2[((%146 - %arg3) floordiv 16) mod 16, (%138 - %arg4) mod 6, (((%146 - %arg3) mod 16) floordiv 8) mod 2] : memref<16x6x2xvector<8xf32>>
                    %226 = vector.insertelement %217, %225[%c0_i64 : i64] : vector<8xf32>
                    affine.store %226, %2[((%146 - %arg3) floordiv 16) mod 16, (%138 - %arg4) mod 6, (((%146 - %arg3) mod 16) floordiv 8) mod 2] : memref<16x6x2xvector<8xf32>>
                    %227 = affine.apply affine_map<(d0, d1, d2, d3) -> (d0 + d1 + d2 + d3)>(%arg3, %arg5, %137, %c0_12)
                    %228 = affine.load %2[((%227 - %arg3) floordiv 16) mod 16, (%139 - %arg4) mod 6, (((%227 - %arg3) mod 16) floordiv 8) mod 2] : memref<16x6x2xvector<8xf32>>
                    %229 = vector.insertelement %218, %228[%c1_i64 : i64] : vector<8xf32>
                    affine.store %229, %2[((%227 - %arg3) floordiv 16) mod 16, (%139 - %arg4) mod 6, (((%227 - %arg3) mod 16) floordiv 8) mod 2] : memref<16x6x2xvector<8xf32>>
                    %230 = affine.apply affine_map<(d0, d1, d2, d3) -> (d0 + d1 + d2 + d3)>(%arg3, %arg5, %137, %c0_12)
                    %231 = affine.load %2[((%230 - %arg3) floordiv 16) mod 16, (%140 - %arg4) mod 6, (((%230 - %arg3) mod 16) floordiv 8) mod 2] : memref<16x6x2xvector<8xf32>>
                    %232 = vector.insertelement %219, %231[%c2_i64 : i64] : vector<8xf32>
                    affine.store %232, %2[((%230 - %arg3) floordiv 16) mod 16, (%140 - %arg4) mod 6, (((%230 - %arg3) mod 16) floordiv 8) mod 2] : memref<16x6x2xvector<8xf32>>
                    %233 = affine.apply affine_map<(d0, d1, d2, d3) -> (d0 + d1 + d2 + d3)>(%arg3, %arg5, %137, %c0_12)
                    %234 = affine.load %2[((%233 - %arg3) floordiv 16) mod 16, (%141 - %arg4) mod 6, (((%233 - %arg3) mod 16) floordiv 8) mod 2] : memref<16x6x2xvector<8xf32>>
                    %235 = vector.insertelement %220, %234[%c3_i64 : i64] : vector<8xf32>
                    affine.store %235, %2[((%233 - %arg3) floordiv 16) mod 16, (%141 - %arg4) mod 6, (((%233 - %arg3) mod 16) floordiv 8) mod 2] : memref<16x6x2xvector<8xf32>>
                    %236 = affine.apply affine_map<(d0, d1, d2, d3) -> (d0 + d1 + d2 + d3)>(%arg3, %arg5, %137, %c0_12)
                    %237 = affine.load %2[((%236 - %arg3) floordiv 16) mod 16, (%142 - %arg4) mod 6, (((%236 - %arg3) mod 16) floordiv 8) mod 2] : memref<16x6x2xvector<8xf32>>
                    %238 = vector.insertelement %221, %237[%c4_i64 : i64] : vector<8xf32>
                    affine.store %238, %2[((%236 - %arg3) floordiv 16) mod 16, (%142 - %arg4) mod 6, (((%236 - %arg3) mod 16) floordiv 8) mod 2] : memref<16x6x2xvector<8xf32>>
                    %239 = affine.apply affine_map<(d0, d1, d2, d3) -> (d0 + d1 + d2 + d3)>(%arg3, %arg5, %137, %c0_12)
                    %240 = affine.load %2[((%239 - %arg3) floordiv 16) mod 16, (%143 - %arg4) mod 6, (((%239 - %arg3) mod 16) floordiv 8) mod 2] : memref<16x6x2xvector<8xf32>>
                    %241 = vector.insertelement %222, %240[%c5_i64 : i64] : vector<8xf32>
                    affine.store %241, %2[((%239 - %arg3) floordiv 16) mod 16, (%143 - %arg4) mod 6, (((%239 - %arg3) mod 16) floordiv 8) mod 2] : memref<16x6x2xvector<8xf32>>
                    %242 = affine.apply affine_map<(d0, d1, d2, d3) -> (d0 + d1 + d2 + d3)>(%arg3, %arg5, %137, %c0_12)
                    %243 = affine.load %2[((%242 - %arg3) floordiv 16) mod 16, (%144 - %arg4) mod 6, (((%242 - %arg3) mod 16) floordiv 8) mod 2] : memref<16x6x2xvector<8xf32>>
                    %244 = vector.insertelement %223, %243[%c6_i64 : i64] : vector<8xf32>
                    affine.store %244, %2[((%242 - %arg3) floordiv 16) mod 16, (%144 - %arg4) mod 6, (((%242 - %arg3) mod 16) floordiv 8) mod 2] : memref<16x6x2xvector<8xf32>>
                    %245 = affine.apply affine_map<(d0, d1, d2, d3) -> (d0 + d1 + d2 + d3)>(%arg3, %arg5, %137, %c0_12)
                    %246 = affine.load %2[((%245 - %arg3) floordiv 16) mod 16, (%145 - %arg4) mod 6, (((%245 - %arg3) mod 16) floordiv 8) mod 2] : memref<16x6x2xvector<8xf32>>
                    %247 = vector.insertelement %224, %246[%c7_i64 : i64] : vector<8xf32>
                    affine.store %247, %2[((%245 - %arg3) floordiv 16) mod 16, (%145 - %arg4) mod 6, (((%245 - %arg3) mod 16) floordiv 8) mod 2] : memref<16x6x2xvector<8xf32>>
                    %248 = affine.load %2[((%146 - %arg3) floordiv 16) mod 16, (%138 - %arg4) mod 6, (((%146 - %arg3) mod 16) floordiv 8) mod 2] : memref<16x6x2xvector<8xf32>>
                    %249 = vector.insertelement %217, %248[%c0_i64 : i64] : vector<8xf32>
                    affine.store %249, %2[((%146 - %arg3) floordiv 16) mod 16, (%138 - %arg4) mod 6, (((%146 - %arg3) mod 16) floordiv 8) mod 2] : memref<16x6x2xvector<8xf32>>
                    %250 = affine.apply affine_map<(d0, d1, d2, d3) -> (d0 + d1 + d2 + d3)>(%arg3, %arg5, %137, %c0_12)
                    %251 = affine.load %2[((%250 - %arg3) floordiv 16) mod 16, (%139 - %arg4) mod 6, (((%250 - %arg3) mod 16) floordiv 8) mod 2] : memref<16x6x2xvector<8xf32>>
                    %252 = vector.insertelement %218, %251[%c1_i64 : i64] : vector<8xf32>
                    affine.store %252, %2[((%250 - %arg3) floordiv 16) mod 16, (%139 - %arg4) mod 6, (((%250 - %arg3) mod 16) floordiv 8) mod 2] : memref<16x6x2xvector<8xf32>>
                    %253 = affine.apply affine_map<(d0, d1, d2, d3) -> (d0 + d1 + d2 + d3)>(%arg3, %arg5, %137, %c0_12)
                    %254 = affine.load %2[((%253 - %arg3) floordiv 16) mod 16, (%140 - %arg4) mod 6, (((%253 - %arg3) mod 16) floordiv 8) mod 2] : memref<16x6x2xvector<8xf32>>
                    %255 = vector.insertelement %219, %254[%c2_i64 : i64] : vector<8xf32>
                    affine.store %255, %2[((%253 - %arg3) floordiv 16) mod 16, (%140 - %arg4) mod 6, (((%253 - %arg3) mod 16) floordiv 8) mod 2] : memref<16x6x2xvector<8xf32>>
                    %256 = affine.apply affine_map<(d0, d1, d2, d3) -> (d0 + d1 + d2 + d3)>(%arg3, %arg5, %137, %c0_12)
                    %257 = affine.load %2[((%256 - %arg3) floordiv 16) mod 16, (%141 - %arg4) mod 6, (((%256 - %arg3) mod 16) floordiv 8) mod 2] : memref<16x6x2xvector<8xf32>>
                    %258 = vector.insertelement %220, %257[%c3_i64 : i64] : vector<8xf32>
                    affine.store %258, %2[((%256 - %arg3) floordiv 16) mod 16, (%141 - %arg4) mod 6, (((%256 - %arg3) mod 16) floordiv 8) mod 2] : memref<16x6x2xvector<8xf32>>
                    %259 = affine.apply affine_map<(d0, d1, d2, d3) -> (d0 + d1 + d2 + d3)>(%arg3, %arg5, %137, %c0_12)
                    %260 = affine.load %2[((%259 - %arg3) floordiv 16) mod 16, (%142 - %arg4) mod 6, (((%259 - %arg3) mod 16) floordiv 8) mod 2] : memref<16x6x2xvector<8xf32>>
                    %261 = vector.insertelement %221, %260[%c4_i64 : i64] : vector<8xf32>
                    affine.store %261, %2[((%259 - %arg3) floordiv 16) mod 16, (%142 - %arg4) mod 6, (((%259 - %arg3) mod 16) floordiv 8) mod 2] : memref<16x6x2xvector<8xf32>>
                    %262 = affine.apply affine_map<(d0, d1, d2, d3) -> (d0 + d1 + d2 + d3)>(%arg3, %arg5, %137, %c0_12)
                    %263 = affine.load %2[((%262 - %arg3) floordiv 16) mod 16, (%143 - %arg4) mod 6, (((%262 - %arg3) mod 16) floordiv 8) mod 2] : memref<16x6x2xvector<8xf32>>
                    %264 = vector.insertelement %222, %263[%c5_i64 : i64] : vector<8xf32>
                    affine.store %264, %2[((%262 - %arg3) floordiv 16) mod 16, (%143 - %arg4) mod 6, (((%262 - %arg3) mod 16) floordiv 8) mod 2] : memref<16x6x2xvector<8xf32>>
                    %265 = affine.apply affine_map<(d0, d1, d2, d3) -> (d0 + d1 + d2 + d3)>(%arg3, %arg5, %137, %c0_12)
                    %266 = affine.load %2[((%265 - %arg3) floordiv 16) mod 16, (%144 - %arg4) mod 6, (((%265 - %arg3) mod 16) floordiv 8) mod 2] : memref<16x6x2xvector<8xf32>>
                    %267 = vector.insertelement %223, %266[%c6_i64 : i64] : vector<8xf32>
                    affine.store %267, %2[((%265 - %arg3) floordiv 16) mod 16, (%144 - %arg4) mod 6, (((%265 - %arg3) mod 16) floordiv 8) mod 2] : memref<16x6x2xvector<8xf32>>
                    %268 = affine.apply affine_map<(d0, d1, d2, d3) -> (d0 + d1 + d2 + d3)>(%arg3, %arg5, %137, %c0_12)
                    %269 = affine.load %2[((%268 - %arg3) floordiv 16) mod 16, (%145 - %arg4) mod 6, (((%268 - %arg3) mod 16) floordiv 8) mod 2] : memref<16x6x2xvector<8xf32>>
                    %270 = vector.insertelement %224, %269[%c7_i64 : i64] : vector<8xf32>
                    affine.store %270, %2[((%268 - %arg3) floordiv 16) mod 16, (%145 - %arg4) mod 6, (((%268 - %arg3) mod 16) floordiv 8) mod 2] : memref<16x6x2xvector<8xf32>>
                  } {begin = 0 : i64, end = 0 : i64, index = #accln<"index{i_i_i,12}">, subdomainIndexOrder = [#accln<"index{i,0}">, #accln<"index{j,1}">, #accln<"index{k,2}">], subdomainSize = [0, 16, 1]}
                } {begin = 0 : i64, end = 4 : i64, index = #accln<"index{k_i_i,10}">, subdomainIndexOrder = [#accln<"index{i,0}">, #accln<"index{j,1}">, #accln<"index{k,2}">], subdomainSize = [0, 16, 1]}
              } {begin = 0 : i64, end = 0 : i64, index = #accln<"index{i_i_o,11}">, accv_unrolled, subdomainIndexOrder = [#accln<"index{i,0}">, #accln<"index{j,1}">, #accln<"index{k,2}">], subdomainSize = [0, 16, 4]}
              affine.for %arg7 = 0 to 4 {
                %4 = affine.apply affine_map<(d0, d1, d2) -> (d0 + d1 + d2)>(%arg4, %c0_7, %c0_8)
                %5 = affine.apply affine_map<(d0, d1, d2) -> (d0 + d1 + d2)>(%arg4, %c0_7, %c0_8)
                %6 = affine.apply affine_map<(d0, d1, d2) -> (d0 + d1 + d2)>(%arg4, %c0_7, %c0_8)
                %7 = affine.apply affine_map<(d0, d1, d2) -> (d0 + d1 + d2)>(%arg4, %c0_7, %c0_8)
                %8 = affine.apply affine_map<(d0, d1, d2) -> (d0 + d1 + d2)>(%arg4, %c0_7, %c0_8)
                %9 = affine.apply affine_map<(d0, d1, d2) -> (d0 + d1 + d2)>(%arg4, %c0_7, %c0_8)
                %10 = affine.apply affine_map<(d0, d1, d2) -> (d0 + d1 + d2)>(%arg4, %c0_7, %c0_8)
                %11 = affine.apply affine_map<(d0, d1, d2) -> (d0 + d1 + d2)>(%arg4, %c0_7, %c0_8)
                %12 = affine.apply affine_map<(d0, d1, d2, d3) -> (d0 + d1 + d2 + d3)>(%arg3, %arg5, %c0_9, %c0_10)
                %13 = affine.apply affine_map<(d0, d1, d2) -> (d0 + d1 + d2)>(%c0, %arg6, %arg7)
                %14 = affine.apply affine_map<(d0, d1, d2) -> (d0 + d1 + d2)>(%c0, %arg6, %arg7)
                %15 = affine.apply affine_map<(d0, d1, d2) -> (d0 + d1 + d2)>(%c0, %arg6, %arg7)
                %16 = affine.apply affine_map<(d0, d1, d2) -> (d0 + d1 + d2)>(%c0, %arg6, %arg7)
                %17 = affine.apply affine_map<(d0, d1, d2) -> (d0 + d1 + d2)>(%c0, %arg6, %arg7)
                %18 = affine.apply affine_map<(d0, d1, d2) -> (d0 + d1 + d2)>(%c0, %arg6, %arg7)
                %19 = affine.apply affine_map<(d0, d1, d2) -> (d0 + d1 + d2)>(%c0, %arg6, %arg7)
                %20 = affine.apply affine_map<(d0, d1, d2) -> (d0 + d1 + d2)>(%c0, %arg6, %arg7)
                %21 = load %arg0[%4, %13] : memref<784x128xf32, affine_map<(d0, d1) -> (d0 * 128 + d1)>>
                %22 = load %arg0[%5, %14] : memref<784x128xf32, affine_map<(d0, d1) -> (d0 * 128 + d1)>>
                %23 = load %arg0[%6, %15] : memref<784x128xf32, affine_map<(d0, d1) -> (d0 * 128 + d1)>>
                %24 = load %arg0[%7, %16] : memref<784x128xf32, affine_map<(d0, d1) -> (d0 * 128 + d1)>>
                %25 = load %arg0[%8, %17] : memref<784x128xf32, affine_map<(d0, d1) -> (d0 * 128 + d1)>>
                %26 = load %arg0[%9, %18] : memref<784x128xf32, affine_map<(d0, d1) -> (d0 * 128 + d1)>>
                %27 = load %arg0[%10, %19] : memref<784x128xf32, affine_map<(d0, d1) -> (d0 * 128 + d1)>>
                %28 = load %arg0[%11, %20] : memref<784x128xf32, affine_map<(d0, d1) -> (d0 * 128 + d1)>>
                %29 = affine.load %3[((%12 - %arg3) floordiv 16) mod 16, (%13 - %c0) mod 128, (((%12 - %arg3) mod 16) floordiv 8) mod 2] : memref<16x128x2xvector<8xf32>>
                %30 = vector.extractelement %29[%c0_i64 : i64] : vector<8xf32>
                %31 = affine.apply affine_map<(d0, d1, d2, d3) -> (d0 + d1 + d2 + d3)>(%arg3, %arg5, %c0_9, %c0_10)
                %32 = affine.load %3[((%31 - %arg3) floordiv 16) mod 16, (%14 - %c0) mod 128, (((%31 - %arg3) mod 16) floordiv 8) mod 2] : memref<16x128x2xvector<8xf32>>
                %33 = vector.extractelement %32[%c1_i64 : i64] : vector<8xf32>
                %34 = affine.apply affine_map<(d0, d1, d2, d3) -> (d0 + d1 + d2 + d3)>(%arg3, %arg5, %c0_9, %c0_10)
                %35 = affine.load %3[((%34 - %arg3) floordiv 16) mod 16, (%15 - %c0) mod 128, (((%34 - %arg3) mod 16) floordiv 8) mod 2] : memref<16x128x2xvector<8xf32>>
                %36 = vector.extractelement %35[%c2_i64 : i64] : vector<8xf32>
                %37 = affine.apply affine_map<(d0, d1, d2, d3) -> (d0 + d1 + d2 + d3)>(%arg3, %arg5, %c0_9, %c0_10)
                %38 = affine.load %3[((%37 - %arg3) floordiv 16) mod 16, (%16 - %c0) mod 128, (((%37 - %arg3) mod 16) floordiv 8) mod 2] : memref<16x128x2xvector<8xf32>>
                %39 = vector.extractelement %38[%c3_i64 : i64] : vector<8xf32>
                %40 = affine.apply affine_map<(d0, d1, d2, d3) -> (d0 + d1 + d2 + d3)>(%arg3, %arg5, %c0_9, %c0_10)
                %41 = affine.load %3[((%40 - %arg3) floordiv 16) mod 16, (%17 - %c0) mod 128, (((%40 - %arg3) mod 16) floordiv 8) mod 2] : memref<16x128x2xvector<8xf32>>
                %42 = vector.extractelement %41[%c4_i64 : i64] : vector<8xf32>
                %43 = affine.apply affine_map<(d0, d1, d2, d3) -> (d0 + d1 + d2 + d3)>(%arg3, %arg5, %c0_9, %c0_10)
                %44 = affine.load %3[((%43 - %arg3) floordiv 16) mod 16, (%18 - %c0) mod 128, (((%43 - %arg3) mod 16) floordiv 8) mod 2] : memref<16x128x2xvector<8xf32>>
                %45 = vector.extractelement %44[%c5_i64 : i64] : vector<8xf32>
                %46 = affine.apply affine_map<(d0, d1, d2, d3) -> (d0 + d1 + d2 + d3)>(%arg3, %arg5, %c0_9, %c0_10)
                %47 = affine.load %3[((%46 - %arg3) floordiv 16) mod 16, (%19 - %c0) mod 128, (((%46 - %arg3) mod 16) floordiv 8) mod 2] : memref<16x128x2xvector<8xf32>>
                %48 = vector.extractelement %47[%c6_i64 : i64] : vector<8xf32>
                %49 = affine.apply affine_map<(d0, d1, d2, d3) -> (d0 + d1 + d2 + d3)>(%arg3, %arg5, %c0_9, %c0_10)
                %50 = affine.load %3[((%49 - %arg3) floordiv 16) mod 16, (%20 - %c0) mod 128, (((%49 - %arg3) mod 16) floordiv 8) mod 2] : memref<16x128x2xvector<8xf32>>
                %51 = vector.extractelement %50[%c7_i64 : i64] : vector<8xf32>
                %52 = "accv.bin_op"(%21, %30) {predicate = 2 : i64} : (f32, f32) -> f32
                %53 = "accv.bin_op"(%22, %33) {predicate = 2 : i64} : (f32, f32) -> f32
                %54 = "accv.bin_op"(%23, %36) {predicate = 2 : i64} : (f32, f32) -> f32
                %55 = "accv.bin_op"(%24, %39) {predicate = 2 : i64} : (f32, f32) -> f32
                %56 = "accv.bin_op"(%25, %42) {predicate = 2 : i64} : (f32, f32) -> f32
                %57 = "accv.bin_op"(%26, %45) {predicate = 2 : i64} : (f32, f32) -> f32
                %58 = "accv.bin_op"(%27, %48) {predicate = 2 : i64} : (f32, f32) -> f32
                %59 = "accv.bin_op"(%28, %51) {predicate = 2 : i64} : (f32, f32) -> f32
                %60 = affine.load %2[((%12 - %arg3) floordiv 16) mod 16, (%4 - %arg4) mod 6, (((%12 - %arg3) mod 16) floordiv 8) mod 2] : memref<16x6x2xvector<8xf32>>
                %61 = vector.extractelement %60[%c0_i64 : i64] : vector<8xf32>
                %62 = affine.apply affine_map<(d0, d1, d2, d3) -> (d0 + d1 + d2 + d3)>(%arg3, %arg5, %c0_9, %c0_10)
                %63 = affine.load %2[((%62 - %arg3) floordiv 16) mod 16, (%5 - %arg4) mod 6, (((%62 - %arg3) mod 16) floordiv 8) mod 2] : memref<16x6x2xvector<8xf32>>
                %64 = vector.extractelement %63[%c1_i64 : i64] : vector<8xf32>
                %65 = affine.apply affine_map<(d0, d1, d2, d3) -> (d0 + d1 + d2 + d3)>(%arg3, %arg5, %c0_9, %c0_10)
                %66 = affine.load %2[((%65 - %arg3) floordiv 16) mod 16, (%6 - %arg4) mod 6, (((%65 - %arg3) mod 16) floordiv 8) mod 2] : memref<16x6x2xvector<8xf32>>
                %67 = vector.extractelement %66[%c2_i64 : i64] : vector<8xf32>
                %68 = affine.apply affine_map<(d0, d1, d2, d3) -> (d0 + d1 + d2 + d3)>(%arg3, %arg5, %c0_9, %c0_10)
                %69 = affine.load %2[((%68 - %arg3) floordiv 16) mod 16, (%7 - %arg4) mod 6, (((%68 - %arg3) mod 16) floordiv 8) mod 2] : memref<16x6x2xvector<8xf32>>
                %70 = vector.extractelement %69[%c3_i64 : i64] : vector<8xf32>
                %71 = affine.apply affine_map<(d0, d1, d2, d3) -> (d0 + d1 + d2 + d3)>(%arg3, %arg5, %c0_9, %c0_10)
                %72 = affine.load %2[((%71 - %arg3) floordiv 16) mod 16, (%8 - %arg4) mod 6, (((%71 - %arg3) mod 16) floordiv 8) mod 2] : memref<16x6x2xvector<8xf32>>
                %73 = vector.extractelement %72[%c4_i64 : i64] : vector<8xf32>
                %74 = affine.apply affine_map<(d0, d1, d2, d3) -> (d0 + d1 + d2 + d3)>(%arg3, %arg5, %c0_9, %c0_10)
                %75 = affine.load %2[((%74 - %arg3) floordiv 16) mod 16, (%9 - %arg4) mod 6, (((%74 - %arg3) mod 16) floordiv 8) mod 2] : memref<16x6x2xvector<8xf32>>
                %76 = vector.extractelement %75[%c5_i64 : i64] : vector<8xf32>
                %77 = affine.apply affine_map<(d0, d1, d2, d3) -> (d0 + d1 + d2 + d3)>(%arg3, %arg5, %c0_9, %c0_10)
                %78 = affine.load %2[((%77 - %arg3) floordiv 16) mod 16, (%10 - %arg4) mod 6, (((%77 - %arg3) mod 16) floordiv 8) mod 2] : memref<16x6x2xvector<8xf32>>
                %79 = vector.extractelement %78[%c6_i64 : i64] : vector<8xf32>
                %80 = affine.apply affine_map<(d0, d1, d2, d3) -> (d0 + d1 + d2 + d3)>(%arg3, %arg5, %c0_9, %c0_10)
                %81 = affine.load %2[((%80 - %arg3) floordiv 16) mod 16, (%11 - %arg4) mod 6, (((%80 - %arg3) mod 16) floordiv 8) mod 2] : memref<16x6x2xvector<8xf32>>
                %82 = vector.extractelement %81[%c7_i64 : i64] : vector<8xf32>
                %83 = "accv.bin_op"(%61, %52) {predicate = 0 : i64} : (f32, f32) -> f32
                %84 = "accv.bin_op"(%64, %53) {predicate = 0 : i64} : (f32, f32) -> f32
                %85 = "accv.bin_op"(%67, %54) {predicate = 0 : i64} : (f32, f32) -> f32
                %86 = "accv.bin_op"(%70, %55) {predicate = 0 : i64} : (f32, f32) -> f32
                %87 = "accv.bin_op"(%73, %56) {predicate = 0 : i64} : (f32, f32) -> f32
                %88 = "accv.bin_op"(%76, %57) {predicate = 0 : i64} : (f32, f32) -> f32
                %89 = "accv.bin_op"(%79, %58) {predicate = 0 : i64} : (f32, f32) -> f32
                %90 = "accv.bin_op"(%82, %59) {predicate = 0 : i64} : (f32, f32) -> f32
                %91 = affine.load %2[((%12 - %arg3) floordiv 16) mod 16, (%4 - %arg4) mod 6, (((%12 - %arg3) mod 16) floordiv 8) mod 2] : memref<16x6x2xvector<8xf32>>
                %92 = vector.insertelement %83, %91[%c0_i64 : i64] : vector<8xf32>
                affine.store %92, %2[((%12 - %arg3) floordiv 16) mod 16, (%4 - %arg4) mod 6, (((%12 - %arg3) mod 16) floordiv 8) mod 2] : memref<16x6x2xvector<8xf32>>
                %93 = affine.apply affine_map<(d0, d1, d2, d3) -> (d0 + d1 + d2 + d3)>(%arg3, %arg5, %c0_9, %c0_10)
                %94 = affine.load %2[((%93 - %arg3) floordiv 16) mod 16, (%5 - %arg4) mod 6, (((%93 - %arg3) mod 16) floordiv 8) mod 2] : memref<16x6x2xvector<8xf32>>
                %95 = vector.insertelement %84, %94[%c1_i64 : i64] : vector<8xf32>
                affine.store %95, %2[((%93 - %arg3) floordiv 16) mod 16, (%5 - %arg4) mod 6, (((%93 - %arg3) mod 16) floordiv 8) mod 2] : memref<16x6x2xvector<8xf32>>
                %96 = affine.apply affine_map<(d0, d1, d2, d3) -> (d0 + d1 + d2 + d3)>(%arg3, %arg5, %c0_9, %c0_10)
                %97 = affine.load %2[((%96 - %arg3) floordiv 16) mod 16, (%6 - %arg4) mod 6, (((%96 - %arg3) mod 16) floordiv 8) mod 2] : memref<16x6x2xvector<8xf32>>
                %98 = vector.insertelement %85, %97[%c2_i64 : i64] : vector<8xf32>
                affine.store %98, %2[((%96 - %arg3) floordiv 16) mod 16, (%6 - %arg4) mod 6, (((%96 - %arg3) mod 16) floordiv 8) mod 2] : memref<16x6x2xvector<8xf32>>
                %99 = affine.apply affine_map<(d0, d1, d2, d3) -> (d0 + d1 + d2 + d3)>(%arg3, %arg5, %c0_9, %c0_10)
                %100 = affine.load %2[((%99 - %arg3) floordiv 16) mod 16, (%7 - %arg4) mod 6, (((%99 - %arg3) mod 16) floordiv 8) mod 2] : memref<16x6x2xvector<8xf32>>
                %101 = vector.insertelement %86, %100[%c3_i64 : i64] : vector<8xf32>
                affine.store %101, %2[((%99 - %arg3) floordiv 16) mod 16, (%7 - %arg4) mod 6, (((%99 - %arg3) mod 16) floordiv 8) mod 2] : memref<16x6x2xvector<8xf32>>
                %102 = affine.apply affine_map<(d0, d1, d2, d3) -> (d0 + d1 + d2 + d3)>(%arg3, %arg5, %c0_9, %c0_10)
                %103 = affine.load %2[((%102 - %arg3) floordiv 16) mod 16, (%8 - %arg4) mod 6, (((%102 - %arg3) mod 16) floordiv 8) mod 2] : memref<16x6x2xvector<8xf32>>
                %104 = vector.insertelement %87, %103[%c4_i64 : i64] : vector<8xf32>
                affine.store %104, %2[((%102 - %arg3) floordiv 16) mod 16, (%8 - %arg4) mod 6, (((%102 - %arg3) mod 16) floordiv 8) mod 2] : memref<16x6x2xvector<8xf32>>
                %105 = affine.apply affine_map<(d0, d1, d2, d3) -> (d0 + d1 + d2 + d3)>(%arg3, %arg5, %c0_9, %c0_10)
                %106 = affine.load %2[((%105 - %arg3) floordiv 16) mod 16, (%9 - %arg4) mod 6, (((%105 - %arg3) mod 16) floordiv 8) mod 2] : memref<16x6x2xvector<8xf32>>
                %107 = vector.insertelement %88, %106[%c5_i64 : i64] : vector<8xf32>
                affine.store %107, %2[((%105 - %arg3) floordiv 16) mod 16, (%9 - %arg4) mod 6, (((%105 - %arg3) mod 16) floordiv 8) mod 2] : memref<16x6x2xvector<8xf32>>
                %108 = affine.apply affine_map<(d0, d1, d2, d3) -> (d0 + d1 + d2 + d3)>(%arg3, %arg5, %c0_9, %c0_10)
                %109 = affine.load %2[((%108 - %arg3) floordiv 16) mod 16, (%10 - %arg4) mod 6, (((%108 - %arg3) mod 16) floordiv 8) mod 2] : memref<16x6x2xvector<8xf32>>
                %110 = vector.insertelement %89, %109[%c6_i64 : i64] : vector<8xf32>
                affine.store %110, %2[((%108 - %arg3) floordiv 16) mod 16, (%10 - %arg4) mod 6, (((%108 - %arg3) mod 16) floordiv 8) mod 2] : memref<16x6x2xvector<8xf32>>
                %111 = affine.apply affine_map<(d0, d1, d2, d3) -> (d0 + d1 + d2 + d3)>(%arg3, %arg5, %c0_9, %c0_10)
                %112 = affine.load %2[((%111 - %arg3) floordiv 16) mod 16, (%11 - %arg4) mod 6, (((%111 - %arg3) mod 16) floordiv 8) mod 2] : memref<16x6x2xvector<8xf32>>
                %113 = vector.insertelement %90, %112[%c7_i64 : i64] : vector<8xf32>
                affine.store %113, %2[((%111 - %arg3) floordiv 16) mod 16, (%11 - %arg4) mod 6, (((%111 - %arg3) mod 16) floordiv 8) mod 2] : memref<16x6x2xvector<8xf32>>
                %114 = affine.load %2[((%12 - %arg3) floordiv 16) mod 16, (%4 - %arg4) mod 6, (((%12 - %arg3) mod 16) floordiv 8) mod 2] : memref<16x6x2xvector<8xf32>>
                %115 = vector.insertelement %83, %114[%c0_i64 : i64] : vector<8xf32>
                affine.store %115, %2[((%12 - %arg3) floordiv 16) mod 16, (%4 - %arg4) mod 6, (((%12 - %arg3) mod 16) floordiv 8) mod 2] : memref<16x6x2xvector<8xf32>>
                %116 = affine.apply affine_map<(d0, d1, d2, d3) -> (d0 + d1 + d2 + d3)>(%arg3, %arg5, %c0_9, %c0_10)
                %117 = affine.load %2[((%116 - %arg3) floordiv 16) mod 16, (%5 - %arg4) mod 6, (((%116 - %arg3) mod 16) floordiv 8) mod 2] : memref<16x6x2xvector<8xf32>>
                %118 = vector.insertelement %84, %117[%c1_i64 : i64] : vector<8xf32>
                affine.store %118, %2[((%116 - %arg3) floordiv 16) mod 16, (%5 - %arg4) mod 6, (((%116 - %arg3) mod 16) floordiv 8) mod 2] : memref<16x6x2xvector<8xf32>>
                %119 = affine.apply affine_map<(d0, d1, d2, d3) -> (d0 + d1 + d2 + d3)>(%arg3, %arg5, %c0_9, %c0_10)
                %120 = affine.load %2[((%119 - %arg3) floordiv 16) mod 16, (%6 - %arg4) mod 6, (((%119 - %arg3) mod 16) floordiv 8) mod 2] : memref<16x6x2xvector<8xf32>>
                %121 = vector.insertelement %85, %120[%c2_i64 : i64] : vector<8xf32>
                affine.store %121, %2[((%119 - %arg3) floordiv 16) mod 16, (%6 - %arg4) mod 6, (((%119 - %arg3) mod 16) floordiv 8) mod 2] : memref<16x6x2xvector<8xf32>>
                %122 = affine.apply affine_map<(d0, d1, d2, d3) -> (d0 + d1 + d2 + d3)>(%arg3, %arg5, %c0_9, %c0_10)
                %123 = affine.load %2[((%122 - %arg3) floordiv 16) mod 16, (%7 - %arg4) mod 6, (((%122 - %arg3) mod 16) floordiv 8) mod 2] : memref<16x6x2xvector<8xf32>>
                %124 = vector.insertelement %86, %123[%c3_i64 : i64] : vector<8xf32>
                affine.store %124, %2[((%122 - %arg3) floordiv 16) mod 16, (%7 - %arg4) mod 6, (((%122 - %arg3) mod 16) floordiv 8) mod 2] : memref<16x6x2xvector<8xf32>>
                %125 = affine.apply affine_map<(d0, d1, d2, d3) -> (d0 + d1 + d2 + d3)>(%arg3, %arg5, %c0_9, %c0_10)
                %126 = affine.load %2[((%125 - %arg3) floordiv 16) mod 16, (%8 - %arg4) mod 6, (((%125 - %arg3) mod 16) floordiv 8) mod 2] : memref<16x6x2xvector<8xf32>>
                %127 = vector.insertelement %87, %126[%c4_i64 : i64] : vector<8xf32>
                affine.store %127, %2[((%125 - %arg3) floordiv 16) mod 16, (%8 - %arg4) mod 6, (((%125 - %arg3) mod 16) floordiv 8) mod 2] : memref<16x6x2xvector<8xf32>>
                %128 = affine.apply affine_map<(d0, d1, d2, d3) -> (d0 + d1 + d2 + d3)>(%arg3, %arg5, %c0_9, %c0_10)
                %129 = affine.load %2[((%128 - %arg3) floordiv 16) mod 16, (%9 - %arg4) mod 6, (((%128 - %arg3) mod 16) floordiv 8) mod 2] : memref<16x6x2xvector<8xf32>>
                %130 = vector.insertelement %88, %129[%c5_i64 : i64] : vector<8xf32>
                affine.store %130, %2[((%128 - %arg3) floordiv 16) mod 16, (%9 - %arg4) mod 6, (((%128 - %arg3) mod 16) floordiv 8) mod 2] : memref<16x6x2xvector<8xf32>>
                %131 = affine.apply affine_map<(d0, d1, d2, d3) -> (d0 + d1 + d2 + d3)>(%arg3, %arg5, %c0_9, %c0_10)
                %132 = affine.load %2[((%131 - %arg3) floordiv 16) mod 16, (%10 - %arg4) mod 6, (((%131 - %arg3) mod 16) floordiv 8) mod 2] : memref<16x6x2xvector<8xf32>>
                %133 = vector.insertelement %89, %132[%c6_i64 : i64] : vector<8xf32>
                affine.store %133, %2[((%131 - %arg3) floordiv 16) mod 16, (%10 - %arg4) mod 6, (((%131 - %arg3) mod 16) floordiv 8) mod 2] : memref<16x6x2xvector<8xf32>>
                %134 = affine.apply affine_map<(d0, d1, d2, d3) -> (d0 + d1 + d2 + d3)>(%arg3, %arg5, %c0_9, %c0_10)
                %135 = affine.load %2[((%134 - %arg3) floordiv 16) mod 16, (%11 - %arg4) mod 6, (((%134 - %arg3) mod 16) floordiv 8) mod 2] : memref<16x6x2xvector<8xf32>>
                %136 = vector.insertelement %90, %135[%c7_i64 : i64] : vector<8xf32>
                affine.store %136, %2[((%134 - %arg3) floordiv 16) mod 16, (%11 - %arg4) mod 6, (((%134 - %arg3) mod 16) floordiv 8) mod 2] : memref<16x6x2xvector<8xf32>>
                %137 = affine.apply affine_map<(d0) -> (d0 + 8)>(%c0_9)
                %138 = affine.apply affine_map<(d0, d1, d2) -> (d0 + d1 + d2)>(%arg4, %c0_7, %c0_8)
                %139 = affine.apply affine_map<(d0, d1, d2) -> (d0 + d1 + d2)>(%arg4, %c0_7, %c0_8)
                %140 = affine.apply affine_map<(d0, d1, d2) -> (d0 + d1 + d2)>(%arg4, %c0_7, %c0_8)
                %141 = affine.apply affine_map<(d0, d1, d2) -> (d0 + d1 + d2)>(%arg4, %c0_7, %c0_8)
                %142 = affine.apply affine_map<(d0, d1, d2) -> (d0 + d1 + d2)>(%arg4, %c0_7, %c0_8)
                %143 = affine.apply affine_map<(d0, d1, d2) -> (d0 + d1 + d2)>(%arg4, %c0_7, %c0_8)
                %144 = affine.apply affine_map<(d0, d1, d2) -> (d0 + d1 + d2)>(%arg4, %c0_7, %c0_8)
                %145 = affine.apply affine_map<(d0, d1, d2) -> (d0 + d1 + d2)>(%arg4, %c0_7, %c0_8)
                %146 = affine.apply affine_map<(d0, d1, d2, d3) -> (d0 + d1 + d2 + d3)>(%arg3, %arg5, %137, %c0_10)
                %147 = affine.apply affine_map<(d0, d1, d2) -> (d0 + d1 + d2)>(%c0, %arg6, %arg7)
                %148 = affine.apply affine_map<(d0, d1, d2) -> (d0 + d1 + d2)>(%c0, %arg6, %arg7)
                %149 = affine.apply affine_map<(d0, d1, d2) -> (d0 + d1 + d2)>(%c0, %arg6, %arg7)
                %150 = affine.apply affine_map<(d0, d1, d2) -> (d0 + d1 + d2)>(%c0, %arg6, %arg7)
                %151 = affine.apply affine_map<(d0, d1, d2) -> (d0 + d1 + d2)>(%c0, %arg6, %arg7)
                %152 = affine.apply affine_map<(d0, d1, d2) -> (d0 + d1 + d2)>(%c0, %arg6, %arg7)
                %153 = affine.apply affine_map<(d0, d1, d2) -> (d0 + d1 + d2)>(%c0, %arg6, %arg7)
                %154 = affine.apply affine_map<(d0, d1, d2) -> (d0 + d1 + d2)>(%c0, %arg6, %arg7)
                %155 = load %arg0[%138, %147] : memref<784x128xf32, affine_map<(d0, d1) -> (d0 * 128 + d1)>>
                %156 = load %arg0[%139, %148] : memref<784x128xf32, affine_map<(d0, d1) -> (d0 * 128 + d1)>>
                %157 = load %arg0[%140, %149] : memref<784x128xf32, affine_map<(d0, d1) -> (d0 * 128 + d1)>>
                %158 = load %arg0[%141, %150] : memref<784x128xf32, affine_map<(d0, d1) -> (d0 * 128 + d1)>>
                %159 = load %arg0[%142, %151] : memref<784x128xf32, affine_map<(d0, d1) -> (d0 * 128 + d1)>>
                %160 = load %arg0[%143, %152] : memref<784x128xf32, affine_map<(d0, d1) -> (d0 * 128 + d1)>>
                %161 = load %arg0[%144, %153] : memref<784x128xf32, affine_map<(d0, d1) -> (d0 * 128 + d1)>>
                %162 = load %arg0[%145, %154] : memref<784x128xf32, affine_map<(d0, d1) -> (d0 * 128 + d1)>>
                %163 = affine.load %3[((%146 - %arg3) floordiv 16) mod 16, (%147 - %c0) mod 128, (((%146 - %arg3) mod 16) floordiv 8) mod 2] : memref<16x128x2xvector<8xf32>>
                %164 = vector.extractelement %163[%c0_i64 : i64] : vector<8xf32>
                %165 = affine.apply affine_map<(d0, d1, d2, d3) -> (d0 + d1 + d2 + d3)>(%arg3, %arg5, %137, %c0_10)
                %166 = affine.load %3[((%165 - %arg3) floordiv 16) mod 16, (%148 - %c0) mod 128, (((%165 - %arg3) mod 16) floordiv 8) mod 2] : memref<16x128x2xvector<8xf32>>
                %167 = vector.extractelement %166[%c1_i64 : i64] : vector<8xf32>
                %168 = affine.apply affine_map<(d0, d1, d2, d3) -> (d0 + d1 + d2 + d3)>(%arg3, %arg5, %137, %c0_10)
                %169 = affine.load %3[((%168 - %arg3) floordiv 16) mod 16, (%149 - %c0) mod 128, (((%168 - %arg3) mod 16) floordiv 8) mod 2] : memref<16x128x2xvector<8xf32>>
                %170 = vector.extractelement %169[%c2_i64 : i64] : vector<8xf32>
                %171 = affine.apply affine_map<(d0, d1, d2, d3) -> (d0 + d1 + d2 + d3)>(%arg3, %arg5, %137, %c0_10)
                %172 = affine.load %3[((%171 - %arg3) floordiv 16) mod 16, (%150 - %c0) mod 128, (((%171 - %arg3) mod 16) floordiv 8) mod 2] : memref<16x128x2xvector<8xf32>>
                %173 = vector.extractelement %172[%c3_i64 : i64] : vector<8xf32>
                %174 = affine.apply affine_map<(d0, d1, d2, d3) -> (d0 + d1 + d2 + d3)>(%arg3, %arg5, %137, %c0_10)
                %175 = affine.load %3[((%174 - %arg3) floordiv 16) mod 16, (%151 - %c0) mod 128, (((%174 - %arg3) mod 16) floordiv 8) mod 2] : memref<16x128x2xvector<8xf32>>
                %176 = vector.extractelement %175[%c4_i64 : i64] : vector<8xf32>
                %177 = affine.apply affine_map<(d0, d1, d2, d3) -> (d0 + d1 + d2 + d3)>(%arg3, %arg5, %137, %c0_10)
                %178 = affine.load %3[((%177 - %arg3) floordiv 16) mod 16, (%152 - %c0) mod 128, (((%177 - %arg3) mod 16) floordiv 8) mod 2] : memref<16x128x2xvector<8xf32>>
                %179 = vector.extractelement %178[%c5_i64 : i64] : vector<8xf32>
                %180 = affine.apply affine_map<(d0, d1, d2, d3) -> (d0 + d1 + d2 + d3)>(%arg3, %arg5, %137, %c0_10)
                %181 = affine.load %3[((%180 - %arg3) floordiv 16) mod 16, (%153 - %c0) mod 128, (((%180 - %arg3) mod 16) floordiv 8) mod 2] : memref<16x128x2xvector<8xf32>>
                %182 = vector.extractelement %181[%c6_i64 : i64] : vector<8xf32>
                %183 = affine.apply affine_map<(d0, d1, d2, d3) -> (d0 + d1 + d2 + d3)>(%arg3, %arg5, %137, %c0_10)
                %184 = affine.load %3[((%183 - %arg3) floordiv 16) mod 16, (%154 - %c0) mod 128, (((%183 - %arg3) mod 16) floordiv 8) mod 2] : memref<16x128x2xvector<8xf32>>
                %185 = vector.extractelement %184[%c7_i64 : i64] : vector<8xf32>
                %186 = "accv.bin_op"(%155, %164) {predicate = 2 : i64} : (f32, f32) -> f32
                %187 = "accv.bin_op"(%156, %167) {predicate = 2 : i64} : (f32, f32) -> f32
                %188 = "accv.bin_op"(%157, %170) {predicate = 2 : i64} : (f32, f32) -> f32
                %189 = "accv.bin_op"(%158, %173) {predicate = 2 : i64} : (f32, f32) -> f32
                %190 = "accv.bin_op"(%159, %176) {predicate = 2 : i64} : (f32, f32) -> f32
                %191 = "accv.bin_op"(%160, %179) {predicate = 2 : i64} : (f32, f32) -> f32
                %192 = "accv.bin_op"(%161, %182) {predicate = 2 : i64} : (f32, f32) -> f32
                %193 = "accv.bin_op"(%162, %185) {predicate = 2 : i64} : (f32, f32) -> f32
                %194 = affine.load %2[((%146 - %arg3) floordiv 16) mod 16, (%138 - %arg4) mod 6, (((%146 - %arg3) mod 16) floordiv 8) mod 2] : memref<16x6x2xvector<8xf32>>
                %195 = vector.extractelement %194[%c0_i64 : i64] : vector<8xf32>
                %196 = affine.apply affine_map<(d0, d1, d2, d3) -> (d0 + d1 + d2 + d3)>(%arg3, %arg5, %137, %c0_10)
                %197 = affine.load %2[((%196 - %arg3) floordiv 16) mod 16, (%139 - %arg4) mod 6, (((%196 - %arg3) mod 16) floordiv 8) mod 2] : memref<16x6x2xvector<8xf32>>
                %198 = vector.extractelement %197[%c1_i64 : i64] : vector<8xf32>
                %199 = affine.apply affine_map<(d0, d1, d2, d3) -> (d0 + d1 + d2 + d3)>(%arg3, %arg5, %137, %c0_10)
                %200 = affine.load %2[((%199 - %arg3) floordiv 16) mod 16, (%140 - %arg4) mod 6, (((%199 - %arg3) mod 16) floordiv 8) mod 2] : memref<16x6x2xvector<8xf32>>
                %201 = vector.extractelement %200[%c2_i64 : i64] : vector<8xf32>
                %202 = affine.apply affine_map<(d0, d1, d2, d3) -> (d0 + d1 + d2 + d3)>(%arg3, %arg5, %137, %c0_10)
                %203 = affine.load %2[((%202 - %arg3) floordiv 16) mod 16, (%141 - %arg4) mod 6, (((%202 - %arg3) mod 16) floordiv 8) mod 2] : memref<16x6x2xvector<8xf32>>
                %204 = vector.extractelement %203[%c3_i64 : i64] : vector<8xf32>
                %205 = affine.apply affine_map<(d0, d1, d2, d3) -> (d0 + d1 + d2 + d3)>(%arg3, %arg5, %137, %c0_10)
                %206 = affine.load %2[((%205 - %arg3) floordiv 16) mod 16, (%142 - %arg4) mod 6, (((%205 - %arg3) mod 16) floordiv 8) mod 2] : memref<16x6x2xvector<8xf32>>
                %207 = vector.extractelement %206[%c4_i64 : i64] : vector<8xf32>
                %208 = affine.apply affine_map<(d0, d1, d2, d3) -> (d0 + d1 + d2 + d3)>(%arg3, %arg5, %137, %c0_10)
                %209 = affine.load %2[((%208 - %arg3) floordiv 16) mod 16, (%143 - %arg4) mod 6, (((%208 - %arg3) mod 16) floordiv 8) mod 2] : memref<16x6x2xvector<8xf32>>
                %210 = vector.extractelement %209[%c5_i64 : i64] : vector<8xf32>
                %211 = affine.apply affine_map<(d0, d1, d2, d3) -> (d0 + d1 + d2 + d3)>(%arg3, %arg5, %137, %c0_10)
                %212 = affine.load %2[((%211 - %arg3) floordiv 16) mod 16, (%144 - %arg4) mod 6, (((%211 - %arg3) mod 16) floordiv 8) mod 2] : memref<16x6x2xvector<8xf32>>
                %213 = vector.extractelement %212[%c6_i64 : i64] : vector<8xf32>
                %214 = affine.apply affine_map<(d0, d1, d2, d3) -> (d0 + d1 + d2 + d3)>(%arg3, %arg5, %137, %c0_10)
                %215 = affine.load %2[((%214 - %arg3) floordiv 16) mod 16, (%145 - %arg4) mod 6, (((%214 - %arg3) mod 16) floordiv 8) mod 2] : memref<16x6x2xvector<8xf32>>
                %216 = vector.extractelement %215[%c7_i64 : i64] : vector<8xf32>
                %217 = "accv.bin_op"(%195, %186) {predicate = 0 : i64} : (f32, f32) -> f32
                %218 = "accv.bin_op"(%198, %187) {predicate = 0 : i64} : (f32, f32) -> f32
                %219 = "accv.bin_op"(%201, %188) {predicate = 0 : i64} : (f32, f32) -> f32
                %220 = "accv.bin_op"(%204, %189) {predicate = 0 : i64} : (f32, f32) -> f32
                %221 = "accv.bin_op"(%207, %190) {predicate = 0 : i64} : (f32, f32) -> f32
                %222 = "accv.bin_op"(%210, %191) {predicate = 0 : i64} : (f32, f32) -> f32
                %223 = "accv.bin_op"(%213, %192) {predicate = 0 : i64} : (f32, f32) -> f32
                %224 = "accv.bin_op"(%216, %193) {predicate = 0 : i64} : (f32, f32) -> f32
                %225 = affine.load %2[((%146 - %arg3) floordiv 16) mod 16, (%138 - %arg4) mod 6, (((%146 - %arg3) mod 16) floordiv 8) mod 2] : memref<16x6x2xvector<8xf32>>
                %226 = vector.insertelement %217, %225[%c0_i64 : i64] : vector<8xf32>
                affine.store %226, %2[((%146 - %arg3) floordiv 16) mod 16, (%138 - %arg4) mod 6, (((%146 - %arg3) mod 16) floordiv 8) mod 2] : memref<16x6x2xvector<8xf32>>
                %227 = affine.apply affine_map<(d0, d1, d2, d3) -> (d0 + d1 + d2 + d3)>(%arg3, %arg5, %137, %c0_10)
                %228 = affine.load %2[((%227 - %arg3) floordiv 16) mod 16, (%139 - %arg4) mod 6, (((%227 - %arg3) mod 16) floordiv 8) mod 2] : memref<16x6x2xvector<8xf32>>
                %229 = vector.insertelement %218, %228[%c1_i64 : i64] : vector<8xf32>
                affine.store %229, %2[((%227 - %arg3) floordiv 16) mod 16, (%139 - %arg4) mod 6, (((%227 - %arg3) mod 16) floordiv 8) mod 2] : memref<16x6x2xvector<8xf32>>
                %230 = affine.apply affine_map<(d0, d1, d2, d3) -> (d0 + d1 + d2 + d3)>(%arg3, %arg5, %137, %c0_10)
                %231 = affine.load %2[((%230 - %arg3) floordiv 16) mod 16, (%140 - %arg4) mod 6, (((%230 - %arg3) mod 16) floordiv 8) mod 2] : memref<16x6x2xvector<8xf32>>
                %232 = vector.insertelement %219, %231[%c2_i64 : i64] : vector<8xf32>
                affine.store %232, %2[((%230 - %arg3) floordiv 16) mod 16, (%140 - %arg4) mod 6, (((%230 - %arg3) mod 16) floordiv 8) mod 2] : memref<16x6x2xvector<8xf32>>
                %233 = affine.apply affine_map<(d0, d1, d2, d3) -> (d0 + d1 + d2 + d3)>(%arg3, %arg5, %137, %c0_10)
                %234 = affine.load %2[((%233 - %arg3) floordiv 16) mod 16, (%141 - %arg4) mod 6, (((%233 - %arg3) mod 16) floordiv 8) mod 2] : memref<16x6x2xvector<8xf32>>
                %235 = vector.insertelement %220, %234[%c3_i64 : i64] : vector<8xf32>
                affine.store %235, %2[((%233 - %arg3) floordiv 16) mod 16, (%141 - %arg4) mod 6, (((%233 - %arg3) mod 16) floordiv 8) mod 2] : memref<16x6x2xvector<8xf32>>
                %236 = affine.apply affine_map<(d0, d1, d2, d3) -> (d0 + d1 + d2 + d3)>(%arg3, %arg5, %137, %c0_10)
                %237 = affine.load %2[((%236 - %arg3) floordiv 16) mod 16, (%142 - %arg4) mod 6, (((%236 - %arg3) mod 16) floordiv 8) mod 2] : memref<16x6x2xvector<8xf32>>
                %238 = vector.insertelement %221, %237[%c4_i64 : i64] : vector<8xf32>
                affine.store %238, %2[((%236 - %arg3) floordiv 16) mod 16, (%142 - %arg4) mod 6, (((%236 - %arg3) mod 16) floordiv 8) mod 2] : memref<16x6x2xvector<8xf32>>
                %239 = affine.apply affine_map<(d0, d1, d2, d3) -> (d0 + d1 + d2 + d3)>(%arg3, %arg5, %137, %c0_10)
                %240 = affine.load %2[((%239 - %arg3) floordiv 16) mod 16, (%143 - %arg4) mod 6, (((%239 - %arg3) mod 16) floordiv 8) mod 2] : memref<16x6x2xvector<8xf32>>
                %241 = vector.insertelement %222, %240[%c5_i64 : i64] : vector<8xf32>
                affine.store %241, %2[((%239 - %arg3) floordiv 16) mod 16, (%143 - %arg4) mod 6, (((%239 - %arg3) mod 16) floordiv 8) mod 2] : memref<16x6x2xvector<8xf32>>
                %242 = affine.apply affine_map<(d0, d1, d2, d3) -> (d0 + d1 + d2 + d3)>(%arg3, %arg5, %137, %c0_10)
                %243 = affine.load %2[((%242 - %arg3) floordiv 16) mod 16, (%144 - %arg4) mod 6, (((%242 - %arg3) mod 16) floordiv 8) mod 2] : memref<16x6x2xvector<8xf32>>
                %244 = vector.insertelement %223, %243[%c6_i64 : i64] : vector<8xf32>
                affine.store %244, %2[((%242 - %arg3) floordiv 16) mod 16, (%144 - %arg4) mod 6, (((%242 - %arg3) mod 16) floordiv 8) mod 2] : memref<16x6x2xvector<8xf32>>
                %245 = affine.apply affine_map<(d0, d1, d2, d3) -> (d0 + d1 + d2 + d3)>(%arg3, %arg5, %137, %c0_10)
                %246 = affine.load %2[((%245 - %arg3) floordiv 16) mod 16, (%145 - %arg4) mod 6, (((%245 - %arg3) mod 16) floordiv 8) mod 2] : memref<16x6x2xvector<8xf32>>
                %247 = vector.insertelement %224, %246[%c7_i64 : i64] : vector<8xf32>
                affine.store %247, %2[((%245 - %arg3) floordiv 16) mod 16, (%145 - %arg4) mod 6, (((%245 - %arg3) mod 16) floordiv 8) mod 2] : memref<16x6x2xvector<8xf32>>
                %248 = affine.load %2[((%146 - %arg3) floordiv 16) mod 16, (%138 - %arg4) mod 6, (((%146 - %arg3) mod 16) floordiv 8) mod 2] : memref<16x6x2xvector<8xf32>>
                %249 = vector.insertelement %217, %248[%c0_i64 : i64] : vector<8xf32>
                affine.store %249, %2[((%146 - %arg3) floordiv 16) mod 16, (%138 - %arg4) mod 6, (((%146 - %arg3) mod 16) floordiv 8) mod 2] : memref<16x6x2xvector<8xf32>>
                %250 = affine.apply affine_map<(d0, d1, d2, d3) -> (d0 + d1 + d2 + d3)>(%arg3, %arg5, %137, %c0_10)
                %251 = affine.load %2[((%250 - %arg3) floordiv 16) mod 16, (%139 - %arg4) mod 6, (((%250 - %arg3) mod 16) floordiv 8) mod 2] : memref<16x6x2xvector<8xf32>>
                %252 = vector.insertelement %218, %251[%c1_i64 : i64] : vector<8xf32>
                affine.store %252, %2[((%250 - %arg3) floordiv 16) mod 16, (%139 - %arg4) mod 6, (((%250 - %arg3) mod 16) floordiv 8) mod 2] : memref<16x6x2xvector<8xf32>>
                %253 = affine.apply affine_map<(d0, d1, d2, d3) -> (d0 + d1 + d2 + d3)>(%arg3, %arg5, %137, %c0_10)
                %254 = affine.load %2[((%253 - %arg3) floordiv 16) mod 16, (%140 - %arg4) mod 6, (((%253 - %arg3) mod 16) floordiv 8) mod 2] : memref<16x6x2xvector<8xf32>>
                %255 = vector.insertelement %219, %254[%c2_i64 : i64] : vector<8xf32>
                affine.store %255, %2[((%253 - %arg3) floordiv 16) mod 16, (%140 - %arg4) mod 6, (((%253 - %arg3) mod 16) floordiv 8) mod 2] : memref<16x6x2xvector<8xf32>>
                %256 = affine.apply affine_map<(d0, d1, d2, d3) -> (d0 + d1 + d2 + d3)>(%arg3, %arg5, %137, %c0_10)
                %257 = affine.load %2[((%256 - %arg3) floordiv 16) mod 16, (%141 - %arg4) mod 6, (((%256 - %arg3) mod 16) floordiv 8) mod 2] : memref<16x6x2xvector<8xf32>>
                %258 = vector.insertelement %220, %257[%c3_i64 : i64] : vector<8xf32>
                affine.store %258, %2[((%256 - %arg3) floordiv 16) mod 16, (%141 - %arg4) mod 6, (((%256 - %arg3) mod 16) floordiv 8) mod 2] : memref<16x6x2xvector<8xf32>>
                %259 = affine.apply affine_map<(d0, d1, d2, d3) -> (d0 + d1 + d2 + d3)>(%arg3, %arg5, %137, %c0_10)
                %260 = affine.load %2[((%259 - %arg3) floordiv 16) mod 16, (%142 - %arg4) mod 6, (((%259 - %arg3) mod 16) floordiv 8) mod 2] : memref<16x6x2xvector<8xf32>>
                %261 = vector.insertelement %221, %260[%c4_i64 : i64] : vector<8xf32>
                affine.store %261, %2[((%259 - %arg3) floordiv 16) mod 16, (%142 - %arg4) mod 6, (((%259 - %arg3) mod 16) floordiv 8) mod 2] : memref<16x6x2xvector<8xf32>>
                %262 = affine.apply affine_map<(d0, d1, d2, d3) -> (d0 + d1 + d2 + d3)>(%arg3, %arg5, %137, %c0_10)
                %263 = affine.load %2[((%262 - %arg3) floordiv 16) mod 16, (%143 - %arg4) mod 6, (((%262 - %arg3) mod 16) floordiv 8) mod 2] : memref<16x6x2xvector<8xf32>>
                %264 = vector.insertelement %222, %263[%c5_i64 : i64] : vector<8xf32>
                affine.store %264, %2[((%262 - %arg3) floordiv 16) mod 16, (%143 - %arg4) mod 6, (((%262 - %arg3) mod 16) floordiv 8) mod 2] : memref<16x6x2xvector<8xf32>>
                %265 = affine.apply affine_map<(d0, d1, d2, d3) -> (d0 + d1 + d2 + d3)>(%arg3, %arg5, %137, %c0_10)
                %266 = affine.load %2[((%265 - %arg3) floordiv 16) mod 16, (%144 - %arg4) mod 6, (((%265 - %arg3) mod 16) floordiv 8) mod 2] : memref<16x6x2xvector<8xf32>>
                %267 = vector.insertelement %223, %266[%c6_i64 : i64] : vector<8xf32>
                affine.store %267, %2[((%265 - %arg3) floordiv 16) mod 16, (%144 - %arg4) mod 6, (((%265 - %arg3) mod 16) floordiv 8) mod 2] : memref<16x6x2xvector<8xf32>>
                %268 = affine.apply affine_map<(d0, d1, d2, d3) -> (d0 + d1 + d2 + d3)>(%arg3, %arg5, %137, %c0_10)
                %269 = affine.load %2[((%268 - %arg3) floordiv 16) mod 16, (%145 - %arg4) mod 6, (((%268 - %arg3) mod 16) floordiv 8) mod 2] : memref<16x6x2xvector<8xf32>>
                %270 = vector.insertelement %224, %269[%c7_i64 : i64] : vector<8xf32>
                affine.store %270, %2[((%268 - %arg3) floordiv 16) mod 16, (%145 - %arg4) mod 6, (((%268 - %arg3) mod 16) floordiv 8) mod 2] : memref<16x6x2xvector<8xf32>>
              } {begin = 0 : i64, end = 4 : i64, index = #accln<"index{k_i_i,10}">, subdomainIndexOrder = [#accln<"index{i,0}">, #accln<"index{j,1}">, #accln<"index{k,2}">], subdomainSize = [1, 16, 1]}
            } {begin = 0 : i64, end = 128 : i64, index = #accln<"index{k_i_o,9}">, subdomainIndexOrder = [#accln<"index{i,0}">, #accln<"index{j,1}">, #accln<"index{k,2}">], subdomainSize = [1, 16, 4]}
          } {begin = 0 : i64, end = 256 : i64, index = #accln<"index{j_i_o,13}">, subdomainIndexOrder = [#accln<"index{i,0}">, #accln<"index{j,1}">, #accln<"index{k,2}">], subdomainSize = [1, 16, 128]}
          affine.for %arg5 = 0 to 256 step 128 {
            affine.if affine_set<() : (0 == 0)>() {
              %4 = affine.apply affine_map<(d0, d1, d2) -> (d0 + d1 + d2)>(%arg4, %c0_0, %c0_5)
              %5 = affine.apply affine_map<(d0, d1, d2) -> (d0 + d1 + d2 * 8)>(%arg3, %arg5, %c0_6)
              %6 = vector.transfer_read %arg2[%4, %5], %cst {masked = [false]} : memref<784x512xf32, affine_map<(d0, d1) -> (d0 * 512 + d1)>>, vector<8xf32>
              %7 = affine.load %2[((%arg5 + %c0_6 * 8) floordiv 16) mod 16, (%c0_0 + %c0_5) mod 6, (((%arg5 + %c0_6 * 8) mod 16) floordiv 8) mod 2] : memref<16x6x2xvector<8xf32>>
              %8 = addf %6, %7 : vector<8xf32>
              store %8, %1[%c0_5, %c0_6] : memref<1x16xvector<8xf32>>
              %9 = affine.apply affine_map<(d0) -> (d0 + 1)>(%c0_6)
              %10 = affine.apply affine_map<(d0, d1, d2) -> (d0 + d1 + d2)>(%arg4, %c0_0, %c0_5)
              %11 = affine.apply affine_map<(d0, d1, d2) -> (d0 + d1 + d2 * 8)>(%arg3, %arg5, %9)
              %12 = vector.transfer_read %arg2[%10, %11], %cst {masked = [false]} : memref<784x512xf32, affine_map<(d0, d1) -> (d0 * 512 + d1)>>, vector<8xf32>
              %13 = affine.load %2[((%arg5 + %9 * 8) floordiv 16) mod 16, (%c0_0 + %c0_5) mod 6, (((%arg5 + %9 * 8) mod 16) floordiv 8) mod 2] : memref<16x6x2xvector<8xf32>>
              %14 = addf %12, %13 : vector<8xf32>
              store %14, %1[%c0_5, %9] : memref<1x16xvector<8xf32>>
              %15 = affine.apply affine_map<(d0) -> (d0 + 2)>(%c0_6)
              %16 = affine.apply affine_map<(d0, d1, d2) -> (d0 + d1 + d2)>(%arg4, %c0_0, %c0_5)
              %17 = affine.apply affine_map<(d0, d1, d2) -> (d0 + d1 + d2 * 8)>(%arg3, %arg5, %15)
              %18 = vector.transfer_read %arg2[%16, %17], %cst {masked = [false]} : memref<784x512xf32, affine_map<(d0, d1) -> (d0 * 512 + d1)>>, vector<8xf32>
              %19 = affine.load %2[((%arg5 + %15 * 8) floordiv 16) mod 16, (%c0_0 + %c0_5) mod 6, (((%arg5 + %15 * 8) mod 16) floordiv 8) mod 2] : memref<16x6x2xvector<8xf32>>
              %20 = addf %18, %19 : vector<8xf32>
              store %20, %1[%c0_5, %15] : memref<1x16xvector<8xf32>>
              %21 = affine.apply affine_map<(d0) -> (d0 + 3)>(%c0_6)
              %22 = affine.apply affine_map<(d0, d1, d2) -> (d0 + d1 + d2)>(%arg4, %c0_0, %c0_5)
              %23 = affine.apply affine_map<(d0, d1, d2) -> (d0 + d1 + d2 * 8)>(%arg3, %arg5, %21)
              %24 = vector.transfer_read %arg2[%22, %23], %cst {masked = [false]} : memref<784x512xf32, affine_map<(d0, d1) -> (d0 * 512 + d1)>>, vector<8xf32>
              %25 = affine.load %2[((%arg5 + %21 * 8) floordiv 16) mod 16, (%c0_0 + %c0_5) mod 6, (((%arg5 + %21 * 8) mod 16) floordiv 8) mod 2] : memref<16x6x2xvector<8xf32>>
              %26 = addf %24, %25 : vector<8xf32>
              store %26, %1[%c0_5, %21] : memref<1x16xvector<8xf32>>
              %27 = affine.apply affine_map<(d0) -> (d0 + 4)>(%c0_6)
              %28 = affine.apply affine_map<(d0, d1, d2) -> (d0 + d1 + d2)>(%arg4, %c0_0, %c0_5)
              %29 = affine.apply affine_map<(d0, d1, d2) -> (d0 + d1 + d2 * 8)>(%arg3, %arg5, %27)
              %30 = vector.transfer_read %arg2[%28, %29], %cst {masked = [false]} : memref<784x512xf32, affine_map<(d0, d1) -> (d0 * 512 + d1)>>, vector<8xf32>
              %31 = affine.load %2[((%arg5 + %27 * 8) floordiv 16) mod 16, (%c0_0 + %c0_5) mod 6, (((%arg5 + %27 * 8) mod 16) floordiv 8) mod 2] : memref<16x6x2xvector<8xf32>>
              %32 = addf %30, %31 : vector<8xf32>
              store %32, %1[%c0_5, %27] : memref<1x16xvector<8xf32>>
              %33 = affine.apply affine_map<(d0) -> (d0 + 5)>(%c0_6)
              %34 = affine.apply affine_map<(d0, d1, d2) -> (d0 + d1 + d2)>(%arg4, %c0_0, %c0_5)
              %35 = affine.apply affine_map<(d0, d1, d2) -> (d0 + d1 + d2 * 8)>(%arg3, %arg5, %33)
              %36 = vector.transfer_read %arg2[%34, %35], %cst {masked = [false]} : memref<784x512xf32, affine_map<(d0, d1) -> (d0 * 512 + d1)>>, vector<8xf32>
              %37 = affine.load %2[((%arg5 + %33 * 8) floordiv 16) mod 16, (%c0_0 + %c0_5) mod 6, (((%arg5 + %33 * 8) mod 16) floordiv 8) mod 2] : memref<16x6x2xvector<8xf32>>
              %38 = addf %36, %37 : vector<8xf32>
              store %38, %1[%c0_5, %33] : memref<1x16xvector<8xf32>>
              %39 = affine.apply affine_map<(d0) -> (d0 + 6)>(%c0_6)
              %40 = affine.apply affine_map<(d0, d1, d2) -> (d0 + d1 + d2)>(%arg4, %c0_0, %c0_5)
              %41 = affine.apply affine_map<(d0, d1, d2) -> (d0 + d1 + d2 * 8)>(%arg3, %arg5, %39)
              %42 = vector.transfer_read %arg2[%40, %41], %cst {masked = [false]} : memref<784x512xf32, affine_map<(d0, d1) -> (d0 * 512 + d1)>>, vector<8xf32>
              %43 = affine.load %2[((%arg5 + %39 * 8) floordiv 16) mod 16, (%c0_0 + %c0_5) mod 6, (((%arg5 + %39 * 8) mod 16) floordiv 8) mod 2] : memref<16x6x2xvector<8xf32>>
              %44 = addf %42, %43 : vector<8xf32>
              store %44, %1[%c0_5, %39] : memref<1x16xvector<8xf32>>
              %45 = affine.apply affine_map<(d0) -> (d0 + 7)>(%c0_6)
              %46 = affine.apply affine_map<(d0, d1, d2) -> (d0 + d1 + d2)>(%arg4, %c0_0, %c0_5)
              %47 = affine.apply affine_map<(d0, d1, d2) -> (d0 + d1 + d2 * 8)>(%arg3, %arg5, %45)
              %48 = vector.transfer_read %arg2[%46, %47], %cst {masked = [false]} : memref<784x512xf32, affine_map<(d0, d1) -> (d0 * 512 + d1)>>, vector<8xf32>
              %49 = affine.load %2[((%arg5 + %45 * 8) floordiv 16) mod 16, (%c0_0 + %c0_5) mod 6, (((%arg5 + %45 * 8) mod 16) floordiv 8) mod 2] : memref<16x6x2xvector<8xf32>>
              %50 = addf %48, %49 : vector<8xf32>
              store %50, %1[%c0_5, %45] : memref<1x16xvector<8xf32>>
              %51 = affine.apply affine_map<(d0) -> (d0 + 8)>(%c0_6)
              %52 = affine.apply affine_map<(d0, d1, d2) -> (d0 + d1 + d2)>(%arg4, %c0_0, %c0_5)
              %53 = affine.apply affine_map<(d0, d1, d2) -> (d0 + d1 + d2 * 8)>(%arg3, %arg5, %51)
              %54 = vector.transfer_read %arg2[%52, %53], %cst {masked = [false]} : memref<784x512xf32, affine_map<(d0, d1) -> (d0 * 512 + d1)>>, vector<8xf32>
              %55 = affine.load %2[((%arg5 + %51 * 8) floordiv 16) mod 16, (%c0_0 + %c0_5) mod 6, (((%arg5 + %51 * 8) mod 16) floordiv 8) mod 2] : memref<16x6x2xvector<8xf32>>
              %56 = addf %54, %55 : vector<8xf32>
              store %56, %1[%c0_5, %51] : memref<1x16xvector<8xf32>>
              %57 = affine.apply affine_map<(d0) -> (d0 + 9)>(%c0_6)
              %58 = affine.apply affine_map<(d0, d1, d2) -> (d0 + d1 + d2)>(%arg4, %c0_0, %c0_5)
              %59 = affine.apply affine_map<(d0, d1, d2) -> (d0 + d1 + d2 * 8)>(%arg3, %arg5, %57)
              %60 = vector.transfer_read %arg2[%58, %59], %cst {masked = [false]} : memref<784x512xf32, affine_map<(d0, d1) -> (d0 * 512 + d1)>>, vector<8xf32>
              %61 = affine.load %2[((%arg5 + %57 * 8) floordiv 16) mod 16, (%c0_0 + %c0_5) mod 6, (((%arg5 + %57 * 8) mod 16) floordiv 8) mod 2] : memref<16x6x2xvector<8xf32>>
              %62 = addf %60, %61 : vector<8xf32>
              store %62, %1[%c0_5, %57] : memref<1x16xvector<8xf32>>
              %63 = affine.apply affine_map<(d0) -> (d0 + 10)>(%c0_6)
              %64 = affine.apply affine_map<(d0, d1, d2) -> (d0 + d1 + d2)>(%arg4, %c0_0, %c0_5)
              %65 = affine.apply affine_map<(d0, d1, d2) -> (d0 + d1 + d2 * 8)>(%arg3, %arg5, %63)
              %66 = vector.transfer_read %arg2[%64, %65], %cst {masked = [false]} : memref<784x512xf32, affine_map<(d0, d1) -> (d0 * 512 + d1)>>, vector<8xf32>
              %67 = affine.load %2[((%arg5 + %63 * 8) floordiv 16) mod 16, (%c0_0 + %c0_5) mod 6, (((%arg5 + %63 * 8) mod 16) floordiv 8) mod 2] : memref<16x6x2xvector<8xf32>>
              %68 = addf %66, %67 : vector<8xf32>
              store %68, %1[%c0_5, %63] : memref<1x16xvector<8xf32>>
              %69 = affine.apply affine_map<(d0) -> (d0 + 11)>(%c0_6)
              %70 = affine.apply affine_map<(d0, d1, d2) -> (d0 + d1 + d2)>(%arg4, %c0_0, %c0_5)
              %71 = affine.apply affine_map<(d0, d1, d2) -> (d0 + d1 + d2 * 8)>(%arg3, %arg5, %69)
              %72 = vector.transfer_read %arg2[%70, %71], %cst {masked = [false]} : memref<784x512xf32, affine_map<(d0, d1) -> (d0 * 512 + d1)>>, vector<8xf32>
              %73 = affine.load %2[((%arg5 + %69 * 8) floordiv 16) mod 16, (%c0_0 + %c0_5) mod 6, (((%arg5 + %69 * 8) mod 16) floordiv 8) mod 2] : memref<16x6x2xvector<8xf32>>
              %74 = addf %72, %73 : vector<8xf32>
              store %74, %1[%c0_5, %69] : memref<1x16xvector<8xf32>>
              %75 = affine.apply affine_map<(d0) -> (d0 + 12)>(%c0_6)
              %76 = affine.apply affine_map<(d0, d1, d2) -> (d0 + d1 + d2)>(%arg4, %c0_0, %c0_5)
              %77 = affine.apply affine_map<(d0, d1, d2) -> (d0 + d1 + d2 * 8)>(%arg3, %arg5, %75)
              %78 = vector.transfer_read %arg2[%76, %77], %cst {masked = [false]} : memref<784x512xf32, affine_map<(d0, d1) -> (d0 * 512 + d1)>>, vector<8xf32>
              %79 = affine.load %2[((%arg5 + %75 * 8) floordiv 16) mod 16, (%c0_0 + %c0_5) mod 6, (((%arg5 + %75 * 8) mod 16) floordiv 8) mod 2] : memref<16x6x2xvector<8xf32>>
              %80 = addf %78, %79 : vector<8xf32>
              store %80, %1[%c0_5, %75] : memref<1x16xvector<8xf32>>
              %81 = affine.apply affine_map<(d0) -> (d0 + 13)>(%c0_6)
              %82 = affine.apply affine_map<(d0, d1, d2) -> (d0 + d1 + d2)>(%arg4, %c0_0, %c0_5)
              %83 = affine.apply affine_map<(d0, d1, d2) -> (d0 + d1 + d2 * 8)>(%arg3, %arg5, %81)
              %84 = vector.transfer_read %arg2[%82, %83], %cst {masked = [false]} : memref<784x512xf32, affine_map<(d0, d1) -> (d0 * 512 + d1)>>, vector<8xf32>
              %85 = affine.load %2[((%arg5 + %81 * 8) floordiv 16) mod 16, (%c0_0 + %c0_5) mod 6, (((%arg5 + %81 * 8) mod 16) floordiv 8) mod 2] : memref<16x6x2xvector<8xf32>>
              %86 = addf %84, %85 : vector<8xf32>
              store %86, %1[%c0_5, %81] : memref<1x16xvector<8xf32>>
              %87 = affine.apply affine_map<(d0) -> (d0 + 14)>(%c0_6)
              %88 = affine.apply affine_map<(d0, d1, d2) -> (d0 + d1 + d2)>(%arg4, %c0_0, %c0_5)
              %89 = affine.apply affine_map<(d0, d1, d2) -> (d0 + d1 + d2 * 8)>(%arg3, %arg5, %87)
              %90 = vector.transfer_read %arg2[%88, %89], %cst {masked = [false]} : memref<784x512xf32, affine_map<(d0, d1) -> (d0 * 512 + d1)>>, vector<8xf32>
              %91 = affine.load %2[((%arg5 + %87 * 8) floordiv 16) mod 16, (%c0_0 + %c0_5) mod 6, (((%arg5 + %87 * 8) mod 16) floordiv 8) mod 2] : memref<16x6x2xvector<8xf32>>
              %92 = addf %90, %91 : vector<8xf32>
              store %92, %1[%c0_5, %87] : memref<1x16xvector<8xf32>>
              %93 = affine.apply affine_map<(d0) -> (d0 + 15)>(%c0_6)
              %94 = affine.apply affine_map<(d0, d1, d2) -> (d0 + d1 + d2)>(%arg4, %c0_0, %c0_5)
              %95 = affine.apply affine_map<(d0, d1, d2) -> (d0 + d1 + d2 * 8)>(%arg3, %arg5, %93)
              %96 = vector.transfer_read %arg2[%94, %95], %cst {masked = [false]} : memref<784x512xf32, affine_map<(d0, d1) -> (d0 * 512 + d1)>>, vector<8xf32>
              %97 = affine.load %2[((%arg5 + %93 * 8) floordiv 16) mod 16, (%c0_0 + %c0_5) mod 6, (((%arg5 + %93 * 8) mod 16) floordiv 8) mod 2] : memref<16x6x2xvector<8xf32>>
              %98 = addf %96, %97 : vector<8xf32>
              store %98, %1[%c0_5, %93] : memref<1x16xvector<8xf32>>
              affine.for %arg6 = 0 to 16 {
                %99 = affine.apply affine_map<(d0, d1, d2) -> (d0 + d1 + d2)>(%arg4, %c0_0, %c0_4)
                %100 = affine.apply affine_map<(d0, d1, d2) -> (d0 + d1 + d2 * 8)>(%arg3, %arg5, %arg6)
                %101 = load %1[%c0_4, %arg6] : memref<1x16xvector<8xf32>>
                vector.transfer_write %101, %arg2[%99, %100] {masked = [false]} : vector<8xf32>, memref<784x512xf32, affine_map<(d0, d1) -> (d0 * 512 + d1)>>
              } {begin = 0 : i64, end = 16 : i64, index = #accln<"index{k_i_o,9}">, subdomainIndexOrder = [#accln<"index{i_i,8}">, #accln<"index{k_i_o,9}">], subdomainSize = [1, 1]}
            } else {
              %4 = affine.apply affine_map<(d0, d1, d2) -> (d0 + d1 + d2)>(%arg4, %c0_0, %c0_2)
              %5 = affine.apply affine_map<(d0, d1, d2) -> (d0 + d1 + d2 * 8)>(%arg3, %arg5, %c0_3)
              %6 = vector.transfer_read %arg2[%4, %5], %cst : memref<784x512xf32, affine_map<(d0, d1) -> (d0 * 512 + d1)>>, vector<8xf32>
              %7 = affine.load %2[((%arg5 + %c0_3 * 8) floordiv 16) mod 16, (%c0_0 + %c0_2) mod 6, (((%arg5 + %c0_3 * 8) mod 16) floordiv 8) mod 2] : memref<16x6x2xvector<8xf32>>
              %8 = addf %6, %7 : vector<8xf32>
              store %8, %1[%c0_2, %c0_3] : memref<1x16xvector<8xf32>>
              %9 = affine.apply affine_map<(d0) -> (d0 + 1)>(%c0_3)
              %10 = affine.apply affine_map<(d0, d1, d2) -> (d0 + d1 + d2)>(%arg4, %c0_0, %c0_2)
              %11 = affine.apply affine_map<(d0, d1, d2) -> (d0 + d1 + d2 * 8)>(%arg3, %arg5, %9)
              %12 = vector.transfer_read %arg2[%10, %11], %cst : memref<784x512xf32, affine_map<(d0, d1) -> (d0 * 512 + d1)>>, vector<8xf32>
              %13 = affine.load %2[((%arg5 + %9 * 8) floordiv 16) mod 16, (%c0_0 + %c0_2) mod 6, (((%arg5 + %9 * 8) mod 16) floordiv 8) mod 2] : memref<16x6x2xvector<8xf32>>
              %14 = addf %12, %13 : vector<8xf32>
              store %14, %1[%c0_2, %9] : memref<1x16xvector<8xf32>>
              %15 = affine.apply affine_map<(d0) -> (d0 + 2)>(%c0_3)
              %16 = affine.apply affine_map<(d0, d1, d2) -> (d0 + d1 + d2)>(%arg4, %c0_0, %c0_2)
              %17 = affine.apply affine_map<(d0, d1, d2) -> (d0 + d1 + d2 * 8)>(%arg3, %arg5, %15)
              %18 = vector.transfer_read %arg2[%16, %17], %cst : memref<784x512xf32, affine_map<(d0, d1) -> (d0 * 512 + d1)>>, vector<8xf32>
              %19 = affine.load %2[((%arg5 + %15 * 8) floordiv 16) mod 16, (%c0_0 + %c0_2) mod 6, (((%arg5 + %15 * 8) mod 16) floordiv 8) mod 2] : memref<16x6x2xvector<8xf32>>
              %20 = addf %18, %19 : vector<8xf32>
              store %20, %1[%c0_2, %15] : memref<1x16xvector<8xf32>>
              %21 = affine.apply affine_map<(d0) -> (d0 + 3)>(%c0_3)
              %22 = affine.apply affine_map<(d0, d1, d2) -> (d0 + d1 + d2)>(%arg4, %c0_0, %c0_2)
              %23 = affine.apply affine_map<(d0, d1, d2) -> (d0 + d1 + d2 * 8)>(%arg3, %arg5, %21)
              %24 = vector.transfer_read %arg2[%22, %23], %cst : memref<784x512xf32, affine_map<(d0, d1) -> (d0 * 512 + d1)>>, vector<8xf32>
              %25 = affine.load %2[((%arg5 + %21 * 8) floordiv 16) mod 16, (%c0_0 + %c0_2) mod 6, (((%arg5 + %21 * 8) mod 16) floordiv 8) mod 2] : memref<16x6x2xvector<8xf32>>
              %26 = addf %24, %25 : vector<8xf32>
              store %26, %1[%c0_2, %21] : memref<1x16xvector<8xf32>>
              %27 = affine.apply affine_map<(d0) -> (d0 + 4)>(%c0_3)
              %28 = affine.apply affine_map<(d0, d1, d2) -> (d0 + d1 + d2)>(%arg4, %c0_0, %c0_2)
              %29 = affine.apply affine_map<(d0, d1, d2) -> (d0 + d1 + d2 * 8)>(%arg3, %arg5, %27)
              %30 = vector.transfer_read %arg2[%28, %29], %cst : memref<784x512xf32, affine_map<(d0, d1) -> (d0 * 512 + d1)>>, vector<8xf32>
              %31 = affine.load %2[((%arg5 + %27 * 8) floordiv 16) mod 16, (%c0_0 + %c0_2) mod 6, (((%arg5 + %27 * 8) mod 16) floordiv 8) mod 2] : memref<16x6x2xvector<8xf32>>
              %32 = addf %30, %31 : vector<8xf32>
              store %32, %1[%c0_2, %27] : memref<1x16xvector<8xf32>>
              %33 = affine.apply affine_map<(d0) -> (d0 + 5)>(%c0_3)
              %34 = affine.apply affine_map<(d0, d1, d2) -> (d0 + d1 + d2)>(%arg4, %c0_0, %c0_2)
              %35 = affine.apply affine_map<(d0, d1, d2) -> (d0 + d1 + d2 * 8)>(%arg3, %arg5, %33)
              %36 = vector.transfer_read %arg2[%34, %35], %cst : memref<784x512xf32, affine_map<(d0, d1) -> (d0 * 512 + d1)>>, vector<8xf32>
              %37 = affine.load %2[((%arg5 + %33 * 8) floordiv 16) mod 16, (%c0_0 + %c0_2) mod 6, (((%arg5 + %33 * 8) mod 16) floordiv 8) mod 2] : memref<16x6x2xvector<8xf32>>
              %38 = addf %36, %37 : vector<8xf32>
              store %38, %1[%c0_2, %33] : memref<1x16xvector<8xf32>>
              %39 = affine.apply affine_map<(d0) -> (d0 + 6)>(%c0_3)
              %40 = affine.apply affine_map<(d0, d1, d2) -> (d0 + d1 + d2)>(%arg4, %c0_0, %c0_2)
              %41 = affine.apply affine_map<(d0, d1, d2) -> (d0 + d1 + d2 * 8)>(%arg3, %arg5, %39)
              %42 = vector.transfer_read %arg2[%40, %41], %cst : memref<784x512xf32, affine_map<(d0, d1) -> (d0 * 512 + d1)>>, vector<8xf32>
              %43 = affine.load %2[((%arg5 + %39 * 8) floordiv 16) mod 16, (%c0_0 + %c0_2) mod 6, (((%arg5 + %39 * 8) mod 16) floordiv 8) mod 2] : memref<16x6x2xvector<8xf32>>
              %44 = addf %42, %43 : vector<8xf32>
              store %44, %1[%c0_2, %39] : memref<1x16xvector<8xf32>>
              %45 = affine.apply affine_map<(d0) -> (d0 + 7)>(%c0_3)
              %46 = affine.apply affine_map<(d0, d1, d2) -> (d0 + d1 + d2)>(%arg4, %c0_0, %c0_2)
              %47 = affine.apply affine_map<(d0, d1, d2) -> (d0 + d1 + d2 * 8)>(%arg3, %arg5, %45)
              %48 = vector.transfer_read %arg2[%46, %47], %cst : memref<784x512xf32, affine_map<(d0, d1) -> (d0 * 512 + d1)>>, vector<8xf32>
              %49 = affine.load %2[((%arg5 + %45 * 8) floordiv 16) mod 16, (%c0_0 + %c0_2) mod 6, (((%arg5 + %45 * 8) mod 16) floordiv 8) mod 2] : memref<16x6x2xvector<8xf32>>
              %50 = addf %48, %49 : vector<8xf32>
              store %50, %1[%c0_2, %45] : memref<1x16xvector<8xf32>>
              %51 = affine.apply affine_map<(d0) -> (d0 + 8)>(%c0_3)
              %52 = affine.apply affine_map<(d0, d1, d2) -> (d0 + d1 + d2)>(%arg4, %c0_0, %c0_2)
              %53 = affine.apply affine_map<(d0, d1, d2) -> (d0 + d1 + d2 * 8)>(%arg3, %arg5, %51)
              %54 = vector.transfer_read %arg2[%52, %53], %cst : memref<784x512xf32, affine_map<(d0, d1) -> (d0 * 512 + d1)>>, vector<8xf32>
              %55 = affine.load %2[((%arg5 + %51 * 8) floordiv 16) mod 16, (%c0_0 + %c0_2) mod 6, (((%arg5 + %51 * 8) mod 16) floordiv 8) mod 2] : memref<16x6x2xvector<8xf32>>
              %56 = addf %54, %55 : vector<8xf32>
              store %56, %1[%c0_2, %51] : memref<1x16xvector<8xf32>>
              %57 = affine.apply affine_map<(d0) -> (d0 + 9)>(%c0_3)
              %58 = affine.apply affine_map<(d0, d1, d2) -> (d0 + d1 + d2)>(%arg4, %c0_0, %c0_2)
              %59 = affine.apply affine_map<(d0, d1, d2) -> (d0 + d1 + d2 * 8)>(%arg3, %arg5, %57)
              %60 = vector.transfer_read %arg2[%58, %59], %cst : memref<784x512xf32, affine_map<(d0, d1) -> (d0 * 512 + d1)>>, vector<8xf32>
              %61 = affine.load %2[((%arg5 + %57 * 8) floordiv 16) mod 16, (%c0_0 + %c0_2) mod 6, (((%arg5 + %57 * 8) mod 16) floordiv 8) mod 2] : memref<16x6x2xvector<8xf32>>
              %62 = addf %60, %61 : vector<8xf32>
              store %62, %1[%c0_2, %57] : memref<1x16xvector<8xf32>>
              %63 = affine.apply affine_map<(d0) -> (d0 + 10)>(%c0_3)
              %64 = affine.apply affine_map<(d0, d1, d2) -> (d0 + d1 + d2)>(%arg4, %c0_0, %c0_2)
              %65 = affine.apply affine_map<(d0, d1, d2) -> (d0 + d1 + d2 * 8)>(%arg3, %arg5, %63)
              %66 = vector.transfer_read %arg2[%64, %65], %cst : memref<784x512xf32, affine_map<(d0, d1) -> (d0 * 512 + d1)>>, vector<8xf32>
              %67 = affine.load %2[((%arg5 + %63 * 8) floordiv 16) mod 16, (%c0_0 + %c0_2) mod 6, (((%arg5 + %63 * 8) mod 16) floordiv 8) mod 2] : memref<16x6x2xvector<8xf32>>
              %68 = addf %66, %67 : vector<8xf32>
              store %68, %1[%c0_2, %63] : memref<1x16xvector<8xf32>>
              %69 = affine.apply affine_map<(d0) -> (d0 + 11)>(%c0_3)
              %70 = affine.apply affine_map<(d0, d1, d2) -> (d0 + d1 + d2)>(%arg4, %c0_0, %c0_2)
              %71 = affine.apply affine_map<(d0, d1, d2) -> (d0 + d1 + d2 * 8)>(%arg3, %arg5, %69)
              %72 = vector.transfer_read %arg2[%70, %71], %cst : memref<784x512xf32, affine_map<(d0, d1) -> (d0 * 512 + d1)>>, vector<8xf32>
              %73 = affine.load %2[((%arg5 + %69 * 8) floordiv 16) mod 16, (%c0_0 + %c0_2) mod 6, (((%arg5 + %69 * 8) mod 16) floordiv 8) mod 2] : memref<16x6x2xvector<8xf32>>
              %74 = addf %72, %73 : vector<8xf32>
              store %74, %1[%c0_2, %69] : memref<1x16xvector<8xf32>>
              %75 = affine.apply affine_map<(d0) -> (d0 + 12)>(%c0_3)
              %76 = affine.apply affine_map<(d0, d1, d2) -> (d0 + d1 + d2)>(%arg4, %c0_0, %c0_2)
              %77 = affine.apply affine_map<(d0, d1, d2) -> (d0 + d1 + d2 * 8)>(%arg3, %arg5, %75)
              %78 = vector.transfer_read %arg2[%76, %77], %cst : memref<784x512xf32, affine_map<(d0, d1) -> (d0 * 512 + d1)>>, vector<8xf32>
              %79 = affine.load %2[((%arg5 + %75 * 8) floordiv 16) mod 16, (%c0_0 + %c0_2) mod 6, (((%arg5 + %75 * 8) mod 16) floordiv 8) mod 2] : memref<16x6x2xvector<8xf32>>
              %80 = addf %78, %79 : vector<8xf32>
              store %80, %1[%c0_2, %75] : memref<1x16xvector<8xf32>>
              %81 = affine.apply affine_map<(d0) -> (d0 + 13)>(%c0_3)
              %82 = affine.apply affine_map<(d0, d1, d2) -> (d0 + d1 + d2)>(%arg4, %c0_0, %c0_2)
              %83 = affine.apply affine_map<(d0, d1, d2) -> (d0 + d1 + d2 * 8)>(%arg3, %arg5, %81)
              %84 = vector.transfer_read %arg2[%82, %83], %cst : memref<784x512xf32, affine_map<(d0, d1) -> (d0 * 512 + d1)>>, vector<8xf32>
              %85 = affine.load %2[((%arg5 + %81 * 8) floordiv 16) mod 16, (%c0_0 + %c0_2) mod 6, (((%arg5 + %81 * 8) mod 16) floordiv 8) mod 2] : memref<16x6x2xvector<8xf32>>
              %86 = addf %84, %85 : vector<8xf32>
              store %86, %1[%c0_2, %81] : memref<1x16xvector<8xf32>>
              %87 = affine.apply affine_map<(d0) -> (d0 + 14)>(%c0_3)
              %88 = affine.apply affine_map<(d0, d1, d2) -> (d0 + d1 + d2)>(%arg4, %c0_0, %c0_2)
              %89 = affine.apply affine_map<(d0, d1, d2) -> (d0 + d1 + d2 * 8)>(%arg3, %arg5, %87)
              %90 = vector.transfer_read %arg2[%88, %89], %cst : memref<784x512xf32, affine_map<(d0, d1) -> (d0 * 512 + d1)>>, vector<8xf32>
              %91 = affine.load %2[((%arg5 + %87 * 8) floordiv 16) mod 16, (%c0_0 + %c0_2) mod 6, (((%arg5 + %87 * 8) mod 16) floordiv 8) mod 2] : memref<16x6x2xvector<8xf32>>
              %92 = addf %90, %91 : vector<8xf32>
              store %92, %1[%c0_2, %87] : memref<1x16xvector<8xf32>>
              %93 = affine.apply affine_map<(d0) -> (d0 + 15)>(%c0_3)
              %94 = affine.apply affine_map<(d0, d1, d2) -> (d0 + d1 + d2)>(%arg4, %c0_0, %c0_2)
              %95 = affine.apply affine_map<(d0, d1, d2) -> (d0 + d1 + d2 * 8)>(%arg3, %arg5, %93)
              %96 = vector.transfer_read %arg2[%94, %95], %cst : memref<784x512xf32, affine_map<(d0, d1) -> (d0 * 512 + d1)>>, vector<8xf32>
              %97 = affine.load %2[((%arg5 + %93 * 8) floordiv 16) mod 16, (%c0_0 + %c0_2) mod 6, (((%arg5 + %93 * 8) mod 16) floordiv 8) mod 2] : memref<16x6x2xvector<8xf32>>
              %98 = addf %96, %97 : vector<8xf32>
              store %98, %1[%c0_2, %93] : memref<1x16xvector<8xf32>>
              affine.for %arg6 = 0 to 16 {
                %99 = affine.apply affine_map<(d0, d1, d2) -> (d0 + d1 + d2)>(%arg4, %c0_0, %c0_1)
                %100 = affine.apply affine_map<(d0, d1, d2) -> (d0 + d1 + d2 * 8)>(%arg3, %arg5, %arg6)
                %101 = load %1[%c0_1, %arg6] : memref<1x16xvector<8xf32>>
                vector.transfer_write %101, %arg2[%99, %100] : vector<8xf32>, memref<784x512xf32, affine_map<(d0, d1) -> (d0 * 512 + d1)>>
              } {begin = 0 : i64, end = 16 : i64, index = #accln<"index{j_i_o,13}">, subdomainIndexOrder = [#accln<"index{i_i_i,12}">, #accln<"index{j_i_o,13}">], subdomainSize = [1, 1]}
            }
          } {begin = 0 : i64, end = 256 : i64, index = #accln<"index{j_i,4}">, subdomainIndexOrder = [#accln<"index{i,0}">, #accln<"index{j,1}">], subdomainSize = [1, 128]}
        } {begin = 0 : i64, end = 784 : i64, index = #accln<"index{i_o,7}">, subdomainIndexOrder = [#accln<"index{i,0}">, #accln<"index{j,1}">, #accln<"index{k,2}">], subdomainSize = [1, 256, 128]}
      } {begin = 0 : i64, end = 512 : i64, index = #accln<"index{j_o,3}">, subdomainIndexOrder = [#accln<"index{i,0}">, #accln<"index{j,1}">, #accln<"index{k,2}">], subdomainSize = [784, 256, 128]}
      return
    }
    func @optimized_matmul_py_4a6286d9(%arg0: memref<784x128xf32, affine_map<(d0, d1) -> (d0 * 128 + d1)>>, %arg1: memref<128x512xf32, affine_map<(d0, d1) -> (d0 * 512 + d1)>>, %arg2: memref<784x512xf32, affine_map<(d0, d1) -> (d0 * 512 + d1)>>) attributes {exec_target = 0 : i64, accv.base_name = "optimized_matmul_py", accv.emit_header_decl, accv.emit_raw_pointer_api} {
      accv.launch_func @optimized_matmul_py_4a6286d9_impl_17630232307017152746(%arg0, %arg1, %arg2) {exec_target = 0 : i64} : (memref<784x128xf32, affine_map<(d0, d1) -> (d0 * 128 + d1)>>, memref<128x512xf32, affine_map<(d0, d1) -> (d0 * 512 + d1)>>, memref<784x512xf32, affine_map<(d0, d1) -> (d0 * 512 + d1)>>) -> ()
      return
    }
  }
}
