module @optimized_matmul attributes {llvm.data_layout = "e-m:w-p270:32:32-p271:32:32-p272:64:64-i64:64-f80:128-n8:16:32:64-S128"} {
  accv.module "optimized_matmul"  {
    "accv.global"() {sym_name = "cache_17", type = memref<16x128x2xvector<8xf32>>} : () -> ()
    "accv.global"() {sym_name = "cache_16", type = memref<16x6x2xvector<8xf32>>} : () -> ()
    func @optimized_matmul_py_4a6286d9_impl_17630232307017152746(%arg0: memref<784x128xf32, affine_map<(d0, d1) -> (d0 * 128 + d1)>>, %arg1: memref<128x512xf32, affine_map<(d0, d1) -> (d0 * 512 + d1)>>, %arg2: memref<784x512xf32, affine_map<(d0, d1) -> (d0 * 512 + d1)>>) attributes {exec_target = 0 : i64, sym_visibility = "nested"} {
      %c0 = constant 0 : index
      %cst = constant 0.000000e+00 : f32
      %c0_i64 = constant 0 : i64
      %c1_i64 = constant 1 : i64
      %c2_i64 = constant 2 : i64
      %c3_i64 = constant 3 : i64
      %c4_i64 = constant 4 : i64
      %c5_i64 = constant 5 : i64
      %c6_i64 = constant 6 : i64
      %c7_i64 = constant 7 : i64
      %cst_0 = constant dense<0.000000e+00> : vector<8xf32>
      %c1 = constant 1 : index
      %c2 = constant 2 : index
      %c3 = constant 3 : index
      %c4 = constant 4 : index
      %c5 = constant 5 : index
      %c6 = constant 6 : index
      %c7 = constant 7 : index
      %c8 = constant 8 : index
      %c9 = constant 9 : index
      %c10 = constant 10 : index
      %c11 = constant 11 : index
      %c12 = constant 12 : index
      %c13 = constant 13 : index
      %c14 = constant 14 : index
      %c15 = constant 15 : index
      %0 = alloca() {alignment = 32 : i64} : memref<1x16xvector<8xf32>>
      %1 = alloca() {alignment = 32 : i64} : memref<1x16xvector<8xf32>>
      %2 = "accv.ref_global"() {global_name = @cache_16} : () -> memref<16x6x2xvector<8xf32>>
      %3 = "accv.ref_global"() {global_name = @cache_17} : () -> memref<16x128x2xvector<8xf32>>
      affine.for %arg3 = 0 to 512 step 256 {
        affine.for %arg4 = 0 to 128 {
          affine.for %arg5 = 0 to 256 step 128 {
            affine.if affine_set<() : (0 == 0)>() {
              %4 = affine.apply affine_map<(d0, d1) -> (d0 + d1)>(%arg3, %arg5)
              %5 = vector.transfer_read %arg1[%arg4, %4], %cst {masked = [false]} : memref<128x512xf32, affine_map<(d0, d1) -> (d0 * 512 + d1)>>, vector<8xf32>
              store %5, %0[%c0, %c0] : memref<1x16xvector<8xf32>>
              %6 = affine.apply affine_map<(d0, d1) -> (d0 + d1 + 8)>(%arg3, %arg5)
              %7 = vector.transfer_read %arg1[%arg4, %6], %cst {masked = [false]} : memref<128x512xf32, affine_map<(d0, d1) -> (d0 * 512 + d1)>>, vector<8xf32>
              store %7, %0[%c0, %c1] : memref<1x16xvector<8xf32>>
              %8 = affine.apply affine_map<(d0, d1) -> (d0 + d1 + 16)>(%arg3, %arg5)
              %9 = vector.transfer_read %arg1[%arg4, %8], %cst {masked = [false]} : memref<128x512xf32, affine_map<(d0, d1) -> (d0 * 512 + d1)>>, vector<8xf32>
              store %9, %0[%c0, %c2] : memref<1x16xvector<8xf32>>
              %10 = affine.apply affine_map<(d0, d1) -> (d0 + d1 + 24)>(%arg3, %arg5)
              %11 = vector.transfer_read %arg1[%arg4, %10], %cst {masked = [false]} : memref<128x512xf32, affine_map<(d0, d1) -> (d0 * 512 + d1)>>, vector<8xf32>
              store %11, %0[%c0, %c3] : memref<1x16xvector<8xf32>>
              %12 = affine.apply affine_map<(d0, d1) -> (d0 + d1 + 32)>(%arg3, %arg5)
              %13 = vector.transfer_read %arg1[%arg4, %12], %cst {masked = [false]} : memref<128x512xf32, affine_map<(d0, d1) -> (d0 * 512 + d1)>>, vector<8xf32>
              store %13, %0[%c0, %c4] : memref<1x16xvector<8xf32>>
              %14 = affine.apply affine_map<(d0, d1) -> (d0 + d1 + 40)>(%arg3, %arg5)
              %15 = vector.transfer_read %arg1[%arg4, %14], %cst {masked = [false]} : memref<128x512xf32, affine_map<(d0, d1) -> (d0 * 512 + d1)>>, vector<8xf32>
              store %15, %0[%c0, %c5] : memref<1x16xvector<8xf32>>
              %16 = affine.apply affine_map<(d0, d1) -> (d0 + d1 + 48)>(%arg3, %arg5)
              %17 = vector.transfer_read %arg1[%arg4, %16], %cst {masked = [false]} : memref<128x512xf32, affine_map<(d0, d1) -> (d0 * 512 + d1)>>, vector<8xf32>
              store %17, %0[%c0, %c6] : memref<1x16xvector<8xf32>>
              %18 = affine.apply affine_map<(d0, d1) -> (d0 + d1 + 56)>(%arg3, %arg5)
              %19 = vector.transfer_read %arg1[%arg4, %18], %cst {masked = [false]} : memref<128x512xf32, affine_map<(d0, d1) -> (d0 * 512 + d1)>>, vector<8xf32>
              store %19, %0[%c0, %c7] : memref<1x16xvector<8xf32>>
              %20 = affine.apply affine_map<(d0, d1) -> (d0 + d1 + 64)>(%arg3, %arg5)
              %21 = vector.transfer_read %arg1[%arg4, %20], %cst {masked = [false]} : memref<128x512xf32, affine_map<(d0, d1) -> (d0 * 512 + d1)>>, vector<8xf32>
              store %21, %0[%c0, %c8] : memref<1x16xvector<8xf32>>
              %22 = affine.apply affine_map<(d0, d1) -> (d0 + d1 + 72)>(%arg3, %arg5)
              %23 = vector.transfer_read %arg1[%arg4, %22], %cst {masked = [false]} : memref<128x512xf32, affine_map<(d0, d1) -> (d0 * 512 + d1)>>, vector<8xf32>
              store %23, %0[%c0, %c9] : memref<1x16xvector<8xf32>>
              %24 = affine.apply affine_map<(d0, d1) -> (d0 + d1 + 80)>(%arg3, %arg5)
              %25 = vector.transfer_read %arg1[%arg4, %24], %cst {masked = [false]} : memref<128x512xf32, affine_map<(d0, d1) -> (d0 * 512 + d1)>>, vector<8xf32>
              store %25, %0[%c0, %c10] : memref<1x16xvector<8xf32>>
              %26 = affine.apply affine_map<(d0, d1) -> (d0 + d1 + 88)>(%arg3, %arg5)
              %27 = vector.transfer_read %arg1[%arg4, %26], %cst {masked = [false]} : memref<128x512xf32, affine_map<(d0, d1) -> (d0 * 512 + d1)>>, vector<8xf32>
              store %27, %0[%c0, %c11] : memref<1x16xvector<8xf32>>
              %28 = affine.apply affine_map<(d0, d1) -> (d0 + d1 + 96)>(%arg3, %arg5)
              %29 = vector.transfer_read %arg1[%arg4, %28], %cst {masked = [false]} : memref<128x512xf32, affine_map<(d0, d1) -> (d0 * 512 + d1)>>, vector<8xf32>
              store %29, %0[%c0, %c12] : memref<1x16xvector<8xf32>>
              %30 = affine.apply affine_map<(d0, d1) -> (d0 + d1 + 104)>(%arg3, %arg5)
              %31 = vector.transfer_read %arg1[%arg4, %30], %cst {masked = [false]} : memref<128x512xf32, affine_map<(d0, d1) -> (d0 * 512 + d1)>>, vector<8xf32>
              store %31, %0[%c0, %c13] : memref<1x16xvector<8xf32>>
              %32 = affine.apply affine_map<(d0, d1) -> (d0 + d1 + 112)>(%arg3, %arg5)
              %33 = vector.transfer_read %arg1[%arg4, %32], %cst {masked = [false]} : memref<128x512xf32, affine_map<(d0, d1) -> (d0 * 512 + d1)>>, vector<8xf32>
              store %33, %0[%c0, %c14] : memref<1x16xvector<8xf32>>
              %34 = affine.apply affine_map<(d0, d1) -> (d0 + d1 + 120)>(%arg3, %arg5)
              %35 = vector.transfer_read %arg1[%arg4, %34], %cst {masked = [false]} : memref<128x512xf32, affine_map<(d0, d1) -> (d0 * 512 + d1)>>, vector<8xf32>
              store %35, %0[%c0, %c15] : memref<1x16xvector<8xf32>>
              %36 = load %0[%c0, %c0] : memref<1x16xvector<8xf32>>
              affine.store %36, %3[(%arg5 floordiv 16) mod 16, %arg4 mod 128, ((%arg5 mod 16) floordiv 8) mod 2] : memref<16x128x2xvector<8xf32>>
              %37 = load %0[%c0, %c1] : memref<1x16xvector<8xf32>>
              affine.store %37, %3[((%arg5 + 8) floordiv 16) mod 16, %arg4 mod 128, %arg5 floordiv 8 - ((%arg5 + 8) floordiv 16) * 2 - ((%arg5 floordiv 8 - ((%arg5 + 8) floordiv 16) * 2 + 1) floordiv 2) * 2 + 1] : memref<16x128x2xvector<8xf32>>
              %38 = load %0[%c0, %c2] : memref<1x16xvector<8xf32>>
              affine.store %38, %3[%arg5 floordiv 16 - ((%arg5 floordiv 16 + 1) floordiv 16) * 16 + 1, %arg4 mod 128, ((%arg5 mod 16) floordiv 8) mod 2] : memref<16x128x2xvector<8xf32>>
              %39 = load %0[%c0, %c3] : memref<1x16xvector<8xf32>>
              affine.store %39, %3[((%arg5 + 24) floordiv 16) mod 16, %arg4 mod 128, %arg5 floordiv 8 - ((%arg5 + 24) floordiv 16) * 2 - ((%arg5 floordiv 8 - ((%arg5 + 24) floordiv 16) * 2 + 3) floordiv 2) * 2 + 3] : memref<16x128x2xvector<8xf32>>
              %40 = load %0[%c0, %c4] : memref<1x16xvector<8xf32>>
              affine.store %40, %3[%arg5 floordiv 16 - ((%arg5 floordiv 16 + 2) floordiv 16) * 16 + 2, %arg4 mod 128, ((%arg5 mod 16) floordiv 8) mod 2] : memref<16x128x2xvector<8xf32>>
              %41 = load %0[%c0, %c5] : memref<1x16xvector<8xf32>>
              affine.store %41, %3[((%arg5 + 40) floordiv 16) mod 16, %arg4 mod 128, %arg5 floordiv 8 - ((%arg5 + 40) floordiv 16) * 2 - ((%arg5 floordiv 8 - ((%arg5 + 40) floordiv 16) * 2 + 5) floordiv 2) * 2 + 5] : memref<16x128x2xvector<8xf32>>
              %42 = load %0[%c0, %c6] : memref<1x16xvector<8xf32>>
              affine.store %42, %3[%arg5 floordiv 16 - ((%arg5 floordiv 16 + 3) floordiv 16) * 16 + 3, %arg4 mod 128, ((%arg5 mod 16) floordiv 8) mod 2] : memref<16x128x2xvector<8xf32>>
              %43 = load %0[%c0, %c7] : memref<1x16xvector<8xf32>>
              affine.store %43, %3[((%arg5 + 56) floordiv 16) mod 16, %arg4 mod 128, %arg5 floordiv 8 - ((%arg5 + 56) floordiv 16) * 2 - ((%arg5 floordiv 8 - ((%arg5 + 56) floordiv 16) * 2 + 7) floordiv 2) * 2 + 7] : memref<16x128x2xvector<8xf32>>
              %44 = load %0[%c0, %c8] : memref<1x16xvector<8xf32>>
              affine.store %44, %3[%arg5 floordiv 16 - ((%arg5 floordiv 16 + 4) floordiv 16) * 16 + 4, %arg4 mod 128, ((%arg5 mod 16) floordiv 8) mod 2] : memref<16x128x2xvector<8xf32>>
              %45 = load %0[%c0, %c9] : memref<1x16xvector<8xf32>>
              affine.store %45, %3[((%arg5 + 72) floordiv 16) mod 16, %arg4 mod 128, %arg5 floordiv 8 - ((%arg5 + 72) floordiv 16) * 2 - ((%arg5 floordiv 8 - ((%arg5 + 72) floordiv 16) * 2 + 9) floordiv 2) * 2 + 9] : memref<16x128x2xvector<8xf32>>
              %46 = load %0[%c0, %c10] : memref<1x16xvector<8xf32>>
              affine.store %46, %3[%arg5 floordiv 16 - ((%arg5 floordiv 16 + 5) floordiv 16) * 16 + 5, %arg4 mod 128, ((%arg5 mod 16) floordiv 8) mod 2] : memref<16x128x2xvector<8xf32>>
              %47 = load %0[%c0, %c11] : memref<1x16xvector<8xf32>>
              affine.store %47, %3[((%arg5 + 88) floordiv 16) mod 16, %arg4 mod 128, %arg5 floordiv 8 - ((%arg5 + 88) floordiv 16) * 2 - ((%arg5 floordiv 8 - ((%arg5 + 88) floordiv 16) * 2 + 11) floordiv 2) * 2 + 11] : memref<16x128x2xvector<8xf32>>
              %48 = load %0[%c0, %c12] : memref<1x16xvector<8xf32>>
              affine.store %48, %3[%arg5 floordiv 16 - ((%arg5 floordiv 16 + 6) floordiv 16) * 16 + 6, %arg4 mod 128, ((%arg5 mod 16) floordiv 8) mod 2] : memref<16x128x2xvector<8xf32>>
              %49 = load %0[%c0, %c13] : memref<1x16xvector<8xf32>>
              affine.store %49, %3[((%arg5 + 104) floordiv 16) mod 16, %arg4 mod 128, %arg5 floordiv 8 - ((%arg5 + 104) floordiv 16) * 2 - ((%arg5 floordiv 8 - ((%arg5 + 104) floordiv 16) * 2 + 13) floordiv 2) * 2 + 13] : memref<16x128x2xvector<8xf32>>
              %50 = load %0[%c0, %c14] : memref<1x16xvector<8xf32>>
              affine.store %50, %3[%arg5 floordiv 16 - ((%arg5 floordiv 16 + 7) floordiv 16) * 16 + 7, %arg4 mod 128, ((%arg5 mod 16) floordiv 8) mod 2] : memref<16x128x2xvector<8xf32>>
              %51 = load %0[%c0, %c15] : memref<1x16xvector<8xf32>>
              affine.store %51, %3[((%arg5 + 120) floordiv 16) mod 16, %arg4 mod 128, %arg5 floordiv 8 - ((%arg5 + 120) floordiv 16) * 2 - ((%arg5 floordiv 8 - ((%arg5 + 120) floordiv 16) * 2 + 15) floordiv 2) * 2 + 15] : memref<16x128x2xvector<8xf32>>
            } else {
              %4 = affine.apply affine_map<(d0, d1) -> (d0 + d1)>(%arg3, %arg5)
              %5 = vector.transfer_read %arg1[%arg4, %4], %cst : memref<128x512xf32, affine_map<(d0, d1) -> (d0 * 512 + d1)>>, vector<8xf32>
              store %5, %0[%c0, %c0] : memref<1x16xvector<8xf32>>
              %6 = affine.apply affine_map<(d0, d1) -> (d0 + d1 + 8)>(%arg3, %arg5)
              %7 = vector.transfer_read %arg1[%arg4, %6], %cst : memref<128x512xf32, affine_map<(d0, d1) -> (d0 * 512 + d1)>>, vector<8xf32>
              store %7, %0[%c0, %c1] : memref<1x16xvector<8xf32>>
              %8 = affine.apply affine_map<(d0, d1) -> (d0 + d1 + 16)>(%arg3, %arg5)
              %9 = vector.transfer_read %arg1[%arg4, %8], %cst : memref<128x512xf32, affine_map<(d0, d1) -> (d0 * 512 + d1)>>, vector<8xf32>
              store %9, %0[%c0, %c2] : memref<1x16xvector<8xf32>>
              %10 = affine.apply affine_map<(d0, d1) -> (d0 + d1 + 24)>(%arg3, %arg5)
              %11 = vector.transfer_read %arg1[%arg4, %10], %cst : memref<128x512xf32, affine_map<(d0, d1) -> (d0 * 512 + d1)>>, vector<8xf32>
              store %11, %0[%c0, %c3] : memref<1x16xvector<8xf32>>
              %12 = affine.apply affine_map<(d0, d1) -> (d0 + d1 + 32)>(%arg3, %arg5)
              %13 = vector.transfer_read %arg1[%arg4, %12], %cst : memref<128x512xf32, affine_map<(d0, d1) -> (d0 * 512 + d1)>>, vector<8xf32>
              store %13, %0[%c0, %c4] : memref<1x16xvector<8xf32>>
              %14 = affine.apply affine_map<(d0, d1) -> (d0 + d1 + 40)>(%arg3, %arg5)
              %15 = vector.transfer_read %arg1[%arg4, %14], %cst : memref<128x512xf32, affine_map<(d0, d1) -> (d0 * 512 + d1)>>, vector<8xf32>
              store %15, %0[%c0, %c5] : memref<1x16xvector<8xf32>>
              %16 = affine.apply affine_map<(d0, d1) -> (d0 + d1 + 48)>(%arg3, %arg5)
              %17 = vector.transfer_read %arg1[%arg4, %16], %cst : memref<128x512xf32, affine_map<(d0, d1) -> (d0 * 512 + d1)>>, vector<8xf32>
              store %17, %0[%c0, %c6] : memref<1x16xvector<8xf32>>
              %18 = affine.apply affine_map<(d0, d1) -> (d0 + d1 + 56)>(%arg3, %arg5)
              %19 = vector.transfer_read %arg1[%arg4, %18], %cst : memref<128x512xf32, affine_map<(d0, d1) -> (d0 * 512 + d1)>>, vector<8xf32>
              store %19, %0[%c0, %c7] : memref<1x16xvector<8xf32>>
              %20 = affine.apply affine_map<(d0, d1) -> (d0 + d1 + 64)>(%arg3, %arg5)
              %21 = vector.transfer_read %arg1[%arg4, %20], %cst : memref<128x512xf32, affine_map<(d0, d1) -> (d0 * 512 + d1)>>, vector<8xf32>
              store %21, %0[%c0, %c8] : memref<1x16xvector<8xf32>>
              %22 = affine.apply affine_map<(d0, d1) -> (d0 + d1 + 72)>(%arg3, %arg5)
              %23 = vector.transfer_read %arg1[%arg4, %22], %cst : memref<128x512xf32, affine_map<(d0, d1) -> (d0 * 512 + d1)>>, vector<8xf32>
              store %23, %0[%c0, %c9] : memref<1x16xvector<8xf32>>
              %24 = affine.apply affine_map<(d0, d1) -> (d0 + d1 + 80)>(%arg3, %arg5)
              %25 = vector.transfer_read %arg1[%arg4, %24], %cst : memref<128x512xf32, affine_map<(d0, d1) -> (d0 * 512 + d1)>>, vector<8xf32>
              store %25, %0[%c0, %c10] : memref<1x16xvector<8xf32>>
              %26 = affine.apply affine_map<(d0, d1) -> (d0 + d1 + 88)>(%arg3, %arg5)
              %27 = vector.transfer_read %arg1[%arg4, %26], %cst : memref<128x512xf32, affine_map<(d0, d1) -> (d0 * 512 + d1)>>, vector<8xf32>
              store %27, %0[%c0, %c11] : memref<1x16xvector<8xf32>>
              %28 = affine.apply affine_map<(d0, d1) -> (d0 + d1 + 96)>(%arg3, %arg5)
              %29 = vector.transfer_read %arg1[%arg4, %28], %cst : memref<128x512xf32, affine_map<(d0, d1) -> (d0 * 512 + d1)>>, vector<8xf32>
              store %29, %0[%c0, %c12] : memref<1x16xvector<8xf32>>
              %30 = affine.apply affine_map<(d0, d1) -> (d0 + d1 + 104)>(%arg3, %arg5)
              %31 = vector.transfer_read %arg1[%arg4, %30], %cst : memref<128x512xf32, affine_map<(d0, d1) -> (d0 * 512 + d1)>>, vector<8xf32>
              store %31, %0[%c0, %c13] : memref<1x16xvector<8xf32>>
              %32 = affine.apply affine_map<(d0, d1) -> (d0 + d1 + 112)>(%arg3, %arg5)
              %33 = vector.transfer_read %arg1[%arg4, %32], %cst : memref<128x512xf32, affine_map<(d0, d1) -> (d0 * 512 + d1)>>, vector<8xf32>
              store %33, %0[%c0, %c14] : memref<1x16xvector<8xf32>>
              %34 = affine.apply affine_map<(d0, d1) -> (d0 + d1 + 120)>(%arg3, %arg5)
              %35 = vector.transfer_read %arg1[%arg4, %34], %cst : memref<128x512xf32, affine_map<(d0, d1) -> (d0 * 512 + d1)>>, vector<8xf32>
              store %35, %0[%c0, %c15] : memref<1x16xvector<8xf32>>
              %36 = load %0[%c0, %c0] : memref<1x16xvector<8xf32>>
              affine.store %36, %3[(%arg5 floordiv 16) mod 16, %arg4 mod 128, ((%arg5 mod 16) floordiv 8) mod 2] : memref<16x128x2xvector<8xf32>>
              %37 = load %0[%c0, %c1] : memref<1x16xvector<8xf32>>
              affine.store %37, %3[((%arg5 + 8) floordiv 16) mod 16, %arg4 mod 128, %arg5 floordiv 8 - ((%arg5 + 8) floordiv 16) * 2 - ((%arg5 floordiv 8 - ((%arg5 + 8) floordiv 16) * 2 + 1) floordiv 2) * 2 + 1] : memref<16x128x2xvector<8xf32>>
              %38 = load %0[%c0, %c2] : memref<1x16xvector<8xf32>>
              affine.store %38, %3[%arg5 floordiv 16 - ((%arg5 floordiv 16 + 1) floordiv 16) * 16 + 1, %arg4 mod 128, ((%arg5 mod 16) floordiv 8) mod 2] : memref<16x128x2xvector<8xf32>>
              %39 = load %0[%c0, %c3] : memref<1x16xvector<8xf32>>
              affine.store %39, %3[((%arg5 + 24) floordiv 16) mod 16, %arg4 mod 128, %arg5 floordiv 8 - ((%arg5 + 24) floordiv 16) * 2 - ((%arg5 floordiv 8 - ((%arg5 + 24) floordiv 16) * 2 + 3) floordiv 2) * 2 + 3] : memref<16x128x2xvector<8xf32>>
              %40 = load %0[%c0, %c4] : memref<1x16xvector<8xf32>>
              affine.store %40, %3[%arg5 floordiv 16 - ((%arg5 floordiv 16 + 2) floordiv 16) * 16 + 2, %arg4 mod 128, ((%arg5 mod 16) floordiv 8) mod 2] : memref<16x128x2xvector<8xf32>>
              %41 = load %0[%c0, %c5] : memref<1x16xvector<8xf32>>
              affine.store %41, %3[((%arg5 + 40) floordiv 16) mod 16, %arg4 mod 128, %arg5 floordiv 8 - ((%arg5 + 40) floordiv 16) * 2 - ((%arg5 floordiv 8 - ((%arg5 + 40) floordiv 16) * 2 + 5) floordiv 2) * 2 + 5] : memref<16x128x2xvector<8xf32>>
              %42 = load %0[%c0, %c6] : memref<1x16xvector<8xf32>>
              affine.store %42, %3[%arg5 floordiv 16 - ((%arg5 floordiv 16 + 3) floordiv 16) * 16 + 3, %arg4 mod 128, ((%arg5 mod 16) floordiv 8) mod 2] : memref<16x128x2xvector<8xf32>>
              %43 = load %0[%c0, %c7] : memref<1x16xvector<8xf32>>
              affine.store %43, %3[((%arg5 + 56) floordiv 16) mod 16, %arg4 mod 128, %arg5 floordiv 8 - ((%arg5 + 56) floordiv 16) * 2 - ((%arg5 floordiv 8 - ((%arg5 + 56) floordiv 16) * 2 + 7) floordiv 2) * 2 + 7] : memref<16x128x2xvector<8xf32>>
              %44 = load %0[%c0, %c8] : memref<1x16xvector<8xf32>>
              affine.store %44, %3[%arg5 floordiv 16 - ((%arg5 floordiv 16 + 4) floordiv 16) * 16 + 4, %arg4 mod 128, ((%arg5 mod 16) floordiv 8) mod 2] : memref<16x128x2xvector<8xf32>>
              %45 = load %0[%c0, %c9] : memref<1x16xvector<8xf32>>
              affine.store %45, %3[((%arg5 + 72) floordiv 16) mod 16, %arg4 mod 128, %arg5 floordiv 8 - ((%arg5 + 72) floordiv 16) * 2 - ((%arg5 floordiv 8 - ((%arg5 + 72) floordiv 16) * 2 + 9) floordiv 2) * 2 + 9] : memref<16x128x2xvector<8xf32>>
              %46 = load %0[%c0, %c10] : memref<1x16xvector<8xf32>>
              affine.store %46, %3[%arg5 floordiv 16 - ((%arg5 floordiv 16 + 5) floordiv 16) * 16 + 5, %arg4 mod 128, ((%arg5 mod 16) floordiv 8) mod 2] : memref<16x128x2xvector<8xf32>>
              %47 = load %0[%c0, %c11] : memref<1x16xvector<8xf32>>
              affine.store %47, %3[((%arg5 + 88) floordiv 16) mod 16, %arg4 mod 128, %arg5 floordiv 8 - ((%arg5 + 88) floordiv 16) * 2 - ((%arg5 floordiv 8 - ((%arg5 + 88) floordiv 16) * 2 + 11) floordiv 2) * 2 + 11] : memref<16x128x2xvector<8xf32>>
              %48 = load %0[%c0, %c12] : memref<1x16xvector<8xf32>>
              affine.store %48, %3[%arg5 floordiv 16 - ((%arg5 floordiv 16 + 6) floordiv 16) * 16 + 6, %arg4 mod 128, ((%arg5 mod 16) floordiv 8) mod 2] : memref<16x128x2xvector<8xf32>>
              %49 = load %0[%c0, %c13] : memref<1x16xvector<8xf32>>
              affine.store %49, %3[((%arg5 + 104) floordiv 16) mod 16, %arg4 mod 128, %arg5 floordiv 8 - ((%arg5 + 104) floordiv 16) * 2 - ((%arg5 floordiv 8 - ((%arg5 + 104) floordiv 16) * 2 + 13) floordiv 2) * 2 + 13] : memref<16x128x2xvector<8xf32>>
              %50 = load %0[%c0, %c14] : memref<1x16xvector<8xf32>>
              affine.store %50, %3[%arg5 floordiv 16 - ((%arg5 floordiv 16 + 7) floordiv 16) * 16 + 7, %arg4 mod 128, ((%arg5 mod 16) floordiv 8) mod 2] : memref<16x128x2xvector<8xf32>>
              %51 = load %0[%c0, %c15] : memref<1x16xvector<8xf32>>
              affine.store %51, %3[((%arg5 + 120) floordiv 16) mod 16, %arg4 mod 128, %arg5 floordiv 8 - ((%arg5 + 120) floordiv 16) * 2 - ((%arg5 floordiv 8 - ((%arg5 + 120) floordiv 16) * 2 + 15) floordiv 2) * 2 + 15] : memref<16x128x2xvector<8xf32>>
            }
          } {begin = 0 : i64, end = 256 : i64, index = #accln<"index{j_o,21}">, subdomainIndexOrder = [#accln<"index{i,17}">, #accln<"index{j,18}">], subdomainSize = [1, 128]}
        } {begin = 0 : i64, end = 128 : i64, index = #accln<"index{i_o,19}">, subdomainIndexOrder = [#accln<"index{i,17}">, #accln<"index{j,18}">], subdomainSize = [1, 256]}
        affine.for %arg4 = 0 to 784 {
          affine.for %arg5 = 0 to 16 {
            affine.for %arg6 = 0 to 6 {
              affine.for %arg7 = 0 to 2 {
                store %cst_0, %2[%arg5, %arg6, %arg7] : memref<16x6x2xvector<8xf32>>
              } {begin = 0 : i64, end = 2 : i64, index = #accln<"index{j_i_i_i,16}">, subdomainIndexOrder = [#accln<"index{j_i_i,14}">, #accln<"index{j_i_i_o,15}">, #accln<"index{j_i_i_i,16}">], subdomainSize = [1, 1, 1]}
            } {begin = 0 : i64, end = 6 : i64, index = #accln<"index{j_i_i_o,15}">, subdomainIndexOrder = [#accln<"index{j_i_i,14}">, #accln<"index{j_i_i_o,15}">, #accln<"index{j_i_i_i,16}">], subdomainSize = [1, 1, 2]}
          } {begin = 0 : i64, end = 16 : i64, index = #accln<"index{j_i_i,14}">, subdomainIndexOrder = [#accln<"index{j_i_i,14}">, #accln<"index{j_i_i_o,15}">, #accln<"index{j_i_i_i,16}">], subdomainSize = [1, 6, 2]}
          affine.for %arg5 = 0 to 256 step 16 {
            affine.for %arg6 = 0 to 128 step 4 {
              affine.for %arg7 = 0 to 0 step 6 {
                affine.for %arg8 = 0 to 4 {
                  affine.for %arg9 = 0 to 0 {
                    %4 = affine.apply affine_map<(d0, d1, d2) -> (d0 + d1 + d2)>(%arg4, %arg7, %arg9)
                    %5 = affine.apply affine_map<(d0, d1, d2) -> (d0 + d1 + d2)>(%arg4, %arg7, %arg9)
                    %6 = affine.apply affine_map<(d0, d1, d2) -> (d0 + d1 + d2)>(%arg4, %arg7, %arg9)
                    %7 = affine.apply affine_map<(d0, d1, d2) -> (d0 + d1 + d2)>(%arg4, %arg7, %arg9)
                    %8 = affine.apply affine_map<(d0, d1, d2) -> (d0 + d1 + d2)>(%arg4, %arg7, %arg9)
                    %9 = affine.apply affine_map<(d0, d1, d2) -> (d0 + d1 + d2)>(%arg4, %arg7, %arg9)
                    %10 = affine.apply affine_map<(d0, d1, d2) -> (d0 + d1 + d2)>(%arg4, %arg7, %arg9)
                    %11 = affine.apply affine_map<(d0, d1, d2) -> (d0 + d1 + d2)>(%arg4, %arg7, %arg9)
                    %12 = affine.apply affine_map<(d0, d1) -> (d0 + d1)>(%arg6, %arg8)
                    %13 = affine.apply affine_map<(d0, d1) -> (d0 + d1)>(%arg6, %arg8)
                    %14 = affine.apply affine_map<(d0, d1) -> (d0 + d1)>(%arg6, %arg8)
                    %15 = affine.apply affine_map<(d0, d1) -> (d0 + d1)>(%arg6, %arg8)
                    %16 = affine.apply affine_map<(d0, d1) -> (d0 + d1)>(%arg6, %arg8)
                    %17 = affine.apply affine_map<(d0, d1) -> (d0 + d1)>(%arg6, %arg8)
                    %18 = affine.apply affine_map<(d0, d1) -> (d0 + d1)>(%arg6, %arg8)
                    %19 = affine.apply affine_map<(d0, d1) -> (d0 + d1)>(%arg6, %arg8)
                    %20 = load %arg0[%4, %12] : memref<784x128xf32, affine_map<(d0, d1) -> (d0 * 128 + d1)>>
                    %21 = load %arg0[%5, %13] : memref<784x128xf32, affine_map<(d0, d1) -> (d0 * 128 + d1)>>
                    %22 = load %arg0[%6, %14] : memref<784x128xf32, affine_map<(d0, d1) -> (d0 * 128 + d1)>>
                    %23 = load %arg0[%7, %15] : memref<784x128xf32, affine_map<(d0, d1) -> (d0 * 128 + d1)>>
                    %24 = load %arg0[%8, %16] : memref<784x128xf32, affine_map<(d0, d1) -> (d0 * 128 + d1)>>
                    %25 = load %arg0[%9, %17] : memref<784x128xf32, affine_map<(d0, d1) -> (d0 * 128 + d1)>>
                    %26 = load %arg0[%10, %18] : memref<784x128xf32, affine_map<(d0, d1) -> (d0 * 128 + d1)>>
                    %27 = load %arg0[%11, %19] : memref<784x128xf32, affine_map<(d0, d1) -> (d0 * 128 + d1)>>
                    %28 = affine.load %3[(%arg5 floordiv 16) mod 16, (%arg6 + %arg8) mod 128, ((%arg5 mod 16) floordiv 8) mod 2] : memref<16x128x2xvector<8xf32>>
                    %29 = vector.extractelement %28[%c0_i64 : i64] : vector<8xf32>
                    %30 = affine.load %3[(%arg5 floordiv 16) mod 16, (%arg6 + %arg8) mod 128, ((%arg5 mod 16) floordiv 8) mod 2] : memref<16x128x2xvector<8xf32>>
                    %31 = vector.extractelement %30[%c1_i64 : i64] : vector<8xf32>
                    %32 = affine.load %3[(%arg5 floordiv 16) mod 16, (%arg6 + %arg8) mod 128, ((%arg5 mod 16) floordiv 8) mod 2] : memref<16x128x2xvector<8xf32>>
                    %33 = vector.extractelement %32[%c2_i64 : i64] : vector<8xf32>
                    %34 = affine.load %3[(%arg5 floordiv 16) mod 16, (%arg6 + %arg8) mod 128, ((%arg5 mod 16) floordiv 8) mod 2] : memref<16x128x2xvector<8xf32>>
                    %35 = vector.extractelement %34[%c3_i64 : i64] : vector<8xf32>
                    %36 = affine.load %3[(%arg5 floordiv 16) mod 16, (%arg6 + %arg8) mod 128, ((%arg5 mod 16) floordiv 8) mod 2] : memref<16x128x2xvector<8xf32>>
                    %37 = vector.extractelement %36[%c4_i64 : i64] : vector<8xf32>
                    %38 = affine.load %3[(%arg5 floordiv 16) mod 16, (%arg6 + %arg8) mod 128, ((%arg5 mod 16) floordiv 8) mod 2] : memref<16x128x2xvector<8xf32>>
                    %39 = vector.extractelement %38[%c5_i64 : i64] : vector<8xf32>
                    %40 = affine.load %3[(%arg5 floordiv 16) mod 16, (%arg6 + %arg8) mod 128, ((%arg5 mod 16) floordiv 8) mod 2] : memref<16x128x2xvector<8xf32>>
                    %41 = vector.extractelement %40[%c6_i64 : i64] : vector<8xf32>
                    %42 = affine.load %3[(%arg5 floordiv 16) mod 16, (%arg6 + %arg8) mod 128, ((%arg5 mod 16) floordiv 8) mod 2] : memref<16x128x2xvector<8xf32>>
                    %43 = vector.extractelement %42[%c7_i64 : i64] : vector<8xf32>
                    %44 = "accv.bin_op"(%20, %29) {predicate = 2 : i64} : (f32, f32) -> f32
                    %45 = "accv.bin_op"(%21, %31) {predicate = 2 : i64} : (f32, f32) -> f32
                    %46 = "accv.bin_op"(%22, %33) {predicate = 2 : i64} : (f32, f32) -> f32
                    %47 = "accv.bin_op"(%23, %35) {predicate = 2 : i64} : (f32, f32) -> f32
                    %48 = "accv.bin_op"(%24, %37) {predicate = 2 : i64} : (f32, f32) -> f32
                    %49 = "accv.bin_op"(%25, %39) {predicate = 2 : i64} : (f32, f32) -> f32
                    %50 = "accv.bin_op"(%26, %41) {predicate = 2 : i64} : (f32, f32) -> f32
                    %51 = "accv.bin_op"(%27, %43) {predicate = 2 : i64} : (f32, f32) -> f32
                    %52 = affine.load %2[(%arg5 floordiv 16) mod 16, (%arg7 + %arg9) mod 6, ((%arg5 mod 16) floordiv 8) mod 2] : memref<16x6x2xvector<8xf32>>
                    %53 = vector.extractelement %52[%c0_i64 : i64] : vector<8xf32>
                    %54 = affine.load %2[(%arg5 floordiv 16) mod 16, (%arg7 + %arg9) mod 6, ((%arg5 mod 16) floordiv 8) mod 2] : memref<16x6x2xvector<8xf32>>
                    %55 = vector.extractelement %54[%c1_i64 : i64] : vector<8xf32>
                    %56 = affine.load %2[(%arg5 floordiv 16) mod 16, (%arg7 + %arg9) mod 6, ((%arg5 mod 16) floordiv 8) mod 2] : memref<16x6x2xvector<8xf32>>
                    %57 = vector.extractelement %56[%c2_i64 : i64] : vector<8xf32>
                    %58 = affine.load %2[(%arg5 floordiv 16) mod 16, (%arg7 + %arg9) mod 6, ((%arg5 mod 16) floordiv 8) mod 2] : memref<16x6x2xvector<8xf32>>
                    %59 = vector.extractelement %58[%c3_i64 : i64] : vector<8xf32>
                    %60 = affine.load %2[(%arg5 floordiv 16) mod 16, (%arg7 + %arg9) mod 6, ((%arg5 mod 16) floordiv 8) mod 2] : memref<16x6x2xvector<8xf32>>
                    %61 = vector.extractelement %60[%c4_i64 : i64] : vector<8xf32>
                    %62 = affine.load %2[(%arg5 floordiv 16) mod 16, (%arg7 + %arg9) mod 6, ((%arg5 mod 16) floordiv 8) mod 2] : memref<16x6x2xvector<8xf32>>
                    %63 = vector.extractelement %62[%c5_i64 : i64] : vector<8xf32>
                    %64 = affine.load %2[(%arg5 floordiv 16) mod 16, (%arg7 + %arg9) mod 6, ((%arg5 mod 16) floordiv 8) mod 2] : memref<16x6x2xvector<8xf32>>
                    %65 = vector.extractelement %64[%c6_i64 : i64] : vector<8xf32>
                    %66 = affine.load %2[(%arg5 floordiv 16) mod 16, (%arg7 + %arg9) mod 6, ((%arg5 mod 16) floordiv 8) mod 2] : memref<16x6x2xvector<8xf32>>
                    %67 = vector.extractelement %66[%c7_i64 : i64] : vector<8xf32>
                    %68 = "accv.bin_op"(%53, %44) {predicate = 0 : i64} : (f32, f32) -> f32
                    %69 = "accv.bin_op"(%55, %45) {predicate = 0 : i64} : (f32, f32) -> f32
                    %70 = "accv.bin_op"(%57, %46) {predicate = 0 : i64} : (f32, f32) -> f32
                    %71 = "accv.bin_op"(%59, %47) {predicate = 0 : i64} : (f32, f32) -> f32
                    %72 = "accv.bin_op"(%61, %48) {predicate = 0 : i64} : (f32, f32) -> f32
                    %73 = "accv.bin_op"(%63, %49) {predicate = 0 : i64} : (f32, f32) -> f32
                    %74 = "accv.bin_op"(%65, %50) {predicate = 0 : i64} : (f32, f32) -> f32
                    %75 = "accv.bin_op"(%67, %51) {predicate = 0 : i64} : (f32, f32) -> f32
                    %76 = affine.load %2[(%arg5 floordiv 16) mod 16, (%arg7 + %arg9) mod 6, ((%arg5 mod 16) floordiv 8) mod 2] : memref<16x6x2xvector<8xf32>>
                    %77 = vector.insertelement %68, %76[%c0_i64 : i64] : vector<8xf32>
                    affine.store %77, %2[(%arg5 floordiv 16) mod 16, (%arg7 + %arg9) mod 6, ((%arg5 mod 16) floordiv 8) mod 2] : memref<16x6x2xvector<8xf32>>
                    %78 = affine.load %2[(%arg5 floordiv 16) mod 16, (%arg7 + %arg9) mod 6, ((%arg5 mod 16) floordiv 8) mod 2] : memref<16x6x2xvector<8xf32>>
                    %79 = vector.insertelement %69, %78[%c1_i64 : i64] : vector<8xf32>
                    affine.store %79, %2[(%arg5 floordiv 16) mod 16, (%arg7 + %arg9) mod 6, ((%arg5 mod 16) floordiv 8) mod 2] : memref<16x6x2xvector<8xf32>>
                    %80 = affine.load %2[(%arg5 floordiv 16) mod 16, (%arg7 + %arg9) mod 6, ((%arg5 mod 16) floordiv 8) mod 2] : memref<16x6x2xvector<8xf32>>
                    %81 = vector.insertelement %70, %80[%c2_i64 : i64] : vector<8xf32>
                    affine.store %81, %2[(%arg5 floordiv 16) mod 16, (%arg7 + %arg9) mod 6, ((%arg5 mod 16) floordiv 8) mod 2] : memref<16x6x2xvector<8xf32>>
                    %82 = affine.load %2[(%arg5 floordiv 16) mod 16, (%arg7 + %arg9) mod 6, ((%arg5 mod 16) floordiv 8) mod 2] : memref<16x6x2xvector<8xf32>>
                    %83 = vector.insertelement %71, %82[%c3_i64 : i64] : vector<8xf32>
                    affine.store %83, %2[(%arg5 floordiv 16) mod 16, (%arg7 + %arg9) mod 6, ((%arg5 mod 16) floordiv 8) mod 2] : memref<16x6x2xvector<8xf32>>
                    %84 = affine.load %2[(%arg5 floordiv 16) mod 16, (%arg7 + %arg9) mod 6, ((%arg5 mod 16) floordiv 8) mod 2] : memref<16x6x2xvector<8xf32>>
                    %85 = vector.insertelement %72, %84[%c4_i64 : i64] : vector<8xf32>
                    affine.store %85, %2[(%arg5 floordiv 16) mod 16, (%arg7 + %arg9) mod 6, ((%arg5 mod 16) floordiv 8) mod 2] : memref<16x6x2xvector<8xf32>>
                    %86 = affine.load %2[(%arg5 floordiv 16) mod 16, (%arg7 + %arg9) mod 6, ((%arg5 mod 16) floordiv 8) mod 2] : memref<16x6x2xvector<8xf32>>
                    %87 = vector.insertelement %73, %86[%c5_i64 : i64] : vector<8xf32>
                    affine.store %87, %2[(%arg5 floordiv 16) mod 16, (%arg7 + %arg9) mod 6, ((%arg5 mod 16) floordiv 8) mod 2] : memref<16x6x2xvector<8xf32>>
                    %88 = affine.load %2[(%arg5 floordiv 16) mod 16, (%arg7 + %arg9) mod 6, ((%arg5 mod 16) floordiv 8) mod 2] : memref<16x6x2xvector<8xf32>>
                    %89 = vector.insertelement %74, %88[%c6_i64 : i64] : vector<8xf32>
                    affine.store %89, %2[(%arg5 floordiv 16) mod 16, (%arg7 + %arg9) mod 6, ((%arg5 mod 16) floordiv 8) mod 2] : memref<16x6x2xvector<8xf32>>
                    %90 = affine.load %2[(%arg5 floordiv 16) mod 16, (%arg7 + %arg9) mod 6, ((%arg5 mod 16) floordiv 8) mod 2] : memref<16x6x2xvector<8xf32>>
                    %91 = vector.insertelement %75, %90[%c7_i64 : i64] : vector<8xf32>
                    affine.store %91, %2[(%arg5 floordiv 16) mod 16, (%arg7 + %arg9) mod 6, ((%arg5 mod 16) floordiv 8) mod 2] : memref<16x6x2xvector<8xf32>>
                    %92 = affine.load %2[(%arg5 floordiv 16) mod 16, (%arg7 + %arg9) mod 6, ((%arg5 mod 16) floordiv 8) mod 2] : memref<16x6x2xvector<8xf32>>
                    %93 = vector.insertelement %68, %92[%c0_i64 : i64] : vector<8xf32>
                    affine.store %93, %2[(%arg5 floordiv 16) mod 16, (%arg7 + %arg9) mod 6, ((%arg5 mod 16) floordiv 8) mod 2] : memref<16x6x2xvector<8xf32>>
                    %94 = affine.load %2[(%arg5 floordiv 16) mod 16, (%arg7 + %arg9) mod 6, ((%arg5 mod 16) floordiv 8) mod 2] : memref<16x6x2xvector<8xf32>>
                    %95 = vector.insertelement %69, %94[%c1_i64 : i64] : vector<8xf32>
                    affine.store %95, %2[(%arg5 floordiv 16) mod 16, (%arg7 + %arg9) mod 6, ((%arg5 mod 16) floordiv 8) mod 2] : memref<16x6x2xvector<8xf32>>
                    %96 = affine.load %2[(%arg5 floordiv 16) mod 16, (%arg7 + %arg9) mod 6, ((%arg5 mod 16) floordiv 8) mod 2] : memref<16x6x2xvector<8xf32>>
                    %97 = vector.insertelement %70, %96[%c2_i64 : i64] : vector<8xf32>
                    affine.store %97, %2[(%arg5 floordiv 16) mod 16, (%arg7 + %arg9) mod 6, ((%arg5 mod 16) floordiv 8) mod 2] : memref<16x6x2xvector<8xf32>>
                    %98 = affine.load %2[(%arg5 floordiv 16) mod 16, (%arg7 + %arg9) mod 6, ((%arg5 mod 16) floordiv 8) mod 2] : memref<16x6x2xvector<8xf32>>
                    %99 = vector.insertelement %71, %98[%c3_i64 : i64] : vector<8xf32>
                    affine.store %99, %2[(%arg5 floordiv 16) mod 16, (%arg7 + %arg9) mod 6, ((%arg5 mod 16) floordiv 8) mod 2] : memref<16x6x2xvector<8xf32>>
                    %100 = affine.load %2[(%arg5 floordiv 16) mod 16, (%arg7 + %arg9) mod 6, ((%arg5 mod 16) floordiv 8) mod 2] : memref<16x6x2xvector<8xf32>>
                    %101 = vector.insertelement %72, %100[%c4_i64 : i64] : vector<8xf32>
                    affine.store %101, %2[(%arg5 floordiv 16) mod 16, (%arg7 + %arg9) mod 6, ((%arg5 mod 16) floordiv 8) mod 2] : memref<16x6x2xvector<8xf32>>
                    %102 = affine.load %2[(%arg5 floordiv 16) mod 16, (%arg7 + %arg9) mod 6, ((%arg5 mod 16) floordiv 8) mod 2] : memref<16x6x2xvector<8xf32>>
                    %103 = vector.insertelement %73, %102[%c5_i64 : i64] : vector<8xf32>
                    affine.store %103, %2[(%arg5 floordiv 16) mod 16, (%arg7 + %arg9) mod 6, ((%arg5 mod 16) floordiv 8) mod 2] : memref<16x6x2xvector<8xf32>>
                    %104 = affine.load %2[(%arg5 floordiv 16) mod 16, (%arg7 + %arg9) mod 6, ((%arg5 mod 16) floordiv 8) mod 2] : memref<16x6x2xvector<8xf32>>
                    %105 = vector.insertelement %74, %104[%c6_i64 : i64] : vector<8xf32>
                    affine.store %105, %2[(%arg5 floordiv 16) mod 16, (%arg7 + %arg9) mod 6, ((%arg5 mod 16) floordiv 8) mod 2] : memref<16x6x2xvector<8xf32>>
                    %106 = affine.load %2[(%arg5 floordiv 16) mod 16, (%arg7 + %arg9) mod 6, ((%arg5 mod 16) floordiv 8) mod 2] : memref<16x6x2xvector<8xf32>>
                    %107 = vector.insertelement %75, %106[%c7_i64 : i64] : vector<8xf32>
                    affine.store %107, %2[(%arg5 floordiv 16) mod 16, (%arg7 + %arg9) mod 6, ((%arg5 mod 16) floordiv 8) mod 2] : memref<16x6x2xvector<8xf32>>
                    %108 = affine.apply affine_map<(d0, d1, d2) -> (d0 + d1 + d2)>(%arg4, %arg7, %arg9)
                    %109 = affine.apply affine_map<(d0, d1, d2) -> (d0 + d1 + d2)>(%arg4, %arg7, %arg9)
                    %110 = affine.apply affine_map<(d0, d1, d2) -> (d0 + d1 + d2)>(%arg4, %arg7, %arg9)
                    %111 = affine.apply affine_map<(d0, d1, d2) -> (d0 + d1 + d2)>(%arg4, %arg7, %arg9)
                    %112 = affine.apply affine_map<(d0, d1, d2) -> (d0 + d1 + d2)>(%arg4, %arg7, %arg9)
                    %113 = affine.apply affine_map<(d0, d1, d2) -> (d0 + d1 + d2)>(%arg4, %arg7, %arg9)
                    %114 = affine.apply affine_map<(d0, d1, d2) -> (d0 + d1 + d2)>(%arg4, %arg7, %arg9)
                    %115 = affine.apply affine_map<(d0, d1, d2) -> (d0 + d1 + d2)>(%arg4, %arg7, %arg9)
                    %116 = affine.apply affine_map<(d0, d1) -> (d0 + d1)>(%arg6, %arg8)
                    %117 = affine.apply affine_map<(d0, d1) -> (d0 + d1)>(%arg6, %arg8)
                    %118 = affine.apply affine_map<(d0, d1) -> (d0 + d1)>(%arg6, %arg8)
                    %119 = affine.apply affine_map<(d0, d1) -> (d0 + d1)>(%arg6, %arg8)
                    %120 = affine.apply affine_map<(d0, d1) -> (d0 + d1)>(%arg6, %arg8)
                    %121 = affine.apply affine_map<(d0, d1) -> (d0 + d1)>(%arg6, %arg8)
                    %122 = affine.apply affine_map<(d0, d1) -> (d0 + d1)>(%arg6, %arg8)
                    %123 = affine.apply affine_map<(d0, d1) -> (d0 + d1)>(%arg6, %arg8)
                    %124 = load %arg0[%108, %116] : memref<784x128xf32, affine_map<(d0, d1) -> (d0 * 128 + d1)>>
                    %125 = load %arg0[%109, %117] : memref<784x128xf32, affine_map<(d0, d1) -> (d0 * 128 + d1)>>
                    %126 = load %arg0[%110, %118] : memref<784x128xf32, affine_map<(d0, d1) -> (d0 * 128 + d1)>>
                    %127 = load %arg0[%111, %119] : memref<784x128xf32, affine_map<(d0, d1) -> (d0 * 128 + d1)>>
                    %128 = load %arg0[%112, %120] : memref<784x128xf32, affine_map<(d0, d1) -> (d0 * 128 + d1)>>
                    %129 = load %arg0[%113, %121] : memref<784x128xf32, affine_map<(d0, d1) -> (d0 * 128 + d1)>>
                    %130 = load %arg0[%114, %122] : memref<784x128xf32, affine_map<(d0, d1) -> (d0 * 128 + d1)>>
                    %131 = load %arg0[%115, %123] : memref<784x128xf32, affine_map<(d0, d1) -> (d0 * 128 + d1)>>
                    %132 = affine.load %3[((%arg5 + 8) floordiv 16) mod 16, (%arg6 + %arg8) mod 128, %arg5 floordiv 8 - ((%arg5 + 8) floordiv 16) * 2 - ((%arg5 floordiv 8 - ((%arg5 + 8) floordiv 16) * 2 + 1) floordiv 2) * 2 + 1] : memref<16x128x2xvector<8xf32>>
                    %133 = vector.extractelement %132[%c0_i64 : i64] : vector<8xf32>
                    %134 = affine.load %3[((%arg5 + 8) floordiv 16) mod 16, (%arg6 + %arg8) mod 128, %arg5 floordiv 8 - ((%arg5 + 8) floordiv 16) * 2 - ((%arg5 floordiv 8 - ((%arg5 + 8) floordiv 16) * 2 + 1) floordiv 2) * 2 + 1] : memref<16x128x2xvector<8xf32>>
                    %135 = vector.extractelement %134[%c1_i64 : i64] : vector<8xf32>
                    %136 = affine.load %3[((%arg5 + 8) floordiv 16) mod 16, (%arg6 + %arg8) mod 128, %arg5 floordiv 8 - ((%arg5 + 8) floordiv 16) * 2 - ((%arg5 floordiv 8 - ((%arg5 + 8) floordiv 16) * 2 + 1) floordiv 2) * 2 + 1] : memref<16x128x2xvector<8xf32>>
                    %137 = vector.extractelement %136[%c2_i64 : i64] : vector<8xf32>
                    %138 = affine.load %3[((%arg5 + 8) floordiv 16) mod 16, (%arg6 + %arg8) mod 128, %arg5 floordiv 8 - ((%arg5 + 8) floordiv 16) * 2 - ((%arg5 floordiv 8 - ((%arg5 + 8) floordiv 16) * 2 + 1) floordiv 2) * 2 + 1] : memref<16x128x2xvector<8xf32>>
                    %139 = vector.extractelement %138[%c3_i64 : i64] : vector<8xf32>
                    %140 = affine.load %3[((%arg5 + 8) floordiv 16) mod 16, (%arg6 + %arg8) mod 128, %arg5 floordiv 8 - ((%arg5 + 8) floordiv 16) * 2 - ((%arg5 floordiv 8 - ((%arg5 + 8) floordiv 16) * 2 + 1) floordiv 2) * 2 + 1] : memref<16x128x2xvector<8xf32>>
                    %141 = vector.extractelement %140[%c4_i64 : i64] : vector<8xf32>
                    %142 = affine.load %3[((%arg5 + 8) floordiv 16) mod 16, (%arg6 + %arg8) mod 128, %arg5 floordiv 8 - ((%arg5 + 8) floordiv 16) * 2 - ((%arg5 floordiv 8 - ((%arg5 + 8) floordiv 16) * 2 + 1) floordiv 2) * 2 + 1] : memref<16x128x2xvector<8xf32>>
                    %143 = vector.extractelement %142[%c5_i64 : i64] : vector<8xf32>
                    %144 = affine.load %3[((%arg5 + 8) floordiv 16) mod 16, (%arg6 + %arg8) mod 128, %arg5 floordiv 8 - ((%arg5 + 8) floordiv 16) * 2 - ((%arg5 floordiv 8 - ((%arg5 + 8) floordiv 16) * 2 + 1) floordiv 2) * 2 + 1] : memref<16x128x2xvector<8xf32>>
                    %145 = vector.extractelement %144[%c6_i64 : i64] : vector<8xf32>
                    %146 = affine.load %3[((%arg5 + 8) floordiv 16) mod 16, (%arg6 + %arg8) mod 128, %arg5 floordiv 8 - ((%arg5 + 8) floordiv 16) * 2 - ((%arg5 floordiv 8 - ((%arg5 + 8) floordiv 16) * 2 + 1) floordiv 2) * 2 + 1] : memref<16x128x2xvector<8xf32>>
                    %147 = vector.extractelement %146[%c7_i64 : i64] : vector<8xf32>
                    %148 = "accv.bin_op"(%124, %133) {predicate = 2 : i64} : (f32, f32) -> f32
                    %149 = "accv.bin_op"(%125, %135) {predicate = 2 : i64} : (f32, f32) -> f32
                    %150 = "accv.bin_op"(%126, %137) {predicate = 2 : i64} : (f32, f32) -> f32
                    %151 = "accv.bin_op"(%127, %139) {predicate = 2 : i64} : (f32, f32) -> f32
                    %152 = "accv.bin_op"(%128, %141) {predicate = 2 : i64} : (f32, f32) -> f32
                    %153 = "accv.bin_op"(%129, %143) {predicate = 2 : i64} : (f32, f32) -> f32
                    %154 = "accv.bin_op"(%130, %145) {predicate = 2 : i64} : (f32, f32) -> f32
                    %155 = "accv.bin_op"(%131, %147) {predicate = 2 : i64} : (f32, f32) -> f32
                    %156 = affine.load %2[((%arg5 + 8) floordiv 16) mod 16, (%arg7 + %arg9) mod 6, %arg5 floordiv 8 - ((%arg5 + 8) floordiv 16) * 2 - ((%arg5 floordiv 8 - ((%arg5 + 8) floordiv 16) * 2 + 1) floordiv 2) * 2 + 1] : memref<16x6x2xvector<8xf32>>
                    %157 = vector.extractelement %156[%c0_i64 : i64] : vector<8xf32>
                    %158 = affine.load %2[((%arg5 + 8) floordiv 16) mod 16, (%arg7 + %arg9) mod 6, %arg5 floordiv 8 - ((%arg5 + 8) floordiv 16) * 2 - ((%arg5 floordiv 8 - ((%arg5 + 8) floordiv 16) * 2 + 1) floordiv 2) * 2 + 1] : memref<16x6x2xvector<8xf32>>
                    %159 = vector.extractelement %158[%c1_i64 : i64] : vector<8xf32>
                    %160 = affine.load %2[((%arg5 + 8) floordiv 16) mod 16, (%arg7 + %arg9) mod 6, %arg5 floordiv 8 - ((%arg5 + 8) floordiv 16) * 2 - ((%arg5 floordiv 8 - ((%arg5 + 8) floordiv 16) * 2 + 1) floordiv 2) * 2 + 1] : memref<16x6x2xvector<8xf32>>
                    %161 = vector.extractelement %160[%c2_i64 : i64] : vector<8xf32>
                    %162 = affine.load %2[((%arg5 + 8) floordiv 16) mod 16, (%arg7 + %arg9) mod 6, %arg5 floordiv 8 - ((%arg5 + 8) floordiv 16) * 2 - ((%arg5 floordiv 8 - ((%arg5 + 8) floordiv 16) * 2 + 1) floordiv 2) * 2 + 1] : memref<16x6x2xvector<8xf32>>
                    %163 = vector.extractelement %162[%c3_i64 : i64] : vector<8xf32>
                    %164 = affine.load %2[((%arg5 + 8) floordiv 16) mod 16, (%arg7 + %arg9) mod 6, %arg5 floordiv 8 - ((%arg5 + 8) floordiv 16) * 2 - ((%arg5 floordiv 8 - ((%arg5 + 8) floordiv 16) * 2 + 1) floordiv 2) * 2 + 1] : memref<16x6x2xvector<8xf32>>
                    %165 = vector.extractelement %164[%c4_i64 : i64] : vector<8xf32>
                    %166 = affine.load %2[((%arg5 + 8) floordiv 16) mod 16, (%arg7 + %arg9) mod 6, %arg5 floordiv 8 - ((%arg5 + 8) floordiv 16) * 2 - ((%arg5 floordiv 8 - ((%arg5 + 8) floordiv 16) * 2 + 1) floordiv 2) * 2 + 1] : memref<16x6x2xvector<8xf32>>
                    %167 = vector.extractelement %166[%c5_i64 : i64] : vector<8xf32>
                    %168 = affine.load %2[((%arg5 + 8) floordiv 16) mod 16, (%arg7 + %arg9) mod 6, %arg5 floordiv 8 - ((%arg5 + 8) floordiv 16) * 2 - ((%arg5 floordiv 8 - ((%arg5 + 8) floordiv 16) * 2 + 1) floordiv 2) * 2 + 1] : memref<16x6x2xvector<8xf32>>
                    %169 = vector.extractelement %168[%c6_i64 : i64] : vector<8xf32>
                    %170 = affine.load %2[((%arg5 + 8) floordiv 16) mod 16, (%arg7 + %arg9) mod 6, %arg5 floordiv 8 - ((%arg5 + 8) floordiv 16) * 2 - ((%arg5 floordiv 8 - ((%arg5 + 8) floordiv 16) * 2 + 1) floordiv 2) * 2 + 1] : memref<16x6x2xvector<8xf32>>
                    %171 = vector.extractelement %170[%c7_i64 : i64] : vector<8xf32>
                    %172 = "accv.bin_op"(%157, %148) {predicate = 0 : i64} : (f32, f32) -> f32
                    %173 = "accv.bin_op"(%159, %149) {predicate = 0 : i64} : (f32, f32) -> f32
                    %174 = "accv.bin_op"(%161, %150) {predicate = 0 : i64} : (f32, f32) -> f32
                    %175 = "accv.bin_op"(%163, %151) {predicate = 0 : i64} : (f32, f32) -> f32
                    %176 = "accv.bin_op"(%165, %152) {predicate = 0 : i64} : (f32, f32) -> f32
                    %177 = "accv.bin_op"(%167, %153) {predicate = 0 : i64} : (f32, f32) -> f32
                    %178 = "accv.bin_op"(%169, %154) {predicate = 0 : i64} : (f32, f32) -> f32
                    %179 = "accv.bin_op"(%171, %155) {predicate = 0 : i64} : (f32, f32) -> f32
                    %180 = affine.load %2[((%arg5 + 8) floordiv 16) mod 16, (%arg7 + %arg9) mod 6, %arg5 floordiv 8 - ((%arg5 + 8) floordiv 16) * 2 - ((%arg5 floordiv 8 - ((%arg5 + 8) floordiv 16) * 2 + 1) floordiv 2) * 2 + 1] : memref<16x6x2xvector<8xf32>>
                    %181 = vector.insertelement %172, %180[%c0_i64 : i64] : vector<8xf32>
                    affine.store %181, %2[((%arg5 + 8) floordiv 16) mod 16, (%arg7 + %arg9) mod 6, %arg5 floordiv 8 - ((%arg5 + 8) floordiv 16) * 2 - ((%arg5 floordiv 8 - ((%arg5 + 8) floordiv 16) * 2 + 1) floordiv 2) * 2 + 1] : memref<16x6x2xvector<8xf32>>
                    %182 = affine.load %2[((%arg5 + 8) floordiv 16) mod 16, (%arg7 + %arg9) mod 6, %arg5 floordiv 8 - ((%arg5 + 8) floordiv 16) * 2 - ((%arg5 floordiv 8 - ((%arg5 + 8) floordiv 16) * 2 + 1) floordiv 2) * 2 + 1] : memref<16x6x2xvector<8xf32>>
                    %183 = vector.insertelement %173, %182[%c1_i64 : i64] : vector<8xf32>
                    affine.store %183, %2[((%arg5 + 8) floordiv 16) mod 16, (%arg7 + %arg9) mod 6, %arg5 floordiv 8 - ((%arg5 + 8) floordiv 16) * 2 - ((%arg5 floordiv 8 - ((%arg5 + 8) floordiv 16) * 2 + 1) floordiv 2) * 2 + 1] : memref<16x6x2xvector<8xf32>>
                    %184 = affine.load %2[((%arg5 + 8) floordiv 16) mod 16, (%arg7 + %arg9) mod 6, %arg5 floordiv 8 - ((%arg5 + 8) floordiv 16) * 2 - ((%arg5 floordiv 8 - ((%arg5 + 8) floordiv 16) * 2 + 1) floordiv 2) * 2 + 1] : memref<16x6x2xvector<8xf32>>
                    %185 = vector.insertelement %174, %184[%c2_i64 : i64] : vector<8xf32>
                    affine.store %185, %2[((%arg5 + 8) floordiv 16) mod 16, (%arg7 + %arg9) mod 6, %arg5 floordiv 8 - ((%arg5 + 8) floordiv 16) * 2 - ((%arg5 floordiv 8 - ((%arg5 + 8) floordiv 16) * 2 + 1) floordiv 2) * 2 + 1] : memref<16x6x2xvector<8xf32>>
                    %186 = affine.load %2[((%arg5 + 8) floordiv 16) mod 16, (%arg7 + %arg9) mod 6, %arg5 floordiv 8 - ((%arg5 + 8) floordiv 16) * 2 - ((%arg5 floordiv 8 - ((%arg5 + 8) floordiv 16) * 2 + 1) floordiv 2) * 2 + 1] : memref<16x6x2xvector<8xf32>>
                    %187 = vector.insertelement %175, %186[%c3_i64 : i64] : vector<8xf32>
                    affine.store %187, %2[((%arg5 + 8) floordiv 16) mod 16, (%arg7 + %arg9) mod 6, %arg5 floordiv 8 - ((%arg5 + 8) floordiv 16) * 2 - ((%arg5 floordiv 8 - ((%arg5 + 8) floordiv 16) * 2 + 1) floordiv 2) * 2 + 1] : memref<16x6x2xvector<8xf32>>
                    %188 = affine.load %2[((%arg5 + 8) floordiv 16) mod 16, (%arg7 + %arg9) mod 6, %arg5 floordiv 8 - ((%arg5 + 8) floordiv 16) * 2 - ((%arg5 floordiv 8 - ((%arg5 + 8) floordiv 16) * 2 + 1) floordiv 2) * 2 + 1] : memref<16x6x2xvector<8xf32>>
                    %189 = vector.insertelement %176, %188[%c4_i64 : i64] : vector<8xf32>
                    affine.store %189, %2[((%arg5 + 8) floordiv 16) mod 16, (%arg7 + %arg9) mod 6, %arg5 floordiv 8 - ((%arg5 + 8) floordiv 16) * 2 - ((%arg5 floordiv 8 - ((%arg5 + 8) floordiv 16) * 2 + 1) floordiv 2) * 2 + 1] : memref<16x6x2xvector<8xf32>>
                    %190 = affine.load %2[((%arg5 + 8) floordiv 16) mod 16, (%arg7 + %arg9) mod 6, %arg5 floordiv 8 - ((%arg5 + 8) floordiv 16) * 2 - ((%arg5 floordiv 8 - ((%arg5 + 8) floordiv 16) * 2 + 1) floordiv 2) * 2 + 1] : memref<16x6x2xvector<8xf32>>
                    %191 = vector.insertelement %177, %190[%c5_i64 : i64] : vector<8xf32>
                    affine.store %191, %2[((%arg5 + 8) floordiv 16) mod 16, (%arg7 + %arg9) mod 6, %arg5 floordiv 8 - ((%arg5 + 8) floordiv 16) * 2 - ((%arg5 floordiv 8 - ((%arg5 + 8) floordiv 16) * 2 + 1) floordiv 2) * 2 + 1] : memref<16x6x2xvector<8xf32>>
                    %192 = affine.load %2[((%arg5 + 8) floordiv 16) mod 16, (%arg7 + %arg9) mod 6, %arg5 floordiv 8 - ((%arg5 + 8) floordiv 16) * 2 - ((%arg5 floordiv 8 - ((%arg5 + 8) floordiv 16) * 2 + 1) floordiv 2) * 2 + 1] : memref<16x6x2xvector<8xf32>>
                    %193 = vector.insertelement %178, %192[%c6_i64 : i64] : vector<8xf32>
                    affine.store %193, %2[((%arg5 + 8) floordiv 16) mod 16, (%arg7 + %arg9) mod 6, %arg5 floordiv 8 - ((%arg5 + 8) floordiv 16) * 2 - ((%arg5 floordiv 8 - ((%arg5 + 8) floordiv 16) * 2 + 1) floordiv 2) * 2 + 1] : memref<16x6x2xvector<8xf32>>
                    %194 = affine.load %2[((%arg5 + 8) floordiv 16) mod 16, (%arg7 + %arg9) mod 6, %arg5 floordiv 8 - ((%arg5 + 8) floordiv 16) * 2 - ((%arg5 floordiv 8 - ((%arg5 + 8) floordiv 16) * 2 + 1) floordiv 2) * 2 + 1] : memref<16x6x2xvector<8xf32>>
                    %195 = vector.insertelement %179, %194[%c7_i64 : i64] : vector<8xf32>
                    affine.store %195, %2[((%arg5 + 8) floordiv 16) mod 16, (%arg7 + %arg9) mod 6, %arg5 floordiv 8 - ((%arg5 + 8) floordiv 16) * 2 - ((%arg5 floordiv 8 - ((%arg5 + 8) floordiv 16) * 2 + 1) floordiv 2) * 2 + 1] : memref<16x6x2xvector<8xf32>>
                    %196 = affine.load %2[((%arg5 + 8) floordiv 16) mod 16, (%arg7 + %arg9) mod 6, %arg5 floordiv 8 - ((%arg5 + 8) floordiv 16) * 2 - ((%arg5 floordiv 8 - ((%arg5 + 8) floordiv 16) * 2 + 1) floordiv 2) * 2 + 1] : memref<16x6x2xvector<8xf32>>
                    %197 = vector.insertelement %172, %196[%c0_i64 : i64] : vector<8xf32>
                    affine.store %197, %2[((%arg5 + 8) floordiv 16) mod 16, (%arg7 + %arg9) mod 6, %arg5 floordiv 8 - ((%arg5 + 8) floordiv 16) * 2 - ((%arg5 floordiv 8 - ((%arg5 + 8) floordiv 16) * 2 + 1) floordiv 2) * 2 + 1] : memref<16x6x2xvector<8xf32>>
                    %198 = affine.load %2[((%arg5 + 8) floordiv 16) mod 16, (%arg7 + %arg9) mod 6, %arg5 floordiv 8 - ((%arg5 + 8) floordiv 16) * 2 - ((%arg5 floordiv 8 - ((%arg5 + 8) floordiv 16) * 2 + 1) floordiv 2) * 2 + 1] : memref<16x6x2xvector<8xf32>>
                    %199 = vector.insertelement %173, %198[%c1_i64 : i64] : vector<8xf32>
                    affine.store %199, %2[((%arg5 + 8) floordiv 16) mod 16, (%arg7 + %arg9) mod 6, %arg5 floordiv 8 - ((%arg5 + 8) floordiv 16) * 2 - ((%arg5 floordiv 8 - ((%arg5 + 8) floordiv 16) * 2 + 1) floordiv 2) * 2 + 1] : memref<16x6x2xvector<8xf32>>
                    %200 = affine.load %2[((%arg5 + 8) floordiv 16) mod 16, (%arg7 + %arg9) mod 6, %arg5 floordiv 8 - ((%arg5 + 8) floordiv 16) * 2 - ((%arg5 floordiv 8 - ((%arg5 + 8) floordiv 16) * 2 + 1) floordiv 2) * 2 + 1] : memref<16x6x2xvector<8xf32>>
                    %201 = vector.insertelement %174, %200[%c2_i64 : i64] : vector<8xf32>
                    affine.store %201, %2[((%arg5 + 8) floordiv 16) mod 16, (%arg7 + %arg9) mod 6, %arg5 floordiv 8 - ((%arg5 + 8) floordiv 16) * 2 - ((%arg5 floordiv 8 - ((%arg5 + 8) floordiv 16) * 2 + 1) floordiv 2) * 2 + 1] : memref<16x6x2xvector<8xf32>>
                    %202 = affine.load %2[((%arg5 + 8) floordiv 16) mod 16, (%arg7 + %arg9) mod 6, %arg5 floordiv 8 - ((%arg5 + 8) floordiv 16) * 2 - ((%arg5 floordiv 8 - ((%arg5 + 8) floordiv 16) * 2 + 1) floordiv 2) * 2 + 1] : memref<16x6x2xvector<8xf32>>
                    %203 = vector.insertelement %175, %202[%c3_i64 : i64] : vector<8xf32>
                    affine.store %203, %2[((%arg5 + 8) floordiv 16) mod 16, (%arg7 + %arg9) mod 6, %arg5 floordiv 8 - ((%arg5 + 8) floordiv 16) * 2 - ((%arg5 floordiv 8 - ((%arg5 + 8) floordiv 16) * 2 + 1) floordiv 2) * 2 + 1] : memref<16x6x2xvector<8xf32>>
                    %204 = affine.load %2[((%arg5 + 8) floordiv 16) mod 16, (%arg7 + %arg9) mod 6, %arg5 floordiv 8 - ((%arg5 + 8) floordiv 16) * 2 - ((%arg5 floordiv 8 - ((%arg5 + 8) floordiv 16) * 2 + 1) floordiv 2) * 2 + 1] : memref<16x6x2xvector<8xf32>>
                    %205 = vector.insertelement %176, %204[%c4_i64 : i64] : vector<8xf32>
                    affine.store %205, %2[((%arg5 + 8) floordiv 16) mod 16, (%arg7 + %arg9) mod 6, %arg5 floordiv 8 - ((%arg5 + 8) floordiv 16) * 2 - ((%arg5 floordiv 8 - ((%arg5 + 8) floordiv 16) * 2 + 1) floordiv 2) * 2 + 1] : memref<16x6x2xvector<8xf32>>
                    %206 = affine.load %2[((%arg5 + 8) floordiv 16) mod 16, (%arg7 + %arg9) mod 6, %arg5 floordiv 8 - ((%arg5 + 8) floordiv 16) * 2 - ((%arg5 floordiv 8 - ((%arg5 + 8) floordiv 16) * 2 + 1) floordiv 2) * 2 + 1] : memref<16x6x2xvector<8xf32>>
                    %207 = vector.insertelement %177, %206[%c5_i64 : i64] : vector<8xf32>
                    affine.store %207, %2[((%arg5 + 8) floordiv 16) mod 16, (%arg7 + %arg9) mod 6, %arg5 floordiv 8 - ((%arg5 + 8) floordiv 16) * 2 - ((%arg5 floordiv 8 - ((%arg5 + 8) floordiv 16) * 2 + 1) floordiv 2) * 2 + 1] : memref<16x6x2xvector<8xf32>>
                    %208 = affine.load %2[((%arg5 + 8) floordiv 16) mod 16, (%arg7 + %arg9) mod 6, %arg5 floordiv 8 - ((%arg5 + 8) floordiv 16) * 2 - ((%arg5 floordiv 8 - ((%arg5 + 8) floordiv 16) * 2 + 1) floordiv 2) * 2 + 1] : memref<16x6x2xvector<8xf32>>
                    %209 = vector.insertelement %178, %208[%c6_i64 : i64] : vector<8xf32>
                    affine.store %209, %2[((%arg5 + 8) floordiv 16) mod 16, (%arg7 + %arg9) mod 6, %arg5 floordiv 8 - ((%arg5 + 8) floordiv 16) * 2 - ((%arg5 floordiv 8 - ((%arg5 + 8) floordiv 16) * 2 + 1) floordiv 2) * 2 + 1] : memref<16x6x2xvector<8xf32>>
                    %210 = affine.load %2[((%arg5 + 8) floordiv 16) mod 16, (%arg7 + %arg9) mod 6, %arg5 floordiv 8 - ((%arg5 + 8) floordiv 16) * 2 - ((%arg5 floordiv 8 - ((%arg5 + 8) floordiv 16) * 2 + 1) floordiv 2) * 2 + 1] : memref<16x6x2xvector<8xf32>>
                    %211 = vector.insertelement %179, %210[%c7_i64 : i64] : vector<8xf32>
                    affine.store %211, %2[((%arg5 + 8) floordiv 16) mod 16, (%arg7 + %arg9) mod 6, %arg5 floordiv 8 - ((%arg5 + 8) floordiv 16) * 2 - ((%arg5 floordiv 8 - ((%arg5 + 8) floordiv 16) * 2 + 1) floordiv 2) * 2 + 1] : memref<16x6x2xvector<8xf32>>
                  } {begin = 0 : i64, end = 0 : i64, index = #accln<"index{i_i_i,12}">, subdomainIndexOrder = [#accln<"index{i,0}">, #accln<"index{j,1}">, #accln<"index{k,2}">], subdomainSize = [0, 16, 1]}
                } {begin = 0 : i64, end = 4 : i64, index = #accln<"index{k_i_i,10}">, subdomainIndexOrder = [#accln<"index{i,0}">, #accln<"index{j,1}">, #accln<"index{k,2}">], subdomainSize = [0, 16, 1]}
              } {begin = 0 : i64, end = 0 : i64, index = #accln<"index{i_i_o,11}">, accv_unrolled, subdomainIndexOrder = [#accln<"index{i,0}">, #accln<"index{j,1}">, #accln<"index{k,2}">], subdomainSize = [0, 16, 4]}
              affine.for %arg7 = 0 to 4 {
                %4 = affine.apply affine_map<(d0, d1) -> (d0 + d1)>(%arg6, %arg7)
                %5 = affine.apply affine_map<(d0, d1) -> (d0 + d1)>(%arg6, %arg7)
                %6 = affine.apply affine_map<(d0, d1) -> (d0 + d1)>(%arg6, %arg7)
                %7 = affine.apply affine_map<(d0, d1) -> (d0 + d1)>(%arg6, %arg7)
                %8 = affine.apply affine_map<(d0, d1) -> (d0 + d1)>(%arg6, %arg7)
                %9 = affine.apply affine_map<(d0, d1) -> (d0 + d1)>(%arg6, %arg7)
                %10 = affine.apply affine_map<(d0, d1) -> (d0 + d1)>(%arg6, %arg7)
                %11 = affine.apply affine_map<(d0, d1) -> (d0 + d1)>(%arg6, %arg7)
                %12 = load %arg0[%arg4, %4] : memref<784x128xf32, affine_map<(d0, d1) -> (d0 * 128 + d1)>>
                %13 = load %arg0[%arg4, %5] : memref<784x128xf32, affine_map<(d0, d1) -> (d0 * 128 + d1)>>
                %14 = load %arg0[%arg4, %6] : memref<784x128xf32, affine_map<(d0, d1) -> (d0 * 128 + d1)>>
                %15 = load %arg0[%arg4, %7] : memref<784x128xf32, affine_map<(d0, d1) -> (d0 * 128 + d1)>>
                %16 = load %arg0[%arg4, %8] : memref<784x128xf32, affine_map<(d0, d1) -> (d0 * 128 + d1)>>
                %17 = load %arg0[%arg4, %9] : memref<784x128xf32, affine_map<(d0, d1) -> (d0 * 128 + d1)>>
                %18 = load %arg0[%arg4, %10] : memref<784x128xf32, affine_map<(d0, d1) -> (d0 * 128 + d1)>>
                %19 = load %arg0[%arg4, %11] : memref<784x128xf32, affine_map<(d0, d1) -> (d0 * 128 + d1)>>
                %20 = affine.load %3[(%arg5 floordiv 16) mod 16, (%arg6 + %arg7) mod 128, ((%arg5 mod 16) floordiv 8) mod 2] : memref<16x128x2xvector<8xf32>>
                %21 = vector.extractelement %20[%c0_i64 : i64] : vector<8xf32>
                %22 = affine.load %3[(%arg5 floordiv 16) mod 16, (%arg6 + %arg7) mod 128, ((%arg5 mod 16) floordiv 8) mod 2] : memref<16x128x2xvector<8xf32>>
                %23 = vector.extractelement %22[%c1_i64 : i64] : vector<8xf32>
                %24 = affine.load %3[(%arg5 floordiv 16) mod 16, (%arg6 + %arg7) mod 128, ((%arg5 mod 16) floordiv 8) mod 2] : memref<16x128x2xvector<8xf32>>
                %25 = vector.extractelement %24[%c2_i64 : i64] : vector<8xf32>
                %26 = affine.load %3[(%arg5 floordiv 16) mod 16, (%arg6 + %arg7) mod 128, ((%arg5 mod 16) floordiv 8) mod 2] : memref<16x128x2xvector<8xf32>>
                %27 = vector.extractelement %26[%c3_i64 : i64] : vector<8xf32>
                %28 = affine.load %3[(%arg5 floordiv 16) mod 16, (%arg6 + %arg7) mod 128, ((%arg5 mod 16) floordiv 8) mod 2] : memref<16x128x2xvector<8xf32>>
                %29 = vector.extractelement %28[%c4_i64 : i64] : vector<8xf32>
                %30 = affine.load %3[(%arg5 floordiv 16) mod 16, (%arg6 + %arg7) mod 128, ((%arg5 mod 16) floordiv 8) mod 2] : memref<16x128x2xvector<8xf32>>
                %31 = vector.extractelement %30[%c5_i64 : i64] : vector<8xf32>
                %32 = affine.load %3[(%arg5 floordiv 16) mod 16, (%arg6 + %arg7) mod 128, ((%arg5 mod 16) floordiv 8) mod 2] : memref<16x128x2xvector<8xf32>>
                %33 = vector.extractelement %32[%c6_i64 : i64] : vector<8xf32>
                %34 = affine.load %3[(%arg5 floordiv 16) mod 16, (%arg6 + %arg7) mod 128, ((%arg5 mod 16) floordiv 8) mod 2] : memref<16x128x2xvector<8xf32>>
                %35 = vector.extractelement %34[%c7_i64 : i64] : vector<8xf32>
                %36 = "accv.bin_op"(%12, %21) {predicate = 2 : i64} : (f32, f32) -> f32
                %37 = "accv.bin_op"(%13, %23) {predicate = 2 : i64} : (f32, f32) -> f32
                %38 = "accv.bin_op"(%14, %25) {predicate = 2 : i64} : (f32, f32) -> f32
                %39 = "accv.bin_op"(%15, %27) {predicate = 2 : i64} : (f32, f32) -> f32
                %40 = "accv.bin_op"(%16, %29) {predicate = 2 : i64} : (f32, f32) -> f32
                %41 = "accv.bin_op"(%17, %31) {predicate = 2 : i64} : (f32, f32) -> f32
                %42 = "accv.bin_op"(%18, %33) {predicate = 2 : i64} : (f32, f32) -> f32
                %43 = "accv.bin_op"(%19, %35) {predicate = 2 : i64} : (f32, f32) -> f32
                %44 = affine.load %2[(%arg5 floordiv 16) mod 16, 0, ((%arg5 mod 16) floordiv 8) mod 2] : memref<16x6x2xvector<8xf32>>
                %45 = vector.extractelement %44[%c0_i64 : i64] : vector<8xf32>
                %46 = affine.load %2[(%arg5 floordiv 16) mod 16, 0, ((%arg5 mod 16) floordiv 8) mod 2] : memref<16x6x2xvector<8xf32>>
                %47 = vector.extractelement %46[%c1_i64 : i64] : vector<8xf32>
                %48 = affine.load %2[(%arg5 floordiv 16) mod 16, 0, ((%arg5 mod 16) floordiv 8) mod 2] : memref<16x6x2xvector<8xf32>>
                %49 = vector.extractelement %48[%c2_i64 : i64] : vector<8xf32>
                %50 = affine.load %2[(%arg5 floordiv 16) mod 16, 0, ((%arg5 mod 16) floordiv 8) mod 2] : memref<16x6x2xvector<8xf32>>
                %51 = vector.extractelement %50[%c3_i64 : i64] : vector<8xf32>
                %52 = affine.load %2[(%arg5 floordiv 16) mod 16, 0, ((%arg5 mod 16) floordiv 8) mod 2] : memref<16x6x2xvector<8xf32>>
                %53 = vector.extractelement %52[%c4_i64 : i64] : vector<8xf32>
                %54 = affine.load %2[(%arg5 floordiv 16) mod 16, 0, ((%arg5 mod 16) floordiv 8) mod 2] : memref<16x6x2xvector<8xf32>>
                %55 = vector.extractelement %54[%c5_i64 : i64] : vector<8xf32>
                %56 = affine.load %2[(%arg5 floordiv 16) mod 16, 0, ((%arg5 mod 16) floordiv 8) mod 2] : memref<16x6x2xvector<8xf32>>
                %57 = vector.extractelement %56[%c6_i64 : i64] : vector<8xf32>
                %58 = affine.load %2[(%arg5 floordiv 16) mod 16, 0, ((%arg5 mod 16) floordiv 8) mod 2] : memref<16x6x2xvector<8xf32>>
                %59 = vector.extractelement %58[%c7_i64 : i64] : vector<8xf32>
                %60 = "accv.bin_op"(%45, %36) {predicate = 0 : i64} : (f32, f32) -> f32
                %61 = "accv.bin_op"(%47, %37) {predicate = 0 : i64} : (f32, f32) -> f32
                %62 = "accv.bin_op"(%49, %38) {predicate = 0 : i64} : (f32, f32) -> f32
                %63 = "accv.bin_op"(%51, %39) {predicate = 0 : i64} : (f32, f32) -> f32
                %64 = "accv.bin_op"(%53, %40) {predicate = 0 : i64} : (f32, f32) -> f32
                %65 = "accv.bin_op"(%55, %41) {predicate = 0 : i64} : (f32, f32) -> f32
                %66 = "accv.bin_op"(%57, %42) {predicate = 0 : i64} : (f32, f32) -> f32
                %67 = "accv.bin_op"(%59, %43) {predicate = 0 : i64} : (f32, f32) -> f32
                %68 = affine.load %2[(%arg5 floordiv 16) mod 16, 0, ((%arg5 mod 16) floordiv 8) mod 2] : memref<16x6x2xvector<8xf32>>
                %69 = vector.insertelement %60, %68[%c0_i64 : i64] : vector<8xf32>
                affine.store %69, %2[(%arg5 floordiv 16) mod 16, 0, ((%arg5 mod 16) floordiv 8) mod 2] : memref<16x6x2xvector<8xf32>>
                %70 = affine.load %2[(%arg5 floordiv 16) mod 16, 0, ((%arg5 mod 16) floordiv 8) mod 2] : memref<16x6x2xvector<8xf32>>
                %71 = vector.insertelement %61, %70[%c1_i64 : i64] : vector<8xf32>
                affine.store %71, %2[(%arg5 floordiv 16) mod 16, 0, ((%arg5 mod 16) floordiv 8) mod 2] : memref<16x6x2xvector<8xf32>>
                %72 = affine.load %2[(%arg5 floordiv 16) mod 16, 0, ((%arg5 mod 16) floordiv 8) mod 2] : memref<16x6x2xvector<8xf32>>
                %73 = vector.insertelement %62, %72[%c2_i64 : i64] : vector<8xf32>
                affine.store %73, %2[(%arg5 floordiv 16) mod 16, 0, ((%arg5 mod 16) floordiv 8) mod 2] : memref<16x6x2xvector<8xf32>>
                %74 = affine.load %2[(%arg5 floordiv 16) mod 16, 0, ((%arg5 mod 16) floordiv 8) mod 2] : memref<16x6x2xvector<8xf32>>
                %75 = vector.insertelement %63, %74[%c3_i64 : i64] : vector<8xf32>
                affine.store %75, %2[(%arg5 floordiv 16) mod 16, 0, ((%arg5 mod 16) floordiv 8) mod 2] : memref<16x6x2xvector<8xf32>>
                %76 = affine.load %2[(%arg5 floordiv 16) mod 16, 0, ((%arg5 mod 16) floordiv 8) mod 2] : memref<16x6x2xvector<8xf32>>
                %77 = vector.insertelement %64, %76[%c4_i64 : i64] : vector<8xf32>
                affine.store %77, %2[(%arg5 floordiv 16) mod 16, 0, ((%arg5 mod 16) floordiv 8) mod 2] : memref<16x6x2xvector<8xf32>>
                %78 = affine.load %2[(%arg5 floordiv 16) mod 16, 0, ((%arg5 mod 16) floordiv 8) mod 2] : memref<16x6x2xvector<8xf32>>
                %79 = vector.insertelement %65, %78[%c5_i64 : i64] : vector<8xf32>
                affine.store %79, %2[(%arg5 floordiv 16) mod 16, 0, ((%arg5 mod 16) floordiv 8) mod 2] : memref<16x6x2xvector<8xf32>>
                %80 = affine.load %2[(%arg5 floordiv 16) mod 16, 0, ((%arg5 mod 16) floordiv 8) mod 2] : memref<16x6x2xvector<8xf32>>
                %81 = vector.insertelement %66, %80[%c6_i64 : i64] : vector<8xf32>
                affine.store %81, %2[(%arg5 floordiv 16) mod 16, 0, ((%arg5 mod 16) floordiv 8) mod 2] : memref<16x6x2xvector<8xf32>>
                %82 = affine.load %2[(%arg5 floordiv 16) mod 16, 0, ((%arg5 mod 16) floordiv 8) mod 2] : memref<16x6x2xvector<8xf32>>
                %83 = vector.insertelement %67, %82[%c7_i64 : i64] : vector<8xf32>
                affine.store %83, %2[(%arg5 floordiv 16) mod 16, 0, ((%arg5 mod 16) floordiv 8) mod 2] : memref<16x6x2xvector<8xf32>>
                %84 = affine.load %2[(%arg5 floordiv 16) mod 16, 0, ((%arg5 mod 16) floordiv 8) mod 2] : memref<16x6x2xvector<8xf32>>
                %85 = vector.insertelement %60, %84[%c0_i64 : i64] : vector<8xf32>
                affine.store %85, %2[(%arg5 floordiv 16) mod 16, 0, ((%arg5 mod 16) floordiv 8) mod 2] : memref<16x6x2xvector<8xf32>>
                %86 = affine.load %2[(%arg5 floordiv 16) mod 16, 0, ((%arg5 mod 16) floordiv 8) mod 2] : memref<16x6x2xvector<8xf32>>
                %87 = vector.insertelement %61, %86[%c1_i64 : i64] : vector<8xf32>
                affine.store %87, %2[(%arg5 floordiv 16) mod 16, 0, ((%arg5 mod 16) floordiv 8) mod 2] : memref<16x6x2xvector<8xf32>>
                %88 = affine.load %2[(%arg5 floordiv 16) mod 16, 0, ((%arg5 mod 16) floordiv 8) mod 2] : memref<16x6x2xvector<8xf32>>
                %89 = vector.insertelement %62, %88[%c2_i64 : i64] : vector<8xf32>
                affine.store %89, %2[(%arg5 floordiv 16) mod 16, 0, ((%arg5 mod 16) floordiv 8) mod 2] : memref<16x6x2xvector<8xf32>>
                %90 = affine.load %2[(%arg5 floordiv 16) mod 16, 0, ((%arg5 mod 16) floordiv 8) mod 2] : memref<16x6x2xvector<8xf32>>
                %91 = vector.insertelement %63, %90[%c3_i64 : i64] : vector<8xf32>
                affine.store %91, %2[(%arg5 floordiv 16) mod 16, 0, ((%arg5 mod 16) floordiv 8) mod 2] : memref<16x6x2xvector<8xf32>>
                %92 = affine.load %2[(%arg5 floordiv 16) mod 16, 0, ((%arg5 mod 16) floordiv 8) mod 2] : memref<16x6x2xvector<8xf32>>
                %93 = vector.insertelement %64, %92[%c4_i64 : i64] : vector<8xf32>
                affine.store %93, %2[(%arg5 floordiv 16) mod 16, 0, ((%arg5 mod 16) floordiv 8) mod 2] : memref<16x6x2xvector<8xf32>>
                %94 = affine.load %2[(%arg5 floordiv 16) mod 16, 0, ((%arg5 mod 16) floordiv 8) mod 2] : memref<16x6x2xvector<8xf32>>
                %95 = vector.insertelement %65, %94[%c5_i64 : i64] : vector<8xf32>
                affine.store %95, %2[(%arg5 floordiv 16) mod 16, 0, ((%arg5 mod 16) floordiv 8) mod 2] : memref<16x6x2xvector<8xf32>>
                %96 = affine.load %2[(%arg5 floordiv 16) mod 16, 0, ((%arg5 mod 16) floordiv 8) mod 2] : memref<16x6x2xvector<8xf32>>
                %97 = vector.insertelement %66, %96[%c6_i64 : i64] : vector<8xf32>
                affine.store %97, %2[(%arg5 floordiv 16) mod 16, 0, ((%arg5 mod 16) floordiv 8) mod 2] : memref<16x6x2xvector<8xf32>>
                %98 = affine.load %2[(%arg5 floordiv 16) mod 16, 0, ((%arg5 mod 16) floordiv 8) mod 2] : memref<16x6x2xvector<8xf32>>
                %99 = vector.insertelement %67, %98[%c7_i64 : i64] : vector<8xf32>
                affine.store %99, %2[(%arg5 floordiv 16) mod 16, 0, ((%arg5 mod 16) floordiv 8) mod 2] : memref<16x6x2xvector<8xf32>>
                %100 = affine.apply affine_map<(d0, d1) -> (d0 + d1)>(%arg6, %arg7)
                %101 = affine.apply affine_map<(d0, d1) -> (d0 + d1)>(%arg6, %arg7)
                %102 = affine.apply affine_map<(d0, d1) -> (d0 + d1)>(%arg6, %arg7)
                %103 = affine.apply affine_map<(d0, d1) -> (d0 + d1)>(%arg6, %arg7)
                %104 = affine.apply affine_map<(d0, d1) -> (d0 + d1)>(%arg6, %arg7)
                %105 = affine.apply affine_map<(d0, d1) -> (d0 + d1)>(%arg6, %arg7)
                %106 = affine.apply affine_map<(d0, d1) -> (d0 + d1)>(%arg6, %arg7)
                %107 = affine.apply affine_map<(d0, d1) -> (d0 + d1)>(%arg6, %arg7)
                %108 = load %arg0[%arg4, %100] : memref<784x128xf32, affine_map<(d0, d1) -> (d0 * 128 + d1)>>
                %109 = load %arg0[%arg4, %101] : memref<784x128xf32, affine_map<(d0, d1) -> (d0 * 128 + d1)>>
                %110 = load %arg0[%arg4, %102] : memref<784x128xf32, affine_map<(d0, d1) -> (d0 * 128 + d1)>>
                %111 = load %arg0[%arg4, %103] : memref<784x128xf32, affine_map<(d0, d1) -> (d0 * 128 + d1)>>
                %112 = load %arg0[%arg4, %104] : memref<784x128xf32, affine_map<(d0, d1) -> (d0 * 128 + d1)>>
                %113 = load %arg0[%arg4, %105] : memref<784x128xf32, affine_map<(d0, d1) -> (d0 * 128 + d1)>>
                %114 = load %arg0[%arg4, %106] : memref<784x128xf32, affine_map<(d0, d1) -> (d0 * 128 + d1)>>
                %115 = load %arg0[%arg4, %107] : memref<784x128xf32, affine_map<(d0, d1) -> (d0 * 128 + d1)>>
                %116 = affine.load %3[((%arg5 + 8) floordiv 16) mod 16, (%arg6 + %arg7) mod 128, %arg5 floordiv 8 - ((%arg5 + 8) floordiv 16) * 2 - ((%arg5 floordiv 8 - ((%arg5 + 8) floordiv 16) * 2 + 1) floordiv 2) * 2 + 1] : memref<16x128x2xvector<8xf32>>
                %117 = vector.extractelement %116[%c0_i64 : i64] : vector<8xf32>
                %118 = affine.load %3[((%arg5 + 8) floordiv 16) mod 16, (%arg6 + %arg7) mod 128, %arg5 floordiv 8 - ((%arg5 + 8) floordiv 16) * 2 - ((%arg5 floordiv 8 - ((%arg5 + 8) floordiv 16) * 2 + 1) floordiv 2) * 2 + 1] : memref<16x128x2xvector<8xf32>>
                %119 = vector.extractelement %118[%c1_i64 : i64] : vector<8xf32>
                %120 = affine.load %3[((%arg5 + 8) floordiv 16) mod 16, (%arg6 + %arg7) mod 128, %arg5 floordiv 8 - ((%arg5 + 8) floordiv 16) * 2 - ((%arg5 floordiv 8 - ((%arg5 + 8) floordiv 16) * 2 + 1) floordiv 2) * 2 + 1] : memref<16x128x2xvector<8xf32>>
                %121 = vector.extractelement %120[%c2_i64 : i64] : vector<8xf32>
                %122 = affine.load %3[((%arg5 + 8) floordiv 16) mod 16, (%arg6 + %arg7) mod 128, %arg5 floordiv 8 - ((%arg5 + 8) floordiv 16) * 2 - ((%arg5 floordiv 8 - ((%arg5 + 8) floordiv 16) * 2 + 1) floordiv 2) * 2 + 1] : memref<16x128x2xvector<8xf32>>
                %123 = vector.extractelement %122[%c3_i64 : i64] : vector<8xf32>
                %124 = affine.load %3[((%arg5 + 8) floordiv 16) mod 16, (%arg6 + %arg7) mod 128, %arg5 floordiv 8 - ((%arg5 + 8) floordiv 16) * 2 - ((%arg5 floordiv 8 - ((%arg5 + 8) floordiv 16) * 2 + 1) floordiv 2) * 2 + 1] : memref<16x128x2xvector<8xf32>>
                %125 = vector.extractelement %124[%c4_i64 : i64] : vector<8xf32>
                %126 = affine.load %3[((%arg5 + 8) floordiv 16) mod 16, (%arg6 + %arg7) mod 128, %arg5 floordiv 8 - ((%arg5 + 8) floordiv 16) * 2 - ((%arg5 floordiv 8 - ((%arg5 + 8) floordiv 16) * 2 + 1) floordiv 2) * 2 + 1] : memref<16x128x2xvector<8xf32>>
                %127 = vector.extractelement %126[%c5_i64 : i64] : vector<8xf32>
                %128 = affine.load %3[((%arg5 + 8) floordiv 16) mod 16, (%arg6 + %arg7) mod 128, %arg5 floordiv 8 - ((%arg5 + 8) floordiv 16) * 2 - ((%arg5 floordiv 8 - ((%arg5 + 8) floordiv 16) * 2 + 1) floordiv 2) * 2 + 1] : memref<16x128x2xvector<8xf32>>
                %129 = vector.extractelement %128[%c6_i64 : i64] : vector<8xf32>
                %130 = affine.load %3[((%arg5 + 8) floordiv 16) mod 16, (%arg6 + %arg7) mod 128, %arg5 floordiv 8 - ((%arg5 + 8) floordiv 16) * 2 - ((%arg5 floordiv 8 - ((%arg5 + 8) floordiv 16) * 2 + 1) floordiv 2) * 2 + 1] : memref<16x128x2xvector<8xf32>>
                %131 = vector.extractelement %130[%c7_i64 : i64] : vector<8xf32>
                %132 = "accv.bin_op"(%108, %117) {predicate = 2 : i64} : (f32, f32) -> f32
                %133 = "accv.bin_op"(%109, %119) {predicate = 2 : i64} : (f32, f32) -> f32
                %134 = "accv.bin_op"(%110, %121) {predicate = 2 : i64} : (f32, f32) -> f32
                %135 = "accv.bin_op"(%111, %123) {predicate = 2 : i64} : (f32, f32) -> f32
                %136 = "accv.bin_op"(%112, %125) {predicate = 2 : i64} : (f32, f32) -> f32
                %137 = "accv.bin_op"(%113, %127) {predicate = 2 : i64} : (f32, f32) -> f32
                %138 = "accv.bin_op"(%114, %129) {predicate = 2 : i64} : (f32, f32) -> f32
                %139 = "accv.bin_op"(%115, %131) {predicate = 2 : i64} : (f32, f32) -> f32
                %140 = affine.load %2[((%arg5 + 8) floordiv 16) mod 16, 0, %arg5 floordiv 8 - ((%arg5 + 8) floordiv 16) * 2 - ((%arg5 floordiv 8 - ((%arg5 + 8) floordiv 16) * 2 + 1) floordiv 2) * 2 + 1] : memref<16x6x2xvector<8xf32>>
                %141 = vector.extractelement %140[%c0_i64 : i64] : vector<8xf32>
                %142 = affine.load %2[((%arg5 + 8) floordiv 16) mod 16, 0, %arg5 floordiv 8 - ((%arg5 + 8) floordiv 16) * 2 - ((%arg5 floordiv 8 - ((%arg5 + 8) floordiv 16) * 2 + 1) floordiv 2) * 2 + 1] : memref<16x6x2xvector<8xf32>>
                %143 = vector.extractelement %142[%c1_i64 : i64] : vector<8xf32>
                %144 = affine.load %2[((%arg5 + 8) floordiv 16) mod 16, 0, %arg5 floordiv 8 - ((%arg5 + 8) floordiv 16) * 2 - ((%arg5 floordiv 8 - ((%arg5 + 8) floordiv 16) * 2 + 1) floordiv 2) * 2 + 1] : memref<16x6x2xvector<8xf32>>
                %145 = vector.extractelement %144[%c2_i64 : i64] : vector<8xf32>
                %146 = affine.load %2[((%arg5 + 8) floordiv 16) mod 16, 0, %arg5 floordiv 8 - ((%arg5 + 8) floordiv 16) * 2 - ((%arg5 floordiv 8 - ((%arg5 + 8) floordiv 16) * 2 + 1) floordiv 2) * 2 + 1] : memref<16x6x2xvector<8xf32>>
                %147 = vector.extractelement %146[%c3_i64 : i64] : vector<8xf32>
                %148 = affine.load %2[((%arg5 + 8) floordiv 16) mod 16, 0, %arg5 floordiv 8 - ((%arg5 + 8) floordiv 16) * 2 - ((%arg5 floordiv 8 - ((%arg5 + 8) floordiv 16) * 2 + 1) floordiv 2) * 2 + 1] : memref<16x6x2xvector<8xf32>>
                %149 = vector.extractelement %148[%c4_i64 : i64] : vector<8xf32>
                %150 = affine.load %2[((%arg5 + 8) floordiv 16) mod 16, 0, %arg5 floordiv 8 - ((%arg5 + 8) floordiv 16) * 2 - ((%arg5 floordiv 8 - ((%arg5 + 8) floordiv 16) * 2 + 1) floordiv 2) * 2 + 1] : memref<16x6x2xvector<8xf32>>
                %151 = vector.extractelement %150[%c5_i64 : i64] : vector<8xf32>
                %152 = affine.load %2[((%arg5 + 8) floordiv 16) mod 16, 0, %arg5 floordiv 8 - ((%arg5 + 8) floordiv 16) * 2 - ((%arg5 floordiv 8 - ((%arg5 + 8) floordiv 16) * 2 + 1) floordiv 2) * 2 + 1] : memref<16x6x2xvector<8xf32>>
                %153 = vector.extractelement %152[%c6_i64 : i64] : vector<8xf32>
                %154 = affine.load %2[((%arg5 + 8) floordiv 16) mod 16, 0, %arg5 floordiv 8 - ((%arg5 + 8) floordiv 16) * 2 - ((%arg5 floordiv 8 - ((%arg5 + 8) floordiv 16) * 2 + 1) floordiv 2) * 2 + 1] : memref<16x6x2xvector<8xf32>>
                %155 = vector.extractelement %154[%c7_i64 : i64] : vector<8xf32>
                %156 = "accv.bin_op"(%141, %132) {predicate = 0 : i64} : (f32, f32) -> f32
                %157 = "accv.bin_op"(%143, %133) {predicate = 0 : i64} : (f32, f32) -> f32
                %158 = "accv.bin_op"(%145, %134) {predicate = 0 : i64} : (f32, f32) -> f32
                %159 = "accv.bin_op"(%147, %135) {predicate = 0 : i64} : (f32, f32) -> f32
                %160 = "accv.bin_op"(%149, %136) {predicate = 0 : i64} : (f32, f32) -> f32
                %161 = "accv.bin_op"(%151, %137) {predicate = 0 : i64} : (f32, f32) -> f32
                %162 = "accv.bin_op"(%153, %138) {predicate = 0 : i64} : (f32, f32) -> f32
                %163 = "accv.bin_op"(%155, %139) {predicate = 0 : i64} : (f32, f32) -> f32
                %164 = affine.load %2[((%arg5 + 8) floordiv 16) mod 16, 0, %arg5 floordiv 8 - ((%arg5 + 8) floordiv 16) * 2 - ((%arg5 floordiv 8 - ((%arg5 + 8) floordiv 16) * 2 + 1) floordiv 2) * 2 + 1] : memref<16x6x2xvector<8xf32>>
                %165 = vector.insertelement %156, %164[%c0_i64 : i64] : vector<8xf32>
                affine.store %165, %2[((%arg5 + 8) floordiv 16) mod 16, 0, %arg5 floordiv 8 - ((%arg5 + 8) floordiv 16) * 2 - ((%arg5 floordiv 8 - ((%arg5 + 8) floordiv 16) * 2 + 1) floordiv 2) * 2 + 1] : memref<16x6x2xvector<8xf32>>
                %166 = affine.load %2[((%arg5 + 8) floordiv 16) mod 16, 0, %arg5 floordiv 8 - ((%arg5 + 8) floordiv 16) * 2 - ((%arg5 floordiv 8 - ((%arg5 + 8) floordiv 16) * 2 + 1) floordiv 2) * 2 + 1] : memref<16x6x2xvector<8xf32>>
                %167 = vector.insertelement %157, %166[%c1_i64 : i64] : vector<8xf32>
                affine.store %167, %2[((%arg5 + 8) floordiv 16) mod 16, 0, %arg5 floordiv 8 - ((%arg5 + 8) floordiv 16) * 2 - ((%arg5 floordiv 8 - ((%arg5 + 8) floordiv 16) * 2 + 1) floordiv 2) * 2 + 1] : memref<16x6x2xvector<8xf32>>
                %168 = affine.load %2[((%arg5 + 8) floordiv 16) mod 16, 0, %arg5 floordiv 8 - ((%arg5 + 8) floordiv 16) * 2 - ((%arg5 floordiv 8 - ((%arg5 + 8) floordiv 16) * 2 + 1) floordiv 2) * 2 + 1] : memref<16x6x2xvector<8xf32>>
                %169 = vector.insertelement %158, %168[%c2_i64 : i64] : vector<8xf32>
                affine.store %169, %2[((%arg5 + 8) floordiv 16) mod 16, 0, %arg5 floordiv 8 - ((%arg5 + 8) floordiv 16) * 2 - ((%arg5 floordiv 8 - ((%arg5 + 8) floordiv 16) * 2 + 1) floordiv 2) * 2 + 1] : memref<16x6x2xvector<8xf32>>
                %170 = affine.load %2[((%arg5 + 8) floordiv 16) mod 16, 0, %arg5 floordiv 8 - ((%arg5 + 8) floordiv 16) * 2 - ((%arg5 floordiv 8 - ((%arg5 + 8) floordiv 16) * 2 + 1) floordiv 2) * 2 + 1] : memref<16x6x2xvector<8xf32>>
                %171 = vector.insertelement %159, %170[%c3_i64 : i64] : vector<8xf32>
                affine.store %171, %2[((%arg5 + 8) floordiv 16) mod 16, 0, %arg5 floordiv 8 - ((%arg5 + 8) floordiv 16) * 2 - ((%arg5 floordiv 8 - ((%arg5 + 8) floordiv 16) * 2 + 1) floordiv 2) * 2 + 1] : memref<16x6x2xvector<8xf32>>
                %172 = affine.load %2[((%arg5 + 8) floordiv 16) mod 16, 0, %arg5 floordiv 8 - ((%arg5 + 8) floordiv 16) * 2 - ((%arg5 floordiv 8 - ((%arg5 + 8) floordiv 16) * 2 + 1) floordiv 2) * 2 + 1] : memref<16x6x2xvector<8xf32>>
                %173 = vector.insertelement %160, %172[%c4_i64 : i64] : vector<8xf32>
                affine.store %173, %2[((%arg5 + 8) floordiv 16) mod 16, 0, %arg5 floordiv 8 - ((%arg5 + 8) floordiv 16) * 2 - ((%arg5 floordiv 8 - ((%arg5 + 8) floordiv 16) * 2 + 1) floordiv 2) * 2 + 1] : memref<16x6x2xvector<8xf32>>
                %174 = affine.load %2[((%arg5 + 8) floordiv 16) mod 16, 0, %arg5 floordiv 8 - ((%arg5 + 8) floordiv 16) * 2 - ((%arg5 floordiv 8 - ((%arg5 + 8) floordiv 16) * 2 + 1) floordiv 2) * 2 + 1] : memref<16x6x2xvector<8xf32>>
                %175 = vector.insertelement %161, %174[%c5_i64 : i64] : vector<8xf32>
                affine.store %175, %2[((%arg5 + 8) floordiv 16) mod 16, 0, %arg5 floordiv 8 - ((%arg5 + 8) floordiv 16) * 2 - ((%arg5 floordiv 8 - ((%arg5 + 8) floordiv 16) * 2 + 1) floordiv 2) * 2 + 1] : memref<16x6x2xvector<8xf32>>
                %176 = affine.load %2[((%arg5 + 8) floordiv 16) mod 16, 0, %arg5 floordiv 8 - ((%arg5 + 8) floordiv 16) * 2 - ((%arg5 floordiv 8 - ((%arg5 + 8) floordiv 16) * 2 + 1) floordiv 2) * 2 + 1] : memref<16x6x2xvector<8xf32>>
                %177 = vector.insertelement %162, %176[%c6_i64 : i64] : vector<8xf32>
                affine.store %177, %2[((%arg5 + 8) floordiv 16) mod 16, 0, %arg5 floordiv 8 - ((%arg5 + 8) floordiv 16) * 2 - ((%arg5 floordiv 8 - ((%arg5 + 8) floordiv 16) * 2 + 1) floordiv 2) * 2 + 1] : memref<16x6x2xvector<8xf32>>
                %178 = affine.load %2[((%arg5 + 8) floordiv 16) mod 16, 0, %arg5 floordiv 8 - ((%arg5 + 8) floordiv 16) * 2 - ((%arg5 floordiv 8 - ((%arg5 + 8) floordiv 16) * 2 + 1) floordiv 2) * 2 + 1] : memref<16x6x2xvector<8xf32>>
                %179 = vector.insertelement %163, %178[%c7_i64 : i64] : vector<8xf32>
                affine.store %179, %2[((%arg5 + 8) floordiv 16) mod 16, 0, %arg5 floordiv 8 - ((%arg5 + 8) floordiv 16) * 2 - ((%arg5 floordiv 8 - ((%arg5 + 8) floordiv 16) * 2 + 1) floordiv 2) * 2 + 1] : memref<16x6x2xvector<8xf32>>
                %180 = affine.load %2[((%arg5 + 8) floordiv 16) mod 16, 0, %arg5 floordiv 8 - ((%arg5 + 8) floordiv 16) * 2 - ((%arg5 floordiv 8 - ((%arg5 + 8) floordiv 16) * 2 + 1) floordiv 2) * 2 + 1] : memref<16x6x2xvector<8xf32>>
                %181 = vector.insertelement %156, %180[%c0_i64 : i64] : vector<8xf32>
                affine.store %181, %2[((%arg5 + 8) floordiv 16) mod 16, 0, %arg5 floordiv 8 - ((%arg5 + 8) floordiv 16) * 2 - ((%arg5 floordiv 8 - ((%arg5 + 8) floordiv 16) * 2 + 1) floordiv 2) * 2 + 1] : memref<16x6x2xvector<8xf32>>
                %182 = affine.load %2[((%arg5 + 8) floordiv 16) mod 16, 0, %arg5 floordiv 8 - ((%arg5 + 8) floordiv 16) * 2 - ((%arg5 floordiv 8 - ((%arg5 + 8) floordiv 16) * 2 + 1) floordiv 2) * 2 + 1] : memref<16x6x2xvector<8xf32>>
                %183 = vector.insertelement %157, %182[%c1_i64 : i64] : vector<8xf32>
                affine.store %183, %2[((%arg5 + 8) floordiv 16) mod 16, 0, %arg5 floordiv 8 - ((%arg5 + 8) floordiv 16) * 2 - ((%arg5 floordiv 8 - ((%arg5 + 8) floordiv 16) * 2 + 1) floordiv 2) * 2 + 1] : memref<16x6x2xvector<8xf32>>
                %184 = affine.load %2[((%arg5 + 8) floordiv 16) mod 16, 0, %arg5 floordiv 8 - ((%arg5 + 8) floordiv 16) * 2 - ((%arg5 floordiv 8 - ((%arg5 + 8) floordiv 16) * 2 + 1) floordiv 2) * 2 + 1] : memref<16x6x2xvector<8xf32>>
                %185 = vector.insertelement %158, %184[%c2_i64 : i64] : vector<8xf32>
                affine.store %185, %2[((%arg5 + 8) floordiv 16) mod 16, 0, %arg5 floordiv 8 - ((%arg5 + 8) floordiv 16) * 2 - ((%arg5 floordiv 8 - ((%arg5 + 8) floordiv 16) * 2 + 1) floordiv 2) * 2 + 1] : memref<16x6x2xvector<8xf32>>
                %186 = affine.load %2[((%arg5 + 8) floordiv 16) mod 16, 0, %arg5 floordiv 8 - ((%arg5 + 8) floordiv 16) * 2 - ((%arg5 floordiv 8 - ((%arg5 + 8) floordiv 16) * 2 + 1) floordiv 2) * 2 + 1] : memref<16x6x2xvector<8xf32>>
                %187 = vector.insertelement %159, %186[%c3_i64 : i64] : vector<8xf32>
                affine.store %187, %2[((%arg5 + 8) floordiv 16) mod 16, 0, %arg5 floordiv 8 - ((%arg5 + 8) floordiv 16) * 2 - ((%arg5 floordiv 8 - ((%arg5 + 8) floordiv 16) * 2 + 1) floordiv 2) * 2 + 1] : memref<16x6x2xvector<8xf32>>
                %188 = affine.load %2[((%arg5 + 8) floordiv 16) mod 16, 0, %arg5 floordiv 8 - ((%arg5 + 8) floordiv 16) * 2 - ((%arg5 floordiv 8 - ((%arg5 + 8) floordiv 16) * 2 + 1) floordiv 2) * 2 + 1] : memref<16x6x2xvector<8xf32>>
                %189 = vector.insertelement %160, %188[%c4_i64 : i64] : vector<8xf32>
                affine.store %189, %2[((%arg5 + 8) floordiv 16) mod 16, 0, %arg5 floordiv 8 - ((%arg5 + 8) floordiv 16) * 2 - ((%arg5 floordiv 8 - ((%arg5 + 8) floordiv 16) * 2 + 1) floordiv 2) * 2 + 1] : memref<16x6x2xvector<8xf32>>
                %190 = affine.load %2[((%arg5 + 8) floordiv 16) mod 16, 0, %arg5 floordiv 8 - ((%arg5 + 8) floordiv 16) * 2 - ((%arg5 floordiv 8 - ((%arg5 + 8) floordiv 16) * 2 + 1) floordiv 2) * 2 + 1] : memref<16x6x2xvector<8xf32>>
                %191 = vector.insertelement %161, %190[%c5_i64 : i64] : vector<8xf32>
                affine.store %191, %2[((%arg5 + 8) floordiv 16) mod 16, 0, %arg5 floordiv 8 - ((%arg5 + 8) floordiv 16) * 2 - ((%arg5 floordiv 8 - ((%arg5 + 8) floordiv 16) * 2 + 1) floordiv 2) * 2 + 1] : memref<16x6x2xvector<8xf32>>
                %192 = affine.load %2[((%arg5 + 8) floordiv 16) mod 16, 0, %arg5 floordiv 8 - ((%arg5 + 8) floordiv 16) * 2 - ((%arg5 floordiv 8 - ((%arg5 + 8) floordiv 16) * 2 + 1) floordiv 2) * 2 + 1] : memref<16x6x2xvector<8xf32>>
                %193 = vector.insertelement %162, %192[%c6_i64 : i64] : vector<8xf32>
                affine.store %193, %2[((%arg5 + 8) floordiv 16) mod 16, 0, %arg5 floordiv 8 - ((%arg5 + 8) floordiv 16) * 2 - ((%arg5 floordiv 8 - ((%arg5 + 8) floordiv 16) * 2 + 1) floordiv 2) * 2 + 1] : memref<16x6x2xvector<8xf32>>
                %194 = affine.load %2[((%arg5 + 8) floordiv 16) mod 16, 0, %arg5 floordiv 8 - ((%arg5 + 8) floordiv 16) * 2 - ((%arg5 floordiv 8 - ((%arg5 + 8) floordiv 16) * 2 + 1) floordiv 2) * 2 + 1] : memref<16x6x2xvector<8xf32>>
                %195 = vector.insertelement %163, %194[%c7_i64 : i64] : vector<8xf32>
                affine.store %195, %2[((%arg5 + 8) floordiv 16) mod 16, 0, %arg5 floordiv 8 - ((%arg5 + 8) floordiv 16) * 2 - ((%arg5 floordiv 8 - ((%arg5 + 8) floordiv 16) * 2 + 1) floordiv 2) * 2 + 1] : memref<16x6x2xvector<8xf32>>
              } {begin = 0 : i64, end = 4 : i64, index = #accln<"index{k_i_i,10}">, subdomainIndexOrder = [#accln<"index{i,0}">, #accln<"index{j,1}">, #accln<"index{k,2}">], subdomainSize = [1, 16, 1]}
            } {begin = 0 : i64, end = 128 : i64, index = #accln<"index{k_i_o,9}">, subdomainIndexOrder = [#accln<"index{i,0}">, #accln<"index{j,1}">, #accln<"index{k,2}">], subdomainSize = [1, 16, 4]}
          } {begin = 0 : i64, end = 256 : i64, index = #accln<"index{j_i_o,13}">, subdomainIndexOrder = [#accln<"index{i,0}">, #accln<"index{j,1}">, #accln<"index{k,2}">], subdomainSize = [1, 16, 128]}
          affine.for %arg5 = 0 to 256 step 128 {
            affine.if affine_set<() : (0 == 0)>() {
              %4 = affine.apply affine_map<(d0, d1) -> (d0 + d1)>(%arg3, %arg5)
              %5 = vector.transfer_read %arg2[%arg4, %4], %cst {masked = [false]} : memref<784x512xf32, affine_map<(d0, d1) -> (d0 * 512 + d1)>>, vector<8xf32>
              %6 = affine.load %2[(%arg5 floordiv 16) mod 16, 0, ((%arg5 mod 16) floordiv 8) mod 2] : memref<16x6x2xvector<8xf32>>
              %7 = addf %5, %6 : vector<8xf32>
              store %7, %1[%c0, %c0] : memref<1x16xvector<8xf32>>
              %8 = affine.apply affine_map<(d0, d1) -> (d0 + d1 + 8)>(%arg3, %arg5)
              %9 = vector.transfer_read %arg2[%arg4, %8], %cst {masked = [false]} : memref<784x512xf32, affine_map<(d0, d1) -> (d0 * 512 + d1)>>, vector<8xf32>
              %10 = affine.load %2[((%arg5 + 8) floordiv 16) mod 16, 0, %arg5 floordiv 8 - ((%arg5 + 8) floordiv 16) * 2 - ((%arg5 floordiv 8 - ((%arg5 + 8) floordiv 16) * 2 + 1) floordiv 2) * 2 + 1] : memref<16x6x2xvector<8xf32>>
              %11 = addf %9, %10 : vector<8xf32>
              store %11, %1[%c0, %c1] : memref<1x16xvector<8xf32>>
              %12 = affine.apply affine_map<(d0, d1) -> (d0 + d1 + 16)>(%arg3, %arg5)
              %13 = vector.transfer_read %arg2[%arg4, %12], %cst {masked = [false]} : memref<784x512xf32, affine_map<(d0, d1) -> (d0 * 512 + d1)>>, vector<8xf32>
              %14 = affine.load %2[%arg5 floordiv 16 - ((%arg5 floordiv 16 + 1) floordiv 16) * 16 + 1, 0, ((%arg5 mod 16) floordiv 8) mod 2] : memref<16x6x2xvector<8xf32>>
              %15 = addf %13, %14 : vector<8xf32>
              store %15, %1[%c0, %c2] : memref<1x16xvector<8xf32>>
              %16 = affine.apply affine_map<(d0, d1) -> (d0 + d1 + 24)>(%arg3, %arg5)
              %17 = vector.transfer_read %arg2[%arg4, %16], %cst {masked = [false]} : memref<784x512xf32, affine_map<(d0, d1) -> (d0 * 512 + d1)>>, vector<8xf32>
              %18 = affine.load %2[((%arg5 + 24) floordiv 16) mod 16, 0, %arg5 floordiv 8 - ((%arg5 + 24) floordiv 16) * 2 - ((%arg5 floordiv 8 - ((%arg5 + 24) floordiv 16) * 2 + 3) floordiv 2) * 2 + 3] : memref<16x6x2xvector<8xf32>>
              %19 = addf %17, %18 : vector<8xf32>
              store %19, %1[%c0, %c3] : memref<1x16xvector<8xf32>>
              %20 = affine.apply affine_map<(d0, d1) -> (d0 + d1 + 32)>(%arg3, %arg5)
              %21 = vector.transfer_read %arg2[%arg4, %20], %cst {masked = [false]} : memref<784x512xf32, affine_map<(d0, d1) -> (d0 * 512 + d1)>>, vector<8xf32>
              %22 = affine.load %2[%arg5 floordiv 16 - ((%arg5 floordiv 16 + 2) floordiv 16) * 16 + 2, 0, ((%arg5 mod 16) floordiv 8) mod 2] : memref<16x6x2xvector<8xf32>>
              %23 = addf %21, %22 : vector<8xf32>
              store %23, %1[%c0, %c4] : memref<1x16xvector<8xf32>>
              %24 = affine.apply affine_map<(d0, d1) -> (d0 + d1 + 40)>(%arg3, %arg5)
              %25 = vector.transfer_read %arg2[%arg4, %24], %cst {masked = [false]} : memref<784x512xf32, affine_map<(d0, d1) -> (d0 * 512 + d1)>>, vector<8xf32>
              %26 = affine.load %2[((%arg5 + 40) floordiv 16) mod 16, 0, %arg5 floordiv 8 - ((%arg5 + 40) floordiv 16) * 2 - ((%arg5 floordiv 8 - ((%arg5 + 40) floordiv 16) * 2 + 5) floordiv 2) * 2 + 5] : memref<16x6x2xvector<8xf32>>
              %27 = addf %25, %26 : vector<8xf32>
              store %27, %1[%c0, %c5] : memref<1x16xvector<8xf32>>
              %28 = affine.apply affine_map<(d0, d1) -> (d0 + d1 + 48)>(%arg3, %arg5)
              %29 = vector.transfer_read %arg2[%arg4, %28], %cst {masked = [false]} : memref<784x512xf32, affine_map<(d0, d1) -> (d0 * 512 + d1)>>, vector<8xf32>
              %30 = affine.load %2[%arg5 floordiv 16 - ((%arg5 floordiv 16 + 3) floordiv 16) * 16 + 3, 0, ((%arg5 mod 16) floordiv 8) mod 2] : memref<16x6x2xvector<8xf32>>
              %31 = addf %29, %30 : vector<8xf32>
              store %31, %1[%c0, %c6] : memref<1x16xvector<8xf32>>
              %32 = affine.apply affine_map<(d0, d1) -> (d0 + d1 + 56)>(%arg3, %arg5)
              %33 = vector.transfer_read %arg2[%arg4, %32], %cst {masked = [false]} : memref<784x512xf32, affine_map<(d0, d1) -> (d0 * 512 + d1)>>, vector<8xf32>
              %34 = affine.load %2[((%arg5 + 56) floordiv 16) mod 16, 0, %arg5 floordiv 8 - ((%arg5 + 56) floordiv 16) * 2 - ((%arg5 floordiv 8 - ((%arg5 + 56) floordiv 16) * 2 + 7) floordiv 2) * 2 + 7] : memref<16x6x2xvector<8xf32>>
              %35 = addf %33, %34 : vector<8xf32>
              store %35, %1[%c0, %c7] : memref<1x16xvector<8xf32>>
              %36 = affine.apply affine_map<(d0, d1) -> (d0 + d1 + 64)>(%arg3, %arg5)
              %37 = vector.transfer_read %arg2[%arg4, %36], %cst {masked = [false]} : memref<784x512xf32, affine_map<(d0, d1) -> (d0 * 512 + d1)>>, vector<8xf32>
              %38 = affine.load %2[%arg5 floordiv 16 - ((%arg5 floordiv 16 + 4) floordiv 16) * 16 + 4, 0, ((%arg5 mod 16) floordiv 8) mod 2] : memref<16x6x2xvector<8xf32>>
              %39 = addf %37, %38 : vector<8xf32>
              store %39, %1[%c0, %c8] : memref<1x16xvector<8xf32>>
              %40 = affine.apply affine_map<(d0, d1) -> (d0 + d1 + 72)>(%arg3, %arg5)
              %41 = vector.transfer_read %arg2[%arg4, %40], %cst {masked = [false]} : memref<784x512xf32, affine_map<(d0, d1) -> (d0 * 512 + d1)>>, vector<8xf32>
              %42 = affine.load %2[((%arg5 + 72) floordiv 16) mod 16, 0, %arg5 floordiv 8 - ((%arg5 + 72) floordiv 16) * 2 - ((%arg5 floordiv 8 - ((%arg5 + 72) floordiv 16) * 2 + 9) floordiv 2) * 2 + 9] : memref<16x6x2xvector<8xf32>>
              %43 = addf %41, %42 : vector<8xf32>
              store %43, %1[%c0, %c9] : memref<1x16xvector<8xf32>>
              %44 = affine.apply affine_map<(d0, d1) -> (d0 + d1 + 80)>(%arg3, %arg5)
              %45 = vector.transfer_read %arg2[%arg4, %44], %cst {masked = [false]} : memref<784x512xf32, affine_map<(d0, d1) -> (d0 * 512 + d1)>>, vector<8xf32>
              %46 = affine.load %2[%arg5 floordiv 16 - ((%arg5 floordiv 16 + 5) floordiv 16) * 16 + 5, 0, ((%arg5 mod 16) floordiv 8) mod 2] : memref<16x6x2xvector<8xf32>>
              %47 = addf %45, %46 : vector<8xf32>
              store %47, %1[%c0, %c10] : memref<1x16xvector<8xf32>>
              %48 = affine.apply affine_map<(d0, d1) -> (d0 + d1 + 88)>(%arg3, %arg5)
              %49 = vector.transfer_read %arg2[%arg4, %48], %cst {masked = [false]} : memref<784x512xf32, affine_map<(d0, d1) -> (d0 * 512 + d1)>>, vector<8xf32>
              %50 = affine.load %2[((%arg5 + 88) floordiv 16) mod 16, 0, %arg5 floordiv 8 - ((%arg5 + 88) floordiv 16) * 2 - ((%arg5 floordiv 8 - ((%arg5 + 88) floordiv 16) * 2 + 11) floordiv 2) * 2 + 11] : memref<16x6x2xvector<8xf32>>
              %51 = addf %49, %50 : vector<8xf32>
              store %51, %1[%c0, %c11] : memref<1x16xvector<8xf32>>
              %52 = affine.apply affine_map<(d0, d1) -> (d0 + d1 + 96)>(%arg3, %arg5)
              %53 = vector.transfer_read %arg2[%arg4, %52], %cst {masked = [false]} : memref<784x512xf32, affine_map<(d0, d1) -> (d0 * 512 + d1)>>, vector<8xf32>
              %54 = affine.load %2[%arg5 floordiv 16 - ((%arg5 floordiv 16 + 6) floordiv 16) * 16 + 6, 0, ((%arg5 mod 16) floordiv 8) mod 2] : memref<16x6x2xvector<8xf32>>
              %55 = addf %53, %54 : vector<8xf32>
              store %55, %1[%c0, %c12] : memref<1x16xvector<8xf32>>
              %56 = affine.apply affine_map<(d0, d1) -> (d0 + d1 + 104)>(%arg3, %arg5)
              %57 = vector.transfer_read %arg2[%arg4, %56], %cst {masked = [false]} : memref<784x512xf32, affine_map<(d0, d1) -> (d0 * 512 + d1)>>, vector<8xf32>
              %58 = affine.load %2[((%arg5 + 104) floordiv 16) mod 16, 0, %arg5 floordiv 8 - ((%arg5 + 104) floordiv 16) * 2 - ((%arg5 floordiv 8 - ((%arg5 + 104) floordiv 16) * 2 + 13) floordiv 2) * 2 + 13] : memref<16x6x2xvector<8xf32>>
              %59 = addf %57, %58 : vector<8xf32>
              store %59, %1[%c0, %c13] : memref<1x16xvector<8xf32>>
              %60 = affine.apply affine_map<(d0, d1) -> (d0 + d1 + 112)>(%arg3, %arg5)
              %61 = vector.transfer_read %arg2[%arg4, %60], %cst {masked = [false]} : memref<784x512xf32, affine_map<(d0, d1) -> (d0 * 512 + d1)>>, vector<8xf32>
              %62 = affine.load %2[%arg5 floordiv 16 - ((%arg5 floordiv 16 + 7) floordiv 16) * 16 + 7, 0, ((%arg5 mod 16) floordiv 8) mod 2] : memref<16x6x2xvector<8xf32>>
              %63 = addf %61, %62 : vector<8xf32>
              store %63, %1[%c0, %c14] : memref<1x16xvector<8xf32>>
              %64 = affine.apply affine_map<(d0, d1) -> (d0 + d1 + 120)>(%arg3, %arg5)
              %65 = vector.transfer_read %arg2[%arg4, %64], %cst {masked = [false]} : memref<784x512xf32, affine_map<(d0, d1) -> (d0 * 512 + d1)>>, vector<8xf32>
              %66 = affine.load %2[((%arg5 + 120) floordiv 16) mod 16, 0, %arg5 floordiv 8 - ((%arg5 + 120) floordiv 16) * 2 - ((%arg5 floordiv 8 - ((%arg5 + 120) floordiv 16) * 2 + 15) floordiv 2) * 2 + 15] : memref<16x6x2xvector<8xf32>>
              %67 = addf %65, %66 : vector<8xf32>
              store %67, %1[%c0, %c15] : memref<1x16xvector<8xf32>>
              affine.for %arg6 = 0 to 16 {
                %68 = affine.apply affine_map<(d0, d1, d2) -> (d0 + d1 + d2 * 8)>(%arg3, %arg5, %arg6)
                %69 = load %1[%c0, %arg6] : memref<1x16xvector<8xf32>>
                vector.transfer_write %69, %arg2[%arg4, %68] {masked = [false]} : vector<8xf32>, memref<784x512xf32, affine_map<(d0, d1) -> (d0 * 512 + d1)>>
              } {begin = 0 : i64, end = 16 : i64, index = #accln<"index{k_i_o,9}">, subdomainIndexOrder = [#accln<"index{i_i,8}">, #accln<"index{k_i_o,9}">], subdomainSize = [1, 1]}
            } else {
              %4 = affine.apply affine_map<(d0, d1) -> (d0 + d1)>(%arg3, %arg5)
              %5 = vector.transfer_read %arg2[%arg4, %4], %cst : memref<784x512xf32, affine_map<(d0, d1) -> (d0 * 512 + d1)>>, vector<8xf32>
              %6 = affine.load %2[(%arg5 floordiv 16) mod 16, 0, ((%arg5 mod 16) floordiv 8) mod 2] : memref<16x6x2xvector<8xf32>>
              %7 = addf %5, %6 : vector<8xf32>
              store %7, %1[%c0, %c0] : memref<1x16xvector<8xf32>>
              %8 = affine.apply affine_map<(d0, d1) -> (d0 + d1 + 8)>(%arg3, %arg5)
              %9 = vector.transfer_read %arg2[%arg4, %8], %cst : memref<784x512xf32, affine_map<(d0, d1) -> (d0 * 512 + d1)>>, vector<8xf32>
              %10 = affine.load %2[((%arg5 + 8) floordiv 16) mod 16, 0, %arg5 floordiv 8 - ((%arg5 + 8) floordiv 16) * 2 - ((%arg5 floordiv 8 - ((%arg5 + 8) floordiv 16) * 2 + 1) floordiv 2) * 2 + 1] : memref<16x6x2xvector<8xf32>>
              %11 = addf %9, %10 : vector<8xf32>
              store %11, %1[%c0, %c1] : memref<1x16xvector<8xf32>>
              %12 = affine.apply affine_map<(d0, d1) -> (d0 + d1 + 16)>(%arg3, %arg5)
              %13 = vector.transfer_read %arg2[%arg4, %12], %cst : memref<784x512xf32, affine_map<(d0, d1) -> (d0 * 512 + d1)>>, vector<8xf32>
              %14 = affine.load %2[%arg5 floordiv 16 - ((%arg5 floordiv 16 + 1) floordiv 16) * 16 + 1, 0, ((%arg5 mod 16) floordiv 8) mod 2] : memref<16x6x2xvector<8xf32>>
              %15 = addf %13, %14 : vector<8xf32>
              store %15, %1[%c0, %c2] : memref<1x16xvector<8xf32>>
              %16 = affine.apply affine_map<(d0, d1) -> (d0 + d1 + 24)>(%arg3, %arg5)
              %17 = vector.transfer_read %arg2[%arg4, %16], %cst : memref<784x512xf32, affine_map<(d0, d1) -> (d0 * 512 + d1)>>, vector<8xf32>
              %18 = affine.load %2[((%arg5 + 24) floordiv 16) mod 16, 0, %arg5 floordiv 8 - ((%arg5 + 24) floordiv 16) * 2 - ((%arg5 floordiv 8 - ((%arg5 + 24) floordiv 16) * 2 + 3) floordiv 2) * 2 + 3] : memref<16x6x2xvector<8xf32>>
              %19 = addf %17, %18 : vector<8xf32>
              store %19, %1[%c0, %c3] : memref<1x16xvector<8xf32>>
              %20 = affine.apply affine_map<(d0, d1) -> (d0 + d1 + 32)>(%arg3, %arg5)
              %21 = vector.transfer_read %arg2[%arg4, %20], %cst : memref<784x512xf32, affine_map<(d0, d1) -> (d0 * 512 + d1)>>, vector<8xf32>
              %22 = affine.load %2[%arg5 floordiv 16 - ((%arg5 floordiv 16 + 2) floordiv 16) * 16 + 2, 0, ((%arg5 mod 16) floordiv 8) mod 2] : memref<16x6x2xvector<8xf32>>
              %23 = addf %21, %22 : vector<8xf32>
              store %23, %1[%c0, %c4] : memref<1x16xvector<8xf32>>
              %24 = affine.apply affine_map<(d0, d1) -> (d0 + d1 + 40)>(%arg3, %arg5)
              %25 = vector.transfer_read %arg2[%arg4, %24], %cst : memref<784x512xf32, affine_map<(d0, d1) -> (d0 * 512 + d1)>>, vector<8xf32>
              %26 = affine.load %2[((%arg5 + 40) floordiv 16) mod 16, 0, %arg5 floordiv 8 - ((%arg5 + 40) floordiv 16) * 2 - ((%arg5 floordiv 8 - ((%arg5 + 40) floordiv 16) * 2 + 5) floordiv 2) * 2 + 5] : memref<16x6x2xvector<8xf32>>
              %27 = addf %25, %26 : vector<8xf32>
              store %27, %1[%c0, %c5] : memref<1x16xvector<8xf32>>
              %28 = affine.apply affine_map<(d0, d1) -> (d0 + d1 + 48)>(%arg3, %arg5)
              %29 = vector.transfer_read %arg2[%arg4, %28], %cst : memref<784x512xf32, affine_map<(d0, d1) -> (d0 * 512 + d1)>>, vector<8xf32>
              %30 = affine.load %2[%arg5 floordiv 16 - ((%arg5 floordiv 16 + 3) floordiv 16) * 16 + 3, 0, ((%arg5 mod 16) floordiv 8) mod 2] : memref<16x6x2xvector<8xf32>>
              %31 = addf %29, %30 : vector<8xf32>
              store %31, %1[%c0, %c6] : memref<1x16xvector<8xf32>>
              %32 = affine.apply affine_map<(d0, d1) -> (d0 + d1 + 56)>(%arg3, %arg5)
              %33 = vector.transfer_read %arg2[%arg4, %32], %cst : memref<784x512xf32, affine_map<(d0, d1) -> (d0 * 512 + d1)>>, vector<8xf32>
              %34 = affine.load %2[((%arg5 + 56) floordiv 16) mod 16, 0, %arg5 floordiv 8 - ((%arg5 + 56) floordiv 16) * 2 - ((%arg5 floordiv 8 - ((%arg5 + 56) floordiv 16) * 2 + 7) floordiv 2) * 2 + 7] : memref<16x6x2xvector<8xf32>>
              %35 = addf %33, %34 : vector<8xf32>
              store %35, %1[%c0, %c7] : memref<1x16xvector<8xf32>>
              %36 = affine.apply affine_map<(d0, d1) -> (d0 + d1 + 64)>(%arg3, %arg5)
              %37 = vector.transfer_read %arg2[%arg4, %36], %cst : memref<784x512xf32, affine_map<(d0, d1) -> (d0 * 512 + d1)>>, vector<8xf32>
              %38 = affine.load %2[%arg5 floordiv 16 - ((%arg5 floordiv 16 + 4) floordiv 16) * 16 + 4, 0, ((%arg5 mod 16) floordiv 8) mod 2] : memref<16x6x2xvector<8xf32>>
              %39 = addf %37, %38 : vector<8xf32>
              store %39, %1[%c0, %c8] : memref<1x16xvector<8xf32>>
              %40 = affine.apply affine_map<(d0, d1) -> (d0 + d1 + 72)>(%arg3, %arg5)
              %41 = vector.transfer_read %arg2[%arg4, %40], %cst : memref<784x512xf32, affine_map<(d0, d1) -> (d0 * 512 + d1)>>, vector<8xf32>
              %42 = affine.load %2[((%arg5 + 72) floordiv 16) mod 16, 0, %arg5 floordiv 8 - ((%arg5 + 72) floordiv 16) * 2 - ((%arg5 floordiv 8 - ((%arg5 + 72) floordiv 16) * 2 + 9) floordiv 2) * 2 + 9] : memref<16x6x2xvector<8xf32>>
              %43 = addf %41, %42 : vector<8xf32>
              store %43, %1[%c0, %c9] : memref<1x16xvector<8xf32>>
              %44 = affine.apply affine_map<(d0, d1) -> (d0 + d1 + 80)>(%arg3, %arg5)
              %45 = vector.transfer_read %arg2[%arg4, %44], %cst : memref<784x512xf32, affine_map<(d0, d1) -> (d0 * 512 + d1)>>, vector<8xf32>
              %46 = affine.load %2[%arg5 floordiv 16 - ((%arg5 floordiv 16 + 5) floordiv 16) * 16 + 5, 0, ((%arg5 mod 16) floordiv 8) mod 2] : memref<16x6x2xvector<8xf32>>
              %47 = addf %45, %46 : vector<8xf32>
              store %47, %1[%c0, %c10] : memref<1x16xvector<8xf32>>
              %48 = affine.apply affine_map<(d0, d1) -> (d0 + d1 + 88)>(%arg3, %arg5)
              %49 = vector.transfer_read %arg2[%arg4, %48], %cst : memref<784x512xf32, affine_map<(d0, d1) -> (d0 * 512 + d1)>>, vector<8xf32>
              %50 = affine.load %2[((%arg5 + 88) floordiv 16) mod 16, 0, %arg5 floordiv 8 - ((%arg5 + 88) floordiv 16) * 2 - ((%arg5 floordiv 8 - ((%arg5 + 88) floordiv 16) * 2 + 11) floordiv 2) * 2 + 11] : memref<16x6x2xvector<8xf32>>
              %51 = addf %49, %50 : vector<8xf32>
              store %51, %1[%c0, %c11] : memref<1x16xvector<8xf32>>
              %52 = affine.apply affine_map<(d0, d1) -> (d0 + d1 + 96)>(%arg3, %arg5)
              %53 = vector.transfer_read %arg2[%arg4, %52], %cst : memref<784x512xf32, affine_map<(d0, d1) -> (d0 * 512 + d1)>>, vector<8xf32>
              %54 = affine.load %2[%arg5 floordiv 16 - ((%arg5 floordiv 16 + 6) floordiv 16) * 16 + 6, 0, ((%arg5 mod 16) floordiv 8) mod 2] : memref<16x6x2xvector<8xf32>>
              %55 = addf %53, %54 : vector<8xf32>
              store %55, %1[%c0, %c12] : memref<1x16xvector<8xf32>>
              %56 = affine.apply affine_map<(d0, d1) -> (d0 + d1 + 104)>(%arg3, %arg5)
              %57 = vector.transfer_read %arg2[%arg4, %56], %cst : memref<784x512xf32, affine_map<(d0, d1) -> (d0 * 512 + d1)>>, vector<8xf32>
              %58 = affine.load %2[((%arg5 + 104) floordiv 16) mod 16, 0, %arg5 floordiv 8 - ((%arg5 + 104) floordiv 16) * 2 - ((%arg5 floordiv 8 - ((%arg5 + 104) floordiv 16) * 2 + 13) floordiv 2) * 2 + 13] : memref<16x6x2xvector<8xf32>>
              %59 = addf %57, %58 : vector<8xf32>
              store %59, %1[%c0, %c13] : memref<1x16xvector<8xf32>>
              %60 = affine.apply affine_map<(d0, d1) -> (d0 + d1 + 112)>(%arg3, %arg5)
              %61 = vector.transfer_read %arg2[%arg4, %60], %cst : memref<784x512xf32, affine_map<(d0, d1) -> (d0 * 512 + d1)>>, vector<8xf32>
              %62 = affine.load %2[%arg5 floordiv 16 - ((%arg5 floordiv 16 + 7) floordiv 16) * 16 + 7, 0, ((%arg5 mod 16) floordiv 8) mod 2] : memref<16x6x2xvector<8xf32>>
              %63 = addf %61, %62 : vector<8xf32>
              store %63, %1[%c0, %c14] : memref<1x16xvector<8xf32>>
              %64 = affine.apply affine_map<(d0, d1) -> (d0 + d1 + 120)>(%arg3, %arg5)
              %65 = vector.transfer_read %arg2[%arg4, %64], %cst : memref<784x512xf32, affine_map<(d0, d1) -> (d0 * 512 + d1)>>, vector<8xf32>
              %66 = affine.load %2[((%arg5 + 120) floordiv 16) mod 16, 0, %arg5 floordiv 8 - ((%arg5 + 120) floordiv 16) * 2 - ((%arg5 floordiv 8 - ((%arg5 + 120) floordiv 16) * 2 + 15) floordiv 2) * 2 + 15] : memref<16x6x2xvector<8xf32>>
              %67 = addf %65, %66 : vector<8xf32>
              store %67, %1[%c0, %c15] : memref<1x16xvector<8xf32>>
              affine.for %arg6 = 0 to 16 {
                %68 = affine.apply affine_map<(d0, d1, d2) -> (d0 + d1 + d2 * 8)>(%arg3, %arg5, %arg6)
                %69 = load %1[%c0, %arg6] : memref<1x16xvector<8xf32>>
                vector.transfer_write %69, %arg2[%arg4, %68] : vector<8xf32>, memref<784x512xf32, affine_map<(d0, d1) -> (d0 * 512 + d1)>>
              } {begin = 0 : i64, end = 16 : i64, index = #accln<"index{j_i_o,13}">, subdomainIndexOrder = [#accln<"index{i_i_i,12}">, #accln<"index{j_i_o,13}">], subdomainSize = [1, 1]}
            }
          } {begin = 0 : i64, end = 256 : i64, index = #accln<"index{j_i,4}">, subdomainIndexOrder = [#accln<"index{i,0}">, #accln<"index{j,1}">], subdomainSize = [1, 128]}
        } {begin = 0 : i64, end = 784 : i64, index = #accln<"index{i_o,7}">, subdomainIndexOrder = [#accln<"index{i,0}">, #accln<"index{j,1}">, #accln<"index{k,2}">], subdomainSize = [1, 256, 128]}
      } {begin = 0 : i64, end = 512 : i64, index = #accln<"index{j_o,3}">, subdomainIndexOrder = [#accln<"index{i,0}">, #accln<"index{j,1}">, #accln<"index{k,2}">], subdomainSize = [784, 256, 128]}
      return
    }
    func @optimized_matmul_py_4a6286d9(%arg0: memref<784x128xf32, affine_map<(d0, d1) -> (d0 * 128 + d1)>>, %arg1: memref<128x512xf32, affine_map<(d0, d1) -> (d0 * 512 + d1)>>, %arg2: memref<784x512xf32, affine_map<(d0, d1) -> (d0 * 512 + d1)>>) attributes {exec_target = 0 : i64, accv.base_name = "optimized_matmul_py", accv.emit_header_decl, accv.emit_raw_pointer_api} {
      accv.launch_func @optimized_matmul_py_4a6286d9_impl_17630232307017152746(%arg0, %arg1, %arg2) {exec_target = 0 : i64} : (memref<784x128xf32, affine_map<(d0, d1) -> (d0 * 128 + d1)>>, memref<128x512xf32, affine_map<(d0, d1) -> (d0 * 512 + d1)>>, memref<784x512xf32, affine_map<(d0, d1) -> (d0 * 512 + d1)>>) -> ()
      return
    }
  }
}
